…
I0630 14:51:19.145609 47538 net.cpp:313] The NetState phase (0) differed from the phase (1) specified by a rule in layer accuracy
I0630 14:51:19.145622 47538 net.cpp:313] The NetState phase (0) differed from the phase (1) specified by a rule in layer loss
I0630 14:51:19.147580 47538 net.cpp:49] Initializing net from parameters: 
state {
  phase: TRAIN
}
layer {
  name: "data"
  type: "HDF5Data"
  top: "dataT1"
  top: "dataT2"
  top: "dataSeg"
  top: "dataCp"
  include {
    phase: TRAIN
  }
  hdf5_data_param {
    source: "trainInfant3D_list-BCP18-cp.txt"
    batch_size: 3
    shuffle: true
  }
}
layer {
  name: "concat"
  type: "Concat"
  bottom: "dataT1"
  bottom: "dataT2"
  top: "data"
}
layer {
  name: "conv1a"
  type: "Convolution"
  bottom: "data"
  top: "conv1a"
  param {
    lr_mult: 1
  }
  param {
    lr_mult: 2
  }
  convolution_param {
    num_output: 64
    pad: 1
    kernel_size: 3
    stride: 1
    weight_filler {
      type: "xavier"
    }
    bias_filler {
      type: "constant"
      value: 0
    }
    engine: CUDNN
  }
}
layer {
  name: "bn1"
  type: "BatchNorm"
  bottom: "conv1a"
  top: "conv1a_bn"
  param {
    lr_mult: 0
  }
  param {
    lr_mult: 0
  }
  param {
    lr_mult: 0
  }
  batch_norm_param {
    use_global_stats: false
  }
}
layer {
  name: "scale_conv1"
  type: "Scale"
  bottom: "conv1a_bn"
  top: "conv1a_bn"
  scale_param {
    bias_term: true
  }
}
layer {
  name: "relu1a"
  type: "ReLU"
  bottom: "conv1a_bn"
  top: "conv1a_bn"
}
layer {
  name: "Convolution1"
  type: "Convolution"
  bottom: "conv1a_bn"
  top: "Convolution1"
  param {
    lr_mult: 1
  }
  param {
    lr_mult: 2
  }
  convolution_param {
    num_output: 64
    pad: 1
    kernel_size: 3
    stride: 1
    weight_filler {
      type: "xavier"
    }
    bias_filler {
      type: "constant"
      value: 0
    }
    engine: CUDNN
  }
}
layer {
  name: "BatchNorm1"
  type: "BatchNorm"
  bottom: "Convolution1"
  top: "BatchNorm1"
  param {
    lr_mult: 0
    decay_mult: 0
  }
  param {
    lr_mult: 0
    decay_mult: 0
  }
  param {
    lr_mult: 0
    decay_mult: 0
  }
  batch_norm_param {
    use_global_stats: false
  }
}
layer {
  name: "Scale1"
  type: "Scale"
  bottom: "BatchNorm1"
  top: "BatchNorm1"
  scale_param {
    bias_term: true
  }
}
layer {
  name: "ReLU1"
  type: "ReLU"
  bottom: "BatchNorm1"
  top: "BatchNorm1"
}
layer {
  name: "Convolution2"
  type: "Convolution"
  bottom: "BatchNorm1"
  top: "Convolution2"
  param {
    lr_mult: 1
  }
  param {
    lr_mult: 2
  }
  convolution_param {
    num_output: 16
    pad: 1
    kernel_size: 3
    stride: 1
    weight_filler {
      type: "xavier"
    }
    bias_filler {
      type: "constant"
      value: 0
    }
    engine: CUDNN
  }
}
layer {
  name: "Dropout1"
  type: "Dropout"
  bottom: "Convolution2"
  top: "Dropout1"
  dropout_param {
    dropout_ratio: 0.1
  }
}
layer {
  name: "Concat1"
  type: "Concat"
  bottom: "Convolution1"
  bottom: "Dropout1"
  top: "Concat1"
  concat_param {
    axis: 1
  }
}
layer {
  name: "BatchNorm2"
  type: "BatchNorm"
  bottom: "Concat1"
  top: "BatchNorm2"
  param {
    lr_mult: 0
    decay_mult: 0
  }
  param {
    lr_mult: 0
    decay_mult: 0
  }
  param {
    lr_mult: 0
    decay_mult: 0
  }
  batch_norm_param {
    use_global_stats: false
  }
}
layer {
  name: "Scale2"
  type: "Scale"
  bottom: "BatchNorm2"
  top: "BatchNorm2"
  scale_param {
    bias_term: true
  }
}
layer {
  name: "ReLU2"
  type: "ReLU"
  bottom: "BatchNorm2"
  top: "BatchNorm2"
}
layer {
  name: "Convolution3"
  type: "Convolution"
  bottom: "BatchNorm2"
  top: "Convolution3"
  param {
    lr_mult: 1
  }
  param {
    lr_mult: 2
  }
  convolution_param {
    num_output: 16
    pad: 1
    kernel_size: 3
    stride: 1
    weight_filler {
      type: "xavier"
    }
    bias_filler {
      type: "constant"
      value: 0
    }
    engine: CUDNN
  }
}
layer {
  name: "Dropout2"
  type: "Dropout"
  bottom: "Convolution3"
  top: "Dropout2"
  dropout_param {
    dropout_ratio: 0.1
  }
}
layer {
  name: "Concat2"
  type: "Concat"
  bottom: "Concat1"
  bottom: "Dropout2"
  top: "Concat2"
  concat_param {
    axis: 1
  }
}
layer {
  name: "BatchNorm3"
  type: "BatchNorm"
  bottom: "Concat2"
  top: "BatchNorm3"
  param {
    lr_mult: 0
    decay_mult: 0
  }
  param {
    lr_mult: 0
    decay_mult: 0
  }
  param {
    lr_mult: 0
    decay_mult: 0
  }
  batch_norm_param {
    use_global_stats: false
  }
}
layer {
  name: "Scale3"
  type: "Scale"
  bottom: "BatchNorm3"
  top: "BatchNorm3"
  scale_param {
    bias_term: true
  }
}
layer {
  name: "ReLU3"
  type: "ReLU"
  bottom: "BatchNorm3"
  top: "BatchNorm3"
}
layer {
  name: "Convolution4"
  type: "Convolution"
  bottom: "BatchNorm3"
  top: "Convolution4"
  param {
    lr_mult: 1
  }
  param {
    lr_mult: 2
  }
  convolution_param {
    num_output: 16
    pad: 1
    kernel_size: 3
    stride: 1
    weight_filler {
      type: "xavier"
    }
    bias_filler {
      type: "constant"
      value: 0
    }
    engine: CUDNN
  }
}
layer {
  name: "Dropout3"
  type: "Dropout"
  bottom: "Convolution4"
  top: "Dropout3"
  dropout_param {
    dropout_ratio: 0.1
  }
}
layer {
  name: "Concat3"
  type: "Concat"
  bottom: "Concat2"
  bottom: "Dropout3"
  top: "Concat3"
  concat_param {
    axis: 1
  }
}
layer {
  name: "bn2"
  type: "BatchNorm"
  bottom: "Concat3"
  top: "conv1b_bn"
  param {
    lr_mult: 0
  }
  param {
    lr_mult: 0
  }
  param {
    lr_mult: 0
  }
  batch_norm_param {
    use_global_stats: false
  }
}
layer {
  name: "scale_conv2"
  type: "Scale"
  bottom: "conv1b_bn"
  top: "conv1b_bn"
  scale_param {
    bias_term: true
  }
}
layer {
  name: "relu1b"
  type: "ReLU"
  bottom: "conv1b_bn"
  top: "conv1b_bn"
}
layer {
  name: "conv1c"
  type: "Convolution"
  bottom: "conv1b_bn"
  top: "conv1c"
  param {
    lr_mult: 1
  }
  param {
    lr_mult: 2
  }
  convolution_param {
    num_output: 64
    pad: 1
    kernel_size: 3
    stride: 1
    weight_filler {
      type: "xavier"
    }
    bias_filler {
      type: "constant"
      value: 0
    }
    engine: CUDNN
  }
}
layer {
  name: "bn3"
  type: "BatchNorm"
  bottom: "conv1c"
  top: "conv1c_bn"
  param {
    lr_mult: 0
  }
  param {
    lr_mult: 0
  }
  param {
    lr_mult: 0
  }
  batch_norm_param {
    use_global_stats: false
  }
}
layer {
  name: "scale_conv3"
  type: "Scale"
  bottom: "conv1c_bn"
  top: "conv1c_bn"
  scale_param {
    bias_term: true
  }
}
layer {
  name: "relu1c"
  type: "ReLU"
  bottom: "conv1c_bn"
  top: "conv1c_bn"
}
layer {
  name: "pool1"
  type: "Pooling"
  bottom: "conv1c_bn"
  top: "pool1"
  pooling_param {
    pool: MAX
    kernel_size: 3
    stride: 2
    engine: CUDNN
  }
}
layer {
  name: "conv2a-Convolution1"
  type: "Convolution"
  bottom: "pool1"
  top: "conv2a-Convolution1"
  param {
    lr_mult: 1
  }
  param {
    lr_mult: 2
  }
  convolution_param {
    num_output: 64
    pad: 1
    kernel_size: 3
    stride: 1
    weight_filler {
      type: "xavier"
    }
    bias_filler {
      type: "constant"
      value: 0
    }
    engine: CUDNN
  }
}
layer {
  name: "conv2a-BatchNorm1"
  type: "BatchNorm"
  bottom: "conv2a-Convolution1"
  top: "conv2a-BatchNorm1"
  param {
    lr_mult: 0
    decay_mult: 0
  }
  param {
    lr_mult: 0
    decay_mult: 0
  }
  param {
    lr_mult: 0
    decay_mult: 0
  }
  batch_norm_param {
    use_global_stats: false
  }
}
layer {
  name: "conv2a-Scale1"
  type: "Scale"
  bottom: "conv2a-BatchNorm1"
  top: "conv2a-BatchNorm1"
  scale_param {
    bias_term: true
  }
}
layer {
  name: "conv2a-ReLU1"
  type: "ReLU"
  bottom: "conv2a-BatchNorm1"
  top: "conv2a-BatchNorm1"
}
layer {
  name: "conv2a-Convolution2"
  type: "Convolution"
  bottom: "conv2a-BatchNorm1"
  top: "conv2a-Convolution2"
  param {
    lr_mult: 1
  }
  param {
    lr_mult: 2
  }
  convolution_param {
    num_output: 32
    pad: 1
    kernel_size: 3
    stride: 1
    weight_filler {
      type: "xavier"
    }
    bias_filler {
      type: "constant"
      value: 0
    }
    engine: CUDNN
  }
}
layer {
  name: "conv2a-Dropout1"
  type: "Dropout"
  bottom: "conv2a-Convolution2"
  top: "conv2a-Dropout1"
  dropout_param {
    dropout_ratio: 0.1
  }
}
layer {
  name: "conv2a-Concat1"
  type: "Concat"
  bottom: "conv2a-Convolution1"
  bottom: "conv2a-Dropout1"
  top: "conv2a-Concat1"
  concat_param {
    axis: 1
  }
}
layer {
  name: "conv2a-BatchNorm2"
  type: "BatchNorm"
  bottom: "conv2a-Concat1"
  top: "conv2a-BatchNorm2"
  param {
    lr_mult: 0
    decay_mult: 0
  }
  param {
    lr_mult: 0
    decay_mult: 0
  }
  param {
    lr_mult: 0
    decay_mult: 0
  }
  batch_norm_param {
    use_global_stats: false
  }
}
layer {
  name: "conv2a-Scale2"
  type: "Scale"
  bottom: "conv2a-BatchNorm2"
  top: "conv2a-BatchNorm2"
  scale_param {
    bias_term: true
  }
}
layer {
  name: "conv2a-ReLU2"
  type: "ReLU"
  bottom: "conv2a-BatchNorm2"
  top: "conv2a-BatchNorm2"
}
layer {
  name: "conv2a-Convolution3"
  type: "Convolution"
  bottom: "conv2a-BatchNorm2"
  top: "conv2a-Convolution3"
  param {
    lr_mult: 1
  }
  param {
    lr_mult: 2
  }
  convolution_param {
    num_output: 32
    pad: 1
    kernel_size: 3
    stride: 1
    weight_filler {
      type: "xavier"
    }
    bias_filler {
      type: "constant"
      value: 0
    }
    engine: CUDNN
  }
}
layer {
  name: "conv2a-Dropout2"
  type: "Dropout"
  bottom: "conv2a-Convolution3"
  top: "conv2a-Dropout2"
  dropout_param {
    dropout_ratio: 0.1
  }
}
layer {
  name: "conv2a-Concat2"
  type: "Concat"
  bottom: "conv2a-Concat1"
  bottom: "conv2a-Dropout2"
  top: "conv2a-Concat2"
  concat_param {
    axis: 1
  }
}
layer {
  name: "conv2a-BatchNorm3"
  type: "BatchNorm"
  bottom: "conv2a-Concat2"
  top: "conv2a-BatchNorm3"
  param {
    lr_mult: 0
    decay_mult: 0
  }
  param {
    lr_mult: 0
    decay_mult: 0
  }
  param {
    lr_mult: 0
    decay_mult: 0
  }
  batch_norm_param {
    use_global_stats: false
  }
}
layer {
  name: "conv2a-Scale3"
  type: "Scale"
  bottom: "conv2a-BatchNorm3"
  top: "conv2a-BatchNorm3"
  scale_param {
    bias_term: true
  }
}
layer {
  name: "conv2a-ReLU3"
  type: "ReLU"
  bottom: "conv2a-BatchNorm3"
  top: "conv2a-BatchNorm3"
}
layer {
  name: "conv2a-Convolution4"
  type: "Convolution"
  bottom: "conv2a-BatchNorm3"
  top: "conv2a-Convolution4"
  param {
    lr_mult: 1
  }
  param {
    lr_mult: 2
  }
  convolution_param {
    num_output: 32
    pad: 1
    kernel_size: 3
    stride: 1
    weight_filler {
      type: "xavier"
    }
    bias_filler {
      type: "constant"
      value: 0
    }
    engine: CUDNN
  }
}
layer {
  name: "conv2a-Dropout3"
  type: "Dropout"
  bottom: "conv2a-Convolution4"
  top: "conv2a-Dropout3"
  dropout_param {
    dropout_ratio: 0.1
  }
}
layer {
  name: "conv2a-Concat3"
  type: "Concat"
  bottom: "conv2a-Concat2"
  bottom: "conv2a-Dropout3"
  top: "conv2a"
  concat_param {
    axis: 1
  }
}
layer {
  name: "bn4"
  type: "BatchNorm"
  bottom: "conv2a"
  top: "conv2a_bn"
  param {
    lr_mult: 0
  }
  param {
    lr_mult: 0
  }
  param {
    lr_mult: 0
  }
  batch_norm_param {
    use_global_stats: false
  }
}
layer {
  name: "scale_conv4"
  type: "Scale"
  bottom: "conv2a_bn"
  top: "conv2a_bn"
  scale_param {
    bias_term: true
  }
}
layer {
  name: "relu2a"
  type: "ReLU"
  bottom: "conv2a_bn"
  top: "conv2a_bn"
}
layer {
  name: "conv2b"
  type: "Convolution"
  bottom: "conv2a_bn"
  top: "conv2b"
  param {
    lr_mult: 1
  }
  param {
    lr_mult: 2
  }
  convolution_param {
    num_output: 128
    pad: 1
    kernel_size: 3
    stride: 1
    weight_filler {
      type: "xavier"
    }
    bias_filler {
      type: "constant"
      value: 0
    }
    engine: CUDNN
  }
}
layer {
  name: "bn5"
  type: "BatchNorm"
  bottom: "conv2b"
  top: "conv2b_bn"
  param {
    lr_mult: 0
  }
  param {
    lr_mult: 0
  }
  param {
    lr_mult: 0
  }
  batch_norm_param {
    use_global_stats: false
  }
}
layer {
  name: "scale_conv5_fine"
  type: "Scale"
  bottom: "conv2b_bn"
  top: "conv2b_bn"
  scale_param {
    bias_term: true
  }
}
layer {
  name: "relu2b"
  type: "ReLU"
  bottom: "conv2b_bn"
  top: "conv2b_bn"
}
layer {
  name: "pool2"
  type: "Pooling"
  bottom: "conv2b_bn"
  top: "pool2"
  pooling_param {
    pool: MAX
    kernel_size: 3
    stride: 2
    engine: CUDNN
  }
}
layer {
  name: "conv3a"
  type: "Convolution"
  bottom: "pool2"
  top: "conv3a"
  param {
    lr_mult: 1
  }
  param {
    lr_mult: 2
  }
  convolution_param {
    num_output: 128
    pad: 1
    kernel_size: 3
    stride: 1
    weight_filler {
      type: "xavier"
    }
    bias_filler {
      type: "constant"
      value: 0
    }
    engine: CUDNN
  }
}
layer {
  name: "bn6"
  type: "BatchNorm"
  bottom: "conv3a"
  top: "conv3a_bn"
  param {
    lr_mult: 0
  }
  param {
    lr_mult: 0
  }
  param {
    lr_mult: 0
  }
  batch_norm_param {
    use_global_stats: false
  }
}
layer {
  name: "scale_conv6"
  type: "Scale"
  bottom: "conv3a_bn"
  top: "conv3a_bn"
  scale_param {
    bias_term: true
  }
}
layer {
  name: "relu3a"
  type: "ReLU"
  bottom: "conv3a_bn"
  top: "conv3a_bn"
}
layer {
  name: "pool3"
  type: "Pooling"
  bottom: "conv3a_bn"
  top: "pool3"
  pooling_param {
    pool: MAX
    kernel_size: 3
    stride: 2
    engine: CUDNN
  }
}
layer {
  name: "deconv4"
  type: "Deconvolution"
  bottom: "pool3"
  top: "deconv4"
  param {
    lr_mult: 1
  }
  param {
    lr_mult: 2
  }
  convolution_param {
    num_output: 128
    pad: 1
    kernel_size: 4
    stride: 2
    weight_filler {
      type: "xavier"
    }
    engine: CUDNN
  }
}
layer {
  name: "concat8"
  type: "Concat"
  bottom: "conv3a"
  bottom: "deconv4"
  top: "concat8"
  concat_param {
    concat_dim: 1
  }
}
layer {
  name: "conv4-Convolution1"
  type: "Convolution"
  bottom: "concat8"
  top: "conv4-Convolution1"
  param {
    lr_mult: 1
  }
  param {
    lr_mult: 2
  }
  convolution_param {
    num_output: 256
    pad: 1
    kernel_size: 3
    stride: 1
    weight_filler {
      type: "xavier"
    }
    bias_filler {
      type: "constant"
      value: 0
    }
    engine: CUDNN
  }
}
layer {
  name: "conv4-BatchNorm1"
  type: "BatchNorm"
  bottom: "conv4-Convolution1"
  top: "conv4-BatchNorm1"
  param {
    lr_mult: 0
    decay_mult: 0
  }
  param {
    lr_mult: 0
    decay_mult: 0
  }
  param {
    lr_mult: 0
    decay_mult: 0
  }
  batch_norm_param {
    use_global_stats: false
  }
}
layer {
  name: "conv4-Scale1"
  type: "Scale"
  bottom: "conv4-BatchNorm1"
  top: "conv4-BatchNorm1"
  scale_param {
    bias_term: true
  }
}
layer {
  name: "conv4-ReLU1"
  type: "ReLU"
  bottom: "conv4-BatchNorm1"
  top: "conv4-BatchNorm1"
}
layer {
  name: "conv4-Convolution2"
  type: "Convolution"
  bottom: "conv4-BatchNorm1"
  top: "conv4-Convolution2"
  param {
    lr_mult: 1
  }
  param {
    lr_mult: 2
  }
  convolution_param {
    num_output: 32
    pad: 1
    kernel_size: 3
    stride: 1
    weight_filler {
      type: "xavier"
    }
    bias_filler {
      type: "constant"
      value: 0
    }
    engine: CUDNN
  }
}
layer {
  name: "conv4-Dropout1"
  type: "Dropout"
  bottom: "conv4-Convolution2"
  top: "conv4-Dropout1"
  dropout_param {
    dropout_ratio: 0.1
  }
}
layer {
  name: "conv4-Concat1"
  type: "Concat"
  bottom: "conv4-Convolution1"
  bottom: "conv4-Dropout1"
  top: "conv4-Concat1"
  concat_param {
    axis: 1
  }
}
layer {
  name: "conv4-BatchNorm2"
  type: "BatchNorm"
  bottom: "conv4-Concat1"
  top: "conv4-BatchNorm2"
  param {
    lr_mult: 0
    decay_mult: 0
  }
  param {
    lr_mult: 0
    decay_mult: 0
  }
  param {
    lr_mult: 0
    decay_mult: 0
  }
  batch_norm_param {
    use_global_stats: false
  }
}
layer {
  name: "conv4-Scale2"
  type: "Scale"
  bottom: "conv4-BatchNorm2"
  top: "conv4-BatchNorm2"
  scale_param {
    bias_term: true
  }
}
layer {
  name: "conv4-ReLU2"
  type: "ReLU"
  bottom: "conv4-BatchNorm2"
  top: "conv4-BatchNorm2"
}
layer {
  name: "conv4-Convolution3"
  type: "Convolution"
  bottom: "conv4-BatchNorm2"
  top: "conv4-Convolution3"
  param {
    lr_mult: 1
  }
  param {
    lr_mult: 2
  }
  convolution_param {
    num_output: 32
    pad: 1
    kernel_size: 3
    stride: 1
    weight_filler {
      type: "xavier"
    }
    bias_filler {
      type: "constant"
      value: 0
    }
    engine: CUDNN
  }
}
layer {
  name: "conv4-Dropout2"
  type: "Dropout"
  bottom: "conv4-Convolution3"
  top: "conv4-Dropout2"
  dropout_param {
    dropout_ratio: 0.1
  }
}
layer {
  name: "conv4-Concat2"
  type: "Concat"
  bottom: "conv4-Concat1"
  bottom: "conv4-Dropout2"
  top: "conv4-Concat2"
  concat_param {
    axis: 1
  }
}
layer {
  name: "conv4-BatchNorm3"
  type: "BatchNorm"
  bottom: "conv4-Concat2"
  top: "conv4-BatchNorm3"
  param {
    lr_mult: 0
    decay_mult: 0
  }
  param {
    lr_mult: 0
    decay_mult: 0
  }
  param {
    lr_mult: 0
    decay_mult: 0
  }
  batch_norm_param {
    use_global_stats: false
  }
}
layer {
  name: "conv4-Scale3"
  type: "Scale"
  bottom: "conv4-BatchNorm3"
  top: "conv4-BatchNorm3"
  scale_param {
    bias_term: true
  }
}
layer {
  name: "conv4-ReLU3"
  type: "ReLU"
  bottom: "conv4-BatchNorm3"
  top: "conv4-BatchNorm3"
}
layer {
  name: "conv4-Convolution4"
  type: "Convolution"
  bottom: "conv4-BatchNorm3"
  top: "conv4-Convolution4"
  param {
    lr_mult: 1
  }
  param {
    lr_mult: 2
  }
  convolution_param {
    num_output: 32
    pad: 1
    kernel_size: 3
    stride: 1
    weight_filler {
      type: "xavier"
    }
    bias_filler {
      type: "constant"
      value: 0
    }
    engine: CUDNN
  }
}
layer {
  name: "conv4-Dropout3"
  type: "Dropout"
  bottom: "conv4-Convolution4"
  top: "conv4-Dropout3"
  dropout_param {
    dropout_ratio: 0.1
  }
}
layer {
  name: "conv4-Concat3"
  type: "Concat"
  bottom: "conv4-Concat2"
  bottom: "conv4-Dropout3"
  top: "conv4"
  concat_param {
    axis: 1
  }
}
layer {
  name: "conv4_bn"
  type: "BatchNorm"
  bottom: "conv4"
  top: "conv4_bn"
  param {
    lr_mult: 0
  }
  param {
    lr_mult: 0
  }
  param {
    lr_mult: 0
  }
  batch_norm_param {
    use_global_stats: false
  }
}
layer {
  name: "scale_conv4_fine"
  type: "Scale"
  bottom: "conv4_bn"
  top: "conv4_bn"
  scale_param {
    bias_term: true
  }
}
layer {
  name: "relu4a"
  type: "ReLU"
  bottom: "conv4_bn"
  top: "conv4_bn"
}
layer {
  name: "deconv5"
  type: "Deconvolution"
  bottom: "conv4_bn"
  top: "deconv5"
  param {
    lr_mult: 1
  }
  param {
    lr_mult: 2
  }
  convolution_param {
    num_output: 128
    pad: 1
    kernel_size: 4
    stride: 2
    weight_filler {
      type: "xavier"
    }
    engine: CUDNN
  }
}
layer {
  name: "concat16"
  type: "Concat"
  bottom: "conv2b"
  bottom: "deconv5"
  top: "concat16"
  concat_param {
    concat_dim: 1
  }
}
layer {
  name: "conv5-Convolution1"
  type: "Convolution"
  bottom: "concat16"
  top: "conv5-Convolution1"
  param {
    lr_mult: 1
  }
  param {
    lr_mult: 2
  }
  convolution_param {
    num_output: 256
    pad: 1
    kernel_size: 3
    stride: 1
    weight_filler {
      type: "xavier"
    }
    bias_filler {
      type: "constant"
      value: 0
    }
    engine: CUDNN
  }
}
layer {
  name: "conv5-BatchNorm1"
  type: "BatchNorm"
  bottom: "conv5-Convolution1"
  top: "conv5-BatchNorm1"
  param {
    lr_mult: 0
    decay_mult: 0
  }
  param {
    lr_mult: 0
    decay_mult: 0
  }
  param {
    lr_mult: 0
    decay_mult: 0
  }
  batch_norm_param {
    use_global_stats: false
  }
}
layer {
  name: "conv5-Scale1"
  type: "Scale"
  bottom: "conv5-BatchNorm1"
  top: "conv5-BatchNorm1"
  scale_param {
    bias_term: true
  }
}
layer {
  name: "conv5-ReLU1"
  type: "ReLU"
  bottom: "conv5-BatchNorm1"
  top: "conv5-BatchNorm1"
}
layer {
  name: "conv5-Convolution2"
  type: "Convolution"
  bottom: "conv5-BatchNorm1"
  top: "conv5-Convolution2"
  param {
    lr_mult: 1
  }
  param {
    lr_mult: 2
  }
  convolution_param {
    num_output: 32
    pad: 1
    kernel_size: 3
    stride: 1
    weight_filler {
      type: "xavier"
    }
    bias_filler {
      type: "constant"
      value: 0
    }
    engine: CUDNN
  }
}
layer {
  name: "conv5-Dropout1"
  type: "Dropout"
  bottom: "conv5-Convolution2"
  top: "conv5-Dropout1"
  dropout_param {
    dropout_ratio: 0.1
  }
}
layer {
  name: "conv5-Concat1"
  type: "Concat"
  bottom: "conv5-Convolution1"
  bottom: "conv5-Dropout1"
  top: "conv5-Concat1"
  concat_param {
    axis: 1
  }
}
layer {
  name: "conv5-BatchNorm2"
  type: "BatchNorm"
  bottom: "conv5-Concat1"
  top: "conv5-BatchNorm2"
  param {
    lr_mult: 0
    decay_mult: 0
  }
  param {
    lr_mult: 0
    decay_mult: 0
  }
  param {
    lr_mult: 0
    decay_mult: 0
  }
  batch_norm_param {
    use_global_stats: false
  }
}
layer {
  name: "conv5-Scale2"
  type: "Scale"
  bottom: "conv5-BatchNorm2"
  top: "conv5-BatchNorm2"
  scale_param {
    bias_term: true
  }
}
layer {
  name: "conv5-ReLU2"
  type: "ReLU"
  bottom: "conv5-BatchNorm2"
  top: "conv5-BatchNorm2"
}
layer {
  name: "conv5-Convolution3"
  type: "Convolution"
  bottom: "conv5-BatchNorm2"
  top: "conv5-Convolution3"
  param {
    lr_mult: 1
  }
  param {
    lr_mult: 2
  }
  convolution_param {
    num_output: 32
    pad: 1
    kernel_size: 3
    stride: 1
    weight_filler {
      type: "xavier"
    }
    bias_filler {
      type: "constant"
      value: 0
    }
    engine: CUDNN
  }
}
layer {
  name: "conv5-Dropout2"
  type: "Dropout"
  bottom: "conv5-Convolution3"
  top: "conv5-Dropout2"
  dropout_param {
    dropout_ratio: 0.1
  }
}
layer {
  name: "conv5-Concat2"
  type: "Concat"
  bottom: "conv5-Concat1"
  bottom: "conv5-Dropout2"
  top: "conv5-Concat2"
  concat_param {
    axis: 1
  }
}
layer {
  name: "conv5-BatchNorm3"
  type: "BatchNorm"
  bottom: "conv5-Concat2"
  top: "conv5-BatchNorm3"
  param {
    lr_mult: 0
    decay_mult: 0
  }
  param {
    lr_mult: 0
    decay_mult: 0
  }
  param {
    lr_mult: 0
    decay_mult: 0
  }
  batch_norm_param {
    use_global_stats: false
  }
}
layer {
  name: "conv5-Scale3"
  type: "Scale"
  bottom: "conv5-BatchNorm3"
  top: "conv5-BatchNorm3"
  scale_param {
    bias_term: true
  }
}
layer {
  name: "conv5-ReLU3"
  type: "ReLU"
  bottom: "conv5-BatchNorm3"
  top: "conv5-BatchNorm3"
}
layer {
  name: "conv5-Convolution4"
  type: "Convolution"
  bottom: "conv5-BatchNorm3"
  top: "conv5-Convolution4"
  param {
    lr_mult: 1
  }
  param {
    lr_mult: 2
  }
  convolution_param {
    num_output: 32
    pad: 1
    kernel_size: 3
    stride: 1
    weight_filler {
      type: "xavier"
    }
    bias_filler {
      type: "constant"
      value: 0
    }
    engine: CUDNN
  }
}
layer {
  name: "conv5-Dropout3"
  type: "Dropout"
  bottom: "conv5-Convolution4"
  top: "conv5-Dropout3"
  dropout_param {
    dropout_ratio: 0.1
  }
}
layer {
  name: "conv5-Concat3"
  type: "Concat"
  bottom: "conv5-Concat2"
  bottom: "conv5-Dropout3"
  top: "conv5"
  concat_param {
    axis: 1
  }
}
layer {
  name: "conv5_bn"
  type: "BatchNorm"
  bottom: "conv5"
  top: "conv5_bn"
  param {
    lr_mult: 0
  }
  param {
    lr_mult: 0
  }
  param {
    lr_mult: 0
  }
  batch_norm_param {
    use_global_stats: false
  }
}
layer {
  name: "scale_conv5"
  type: "Scale"
  bottom: "conv5_bn"
  top: "conv5_bn"
  scale_param {
    bias_term: true
  }
}
layer {
  name: "relu5a"
  type: "ReLU"
  bottom: "conv5_bn"
  top: "conv5_bn"
}
layer {
  name: "conv5_2-Convolution1"
  type: "Convolution"
  bottom: "conv5_bn"
  top: "conv5_2-Convolution1"
  param {
    lr_mult: 1
  }
  param {
    lr_mult: 2
  }
  convolution_param {
    num_output: 256
    pad: 1
    kernel_size: 3
    stride: 1
    weight_filler {
      type: "xavier"
    }
    bias_filler {
      type: "constant"
      value: 0
    }
    engine: CUDNN
  }
}
layer {
  name: "conv5_2-BatchNorm1"
  type: "BatchNorm"
  bottom: "conv5_2-Convolution1"
  top: "conv5_2-BatchNorm1"
  param {
    lr_mult: 0
    decay_mult: 0
  }
  param {
    lr_mult: 0
    decay_mult: 0
  }
  param {
    lr_mult: 0
    decay_mult: 0
  }
  batch_norm_param {
    use_global_stats: false
  }
}
layer {
  name: "conv5_2-Scale1"
  type: "Scale"
  bottom: "conv5_2-BatchNorm1"
  top: "conv5_2-BatchNorm1"
  scale_param {
    bias_term: true
  }
}
layer {
  name: "conv5_2-ReLU1"
  type: "ReLU"
  bottom: "conv5_2-BatchNorm1"
  top: "conv5_2-BatchNorm1"
}
layer {
  name: "conv5_2-Convolution2"
  type: "Convolution"
  bottom: "conv5_2-BatchNorm1"
  top: "conv5_2-Convolution2"
  param {
    lr_mult: 1
  }
  param {
    lr_mult: 2
  }
  convolution_param {
    num_output: 32
    pad: 1
    kernel_size: 3
    stride: 1
    weight_filler {
      type: "xavier"
    }
    bias_filler {
      type: "constant"
      value: 0
    }
    engine: CUDNN
  }
}
layer {
  name: "conv5_2-Dropout1"
  type: "Dropout"
  bottom: "conv5_2-Convolution2"
  top: "conv5_2-Dropout1"
  dropout_param {
    dropout_ratio: 0.1
  }
}
layer {
  name: "conv5_2-Concat1"
  type: "Concat"
  bottom: "conv5_2-Convolution1"
  bottom: "conv5_2-Dropout1"
  top: "conv5_2-Concat1"
  concat_param {
    axis: 1
  }
}
layer {
  name: "conv5_2-BatchNorm2"
  type: "BatchNorm"
  bottom: "conv5_2-Concat1"
  top: "conv5_2-BatchNorm2"
  param {
    lr_mult: 0
    decay_mult: 0
  }
  param {
    lr_mult: 0
    decay_mult: 0
  }
  param {
    lr_mult: 0
    decay_mult: 0
  }
  batch_norm_param {
    use_global_stats: false
  }
}
layer {
  name: "conv5_2-Scale2"
  type: "Scale"
  bottom: "conv5_2-BatchNorm2"
  top: "conv5_2-BatchNorm2"
  scale_param {
    bias_term: true
  }
}
layer {
  name: "conv5_2-ReLU2"
  type: "ReLU"
  bottom: "conv5_2-BatchNorm2"
  top: "conv5_2-BatchNorm2"
}
layer {
  name: "conv5_2-Convolution3"
  type: "Convolution"
  bottom: "conv5_2-BatchNorm2"
  top: "conv5_2-Convolution3"
  param {
    lr_mult: 1
  }
  param {
    lr_mult: 2
  }
  convolution_param {
    num_output: 32
    pad: 1
    kernel_size: 3
    stride: 1
    weight_filler {
      type: "xavier"
    }
    bias_filler {
      type: "constant"
      value: 0
    }
    engine: CUDNN
  }
}
layer {
  name: "conv5_2-Dropout2"
  type: "Dropout"
  bottom: "conv5_2-Convolution3"
  top: "conv5_2-Dropout2"
  dropout_param {
    dropout_ratio: 0.1
  }
}
layer {
  name: "conv5_2-Concat2"
  type: "Concat"
  bottom: "conv5_2-Concat1"
  bottom: "conv5_2-Dropout2"
  top: "conv5_2-Concat2"
  concat_param {
    axis: 1
  }
}
layer {
  name: "conv5_2-BatchNorm3"
  type: "BatchNorm"
  bottom: "conv5_2-Concat2"
  top: "conv5_2-BatchNorm3"
  param {
    lr_mult: 0
    decay_mult: 0
  }
  param {
    lr_mult: 0
    decay_mult: 0
  }
  param {
    lr_mult: 0
    decay_mult: 0
  }
  batch_norm_param {
    use_global_stats: false
  }
}
layer {
  name: "conv5_2-Scale3"
  type: "Scale"
  bottom: "conv5_2-BatchNorm3"
  top: "conv5_2-BatchNorm3"
  scale_param {
    bias_term: true
  }
}
layer {
  name: "conv5_2-ReLU3"
  type: "ReLU"
  bottom: "conv5_2-BatchNorm3"
  top: "conv5_2-BatchNorm3"
}
layer {
  name: "conv5_2-Convolution4"
  type: "Convolution"
  bottom: "conv5_2-BatchNorm3"
  top: "conv5_2-Convolution4"
  param {
    lr_mult: 1
  }
  param {
    lr_mult: 2
  }
  convolution_param {
    num_output: 32
    pad: 1
    kernel_size: 3
    stride: 1
    weight_filler {
      type: "xavier"
    }
    bias_filler {
      type: "constant"
      value: 0
    }
    engine: CUDNN
  }
}
layer {
  name: "conv5_2-Dropout3"
  type: "Dropout"
  bottom: "conv5_2-Convolution4"
  top: "conv5_2-Dropout3"
  dropout_param {
    dropout_ratio: 0.1
  }
}
layer {
  name: "conv5_2-Concat3"
  type: "Concat"
  bottom: "conv5_2-Concat2"
  bottom: "conv5_2-Dropout3"
  top: "conv5_2"
  concat_param {
    axis: 1
  }
}
layer {
  name: "conv5_2_bn"
  type: "BatchNorm"
  bottom: "conv5_2"
  top: "conv5_2_bn"
  param {
    lr_mult: 0
  }
  param {
    lr_mult: 0
  }
  param {
    lr_mult: 0
  }
  batch_norm_param {
    use_global_stats: false
  }
}
layer {
  name: "scale_conv5_2"
  type: "Scale"
  bottom: "conv5_2_bn"
  top: "conv5_2_bn"
  scale_param {
    bias_term: true
  }
}
layer {
  name: "relu5a_2"
  type: "ReLU"
  bottom: "conv5_2_bn"
  top: "conv5_2_bn"
}
layer {
  name: "deconv6"
  type: "Deconvolution"
  bottom: "conv5_2_bn"
  top: "deconv6"
  param {
    lr_mult: 1
  }
  param {
    lr_mult: 2
  }
  convolution_param {
    num_output: 64
    pad: 1
    kernel_size: 4
    stride: 2
    weight_filler {
      type: "xavier"
    }
    engine: CUDNN
  }
}
layer {
  name: "concat32"
  type: "Concat"
  bottom: "conv1c"
  bottom: "deconv6"
  top: "concat32"
  concat_param {
    concat_dim: 1
  }
}
layer {
  name: "conv6-Convolution1"
  type: "Convolution"
  bottom: "concat32"
  top: "conv6-Convolution1"
  param {
    lr_mult: 1
  }
  param {
    lr_mult: 2
  }
  convolution_param {
    num_output: 128
    pad: 1
    kernel_size: 3
    stride: 1
    weight_filler {
      type: "xavier"
    }
    bias_filler {
      type: "constant"
      value: 0
    }
    engine: CUDNN
  }
}
layer {
  name: "conv6-BatchNorm1"
  type: "BatchNorm"
  bottom: "conv6-Convolution1"
  top: "conv6-BatchNorm1"
  param {
    lr_mult: 0
    decay_mult: 0
  }
  param {
    lr_mult: 0
    decay_mult: 0
  }
  param {
    lr_mult: 0
    decay_mult: 0
  }
  batch_norm_param {
    use_global_stats: false
  }
}
layer {
  name: "conv6-Scale1"
  type: "Scale"
  bottom: "conv6-BatchNorm1"
  top: "conv6-BatchNorm1"
  scale_param {
    bias_term: true
  }
}
layer {
  name: "conv6-ReLU1"
  type: "ReLU"
  bottom: "conv6-BatchNorm1"
  top: "conv6-BatchNorm1"
}
layer {
  name: "conv6-Convolution2"
  type: "Convolution"
  bottom: "conv6-BatchNorm1"
  top: "conv6-Convolution2"
  param {
    lr_mult: 1
  }
  param {
    lr_mult: 2
  }
  convolution_param {
    num_output: 16
    pad: 1
    kernel_size: 3
    stride: 1
    weight_filler {
      type: "xavier"
    }
    bias_filler {
      type: "constant"
      value: 0
    }
    engine: CUDNN
  }
}
layer {
  name: "conv6-Dropout1"
  type: "Dropout"
  bottom: "conv6-Convolution2"
  top: "conv6-Dropout1"
  dropout_param {
    dropout_ratio: 0.1
  }
}
layer {
  name: "conv6-Concat1"
  type: "Concat"
  bottom: "conv6-Convolution1"
  bottom: "conv6-Dropout1"
  top: "conv6-Concat1"
  concat_param {
    axis: 1
  }
}
layer {
  name: "conv6-BatchNorm2"
  type: "BatchNorm"
  bottom: "conv6-Concat1"
  top: "conv6-BatchNorm2"
  param {
    lr_mult: 
I0630 14:51:19.149521 47538 layer_factory.hpp:77] Creating layer data
I0630 14:51:19.149557 47538 net.cpp:91] Creating Layer data
I0630 14:51:19.149572 47538 net.cpp:399] data -> dataT1
I0630 14:51:19.149627 47538 net.cpp:399] data -> dataT2
I0630 14:51:19.149652 47538 net.cpp:399] data -> dataSeg
I0630 14:51:19.149669 47538 net.cpp:399] data -> dataCp
I0630 14:51:19.149694 47538 hdf5_data_layer.cpp:81] Loading list of HDF5 filenames from: trainInfant3D_list-BCP18-cp.txt
I0630 14:51:19.167241 47538 hdf5_data_layer.cpp:95] Number of HDF5 files: 9
I0630 14:51:19.180569 47538 hdf5.cpp:32] Datatype class: H5T_FLOAT
I0630 14:51:24.562669 47538 net.cpp:141] Setting up data
I0630 14:51:24.562731 47538 net.cpp:148] Top shape: 3 1 32 32 32 (98304)
I0630 14:51:24.562739 47538 net.cpp:148] Top shape: 3 1 32 32 32 (98304)
I0630 14:51:24.562747 47538 net.cpp:148] Top shape: 3 1 32 32 32 (98304)
I0630 14:51:24.562755 47538 net.cpp:148] Top shape: 3 1 32 32 32 (98304)
I0630 14:51:24.562762 47538 net.cpp:156] Memory required for data: 1572864
I0630 14:51:24.562780 47538 layer_factory.hpp:77] Creating layer concat
I0630 14:51:24.562809 47538 net.cpp:91] Creating Layer concat
I0630 14:51:24.562824 47538 net.cpp:425] concat <- dataT1
I0630 14:51:24.562849 47538 net.cpp:425] concat <- dataT2
I0630 14:51:24.562860 47538 net.cpp:399] concat -> data
I0630 14:51:24.562911 47538 net.cpp:141] Setting up concat
I0630 14:51:24.562922 47538 net.cpp:148] Top shape: 3 2 32 32 32 (196608)
I0630 14:51:24.562928 47538 net.cpp:156] Memory required for data: 2359296
I0630 14:51:24.562937 47538 layer_factory.hpp:77] Creating layer conv1a
I0630 14:51:24.562964 47538 net.cpp:91] Creating Layer conv1a
I0630 14:51:24.563004 47538 net.cpp:425] conv1a <- data
I0630 14:51:24.563019 47538 net.cpp:399] conv1a -> conv1a
I0630 14:51:25.252353 47538 net.cpp:141] Setting up conv1a
I0630 14:51:25.252398 47538 net.cpp:148] Top shape: 3 64 32 32 32 (6291456)
I0630 14:51:25.252405 47538 net.cpp:156] Memory required for data: 27525120
I0630 14:51:25.252455 47538 layer_factory.hpp:77] Creating layer bn1
I0630 14:51:25.252475 47538 net.cpp:91] Creating Layer bn1
I0630 14:51:25.252482 47538 net.cpp:425] bn1 <- conv1a
I0630 14:51:25.252494 47538 net.cpp:399] bn1 -> conv1a_bn
I0630 14:51:25.252807 47538 net.cpp:141] Setting up bn1
I0630 14:51:25.252818 47538 net.cpp:148] Top shape: 3 64 32 32 32 (6291456)
I0630 14:51:25.252823 47538 net.cpp:156] Memory required for data: 52690944
I0630 14:51:25.252840 47538 layer_factory.hpp:77] Creating layer scale_conv1
I0630 14:51:25.252854 47538 net.cpp:91] Creating Layer scale_conv1
I0630 14:51:25.252861 47538 net.cpp:425] scale_conv1 <- conv1a_bn
I0630 14:51:25.252868 47538 net.cpp:386] scale_conv1 -> conv1a_bn (in-place)
I0630 14:51:25.252933 47538 layer_factory.hpp:77] Creating layer scale_conv1
I0630 14:51:25.253132 47538 net.cpp:141] Setting up scale_conv1
I0630 14:51:25.253144 47538 net.cpp:148] Top shape: 3 64 32 32 32 (6291456)
I0630 14:51:25.253149 47538 net.cpp:156] Memory required for data: 77856768
I0630 14:51:25.253160 47538 layer_factory.hpp:77] Creating layer relu1a
I0630 14:51:25.253178 47538 net.cpp:91] Creating Layer relu1a
I0630 14:51:25.253185 47538 net.cpp:425] relu1a <- conv1a_bn
I0630 14:51:25.253192 47538 net.cpp:386] relu1a -> conv1a_bn (in-place)
I0630 14:51:25.253463 47538 net.cpp:141] Setting up relu1a
I0630 14:51:25.253476 47538 net.cpp:148] Top shape: 3 64 32 32 32 (6291456)
I0630 14:51:25.253481 47538 net.cpp:156] Memory required for data: 103022592
I0630 14:51:25.253489 47538 layer_factory.hpp:77] Creating layer Convolution1
I0630 14:51:25.253509 47538 net.cpp:91] Creating Layer Convolution1
I0630 14:51:25.253515 47538 net.cpp:425] Convolution1 <- conv1a_bn
I0630 14:51:25.253528 47538 net.cpp:399] Convolution1 -> Convolution1
I0630 14:51:25.260799 47538 net.cpp:141] Setting up Convolution1
I0630 14:51:25.260823 47538 net.cpp:148] Top shape: 3 64 32 32 32 (6291456)
I0630 14:51:25.260828 47538 net.cpp:156] Memory required for data: 128188416
I0630 14:51:25.260843 47538 layer_factory.hpp:77] Creating layer Convolution1_Convolution1_0_split
I0630 14:51:25.260854 47538 net.cpp:91] Creating Layer Convolution1_Convolution1_0_split
I0630 14:51:25.260861 47538 net.cpp:425] Convolution1_Convolution1_0_split <- Convolution1
I0630 14:51:25.260874 47538 net.cpp:399] Convolution1_Convolution1_0_split -> Convolution1_Convolution1_0_split_0
I0630 14:51:25.260887 47538 net.cpp:399] Convolution1_Convolution1_0_split -> Convolution1_Convolution1_0_split_1
I0630 14:51:25.260949 47538 net.cpp:141] Setting up Convolution1_Convolution1_0_split
I0630 14:51:25.260960 47538 net.cpp:148] Top shape: 3 64 32 32 32 (6291456)
I0630 14:51:25.260967 47538 net.cpp:148] Top shape: 3 64 32 32 32 (6291456)
I0630 14:51:25.260972 47538 net.cpp:156] Memory required for data: 178520064
I0630 14:51:25.260977 47538 layer_factory.hpp:77] Creating layer BatchNorm1
I0630 14:51:25.260990 47538 net.cpp:91] Creating Layer BatchNorm1
I0630 14:51:25.260996 47538 net.cpp:425] BatchNorm1 <- Convolution1_Convolution1_0_split_0
I0630 14:51:25.261004 47538 net.cpp:399] BatchNorm1 -> BatchNorm1
I0630 14:51:25.261296 47538 net.cpp:141] Setting up BatchNorm1
I0630 14:51:25.261307 47538 net.cpp:148] Top shape: 3 64 32 32 32 (6291456)
I0630 14:51:25.261312 47538 net.cpp:156] Memory required for data: 203685888
I0630 14:51:25.261327 47538 layer_factory.hpp:77] Creating layer Scale1
I0630 14:51:25.261338 47538 net.cpp:91] Creating Layer Scale1
I0630 14:51:25.261345 47538 net.cpp:425] Scale1 <- BatchNorm1
I0630 14:51:25.261353 47538 net.cpp:386] Scale1 -> BatchNorm1 (in-place)
I0630 14:51:25.261410 47538 layer_factory.hpp:77] Creating layer Scale1
I0630 14:51:25.261613 47538 net.cpp:141] Setting up Scale1
I0630 14:51:25.261624 47538 net.cpp:148] Top shape: 3 64 32 32 32 (6291456)
I0630 14:51:25.261636 47538 net.cpp:156] Memory required for data: 228851712
I0630 14:51:25.261672 47538 layer_factory.hpp:77] Creating layer ReLU1
I0630 14:51:25.261683 47538 net.cpp:91] Creating Layer ReLU1
I0630 14:51:25.261690 47538 net.cpp:425] ReLU1 <- BatchNorm1
I0630 14:51:25.261698 47538 net.cpp:386] ReLU1 -> BatchNorm1 (in-place)
I0630 14:51:25.261955 47538 net.cpp:141] Setting up ReLU1
I0630 14:51:25.261967 47538 net.cpp:148] Top shape: 3 64 32 32 32 (6291456)
I0630 14:51:25.261973 47538 net.cpp:156] Memory required for data: 254017536
I0630 14:51:25.261978 47538 layer_factory.hpp:77] Creating layer Convolution2
I0630 14:51:25.261994 47538 net.cpp:91] Creating Layer Convolution2
I0630 14:51:25.262001 47538 net.cpp:425] Convolution2 <- BatchNorm1
I0630 14:51:25.262013 47538 net.cpp:399] Convolution2 -> Convolution2
I0630 14:51:25.265959 47538 net.cpp:141] Setting up Convolution2
I0630 14:51:25.265978 47538 net.cpp:148] Top shape: 3 16 32 32 32 (1572864)
I0630 14:51:25.265985 47538 net.cpp:156] Memory required for data: 260308992
I0630 14:51:25.265996 47538 layer_factory.hpp:77] Creating layer Dropout1
I0630 14:51:25.266007 47538 net.cpp:91] Creating Layer Dropout1
I0630 14:51:25.266016 47538 net.cpp:425] Dropout1 <- Convolution2
I0630 14:51:25.266028 47538 net.cpp:399] Dropout1 -> Dropout1
I0630 14:51:25.266098 47538 net.cpp:141] Setting up Dropout1
I0630 14:51:25.266108 47538 net.cpp:148] Top shape: 3 16 32 32 32 (1572864)
I0630 14:51:25.266113 47538 net.cpp:156] Memory required for data: 266600448
I0630 14:51:25.266120 47538 layer_factory.hpp:77] Creating layer Concat1
I0630 14:51:25.266130 47538 net.cpp:91] Creating Layer Concat1
I0630 14:51:25.266136 47538 net.cpp:425] Concat1 <- Convolution1_Convolution1_0_split_1
I0630 14:51:25.266144 47538 net.cpp:425] Concat1 <- Dropout1
I0630 14:51:25.266153 47538 net.cpp:399] Concat1 -> Concat1
I0630 14:51:25.266188 47538 net.cpp:141] Setting up Concat1
I0630 14:51:25.266198 47538 net.cpp:148] Top shape: 3 80 32 32 32 (7864320)
I0630 14:51:25.266203 47538 net.cpp:156] Memory required for data: 298057728
I0630 14:51:25.266208 47538 layer_factory.hpp:77] Creating layer Concat1_Concat1_0_split
I0630 14:51:25.266218 47538 net.cpp:91] Creating Layer Concat1_Concat1_0_split
I0630 14:51:25.266223 47538 net.cpp:425] Concat1_Concat1_0_split <- Concat1
I0630 14:51:25.266232 47538 net.cpp:399] Concat1_Concat1_0_split -> Concat1_Concat1_0_split_0
I0630 14:51:25.266244 47538 net.cpp:399] Concat1_Concat1_0_split -> Concat1_Concat1_0_split_1
I0630 14:51:25.266289 47538 net.cpp:141] Setting up Concat1_Concat1_0_split
I0630 14:51:25.266297 47538 net.cpp:148] Top shape: 3 80 32 32 32 (7864320)
I0630 14:51:25.266304 47538 net.cpp:148] Top shape: 3 80 32 32 32 (7864320)
I0630 14:51:25.266309 47538 net.cpp:156] Memory required for data: 360972288
I0630 14:51:25.266314 47538 layer_factory.hpp:77] Creating layer BatchNorm2
I0630 14:51:25.266326 47538 net.cpp:91] Creating Layer BatchNorm2
I0630 14:51:25.266331 47538 net.cpp:425] BatchNorm2 <- Concat1_Concat1_0_split_0
I0630 14:51:25.266342 47538 net.cpp:399] BatchNorm2 -> BatchNorm2
I0630 14:51:25.266633 47538 net.cpp:141] Setting up BatchNorm2
I0630 14:51:25.266644 47538 net.cpp:148] Top shape: 3 80 32 32 32 (7864320)
I0630 14:51:25.266649 47538 net.cpp:156] Memory required for data: 392429568
I0630 14:51:25.266665 47538 layer_factory.hpp:77] Creating layer Scale2
I0630 14:51:25.266680 47538 net.cpp:91] Creating Layer Scale2
I0630 14:51:25.266685 47538 net.cpp:425] Scale2 <- BatchNorm2
I0630 14:51:25.266692 47538 net.cpp:386] Scale2 -> BatchNorm2 (in-place)
I0630 14:51:25.266748 47538 layer_factory.hpp:77] Creating layer Scale2
I0630 14:51:25.266957 47538 net.cpp:141] Setting up Scale2
I0630 14:51:25.266968 47538 net.cpp:148] Top shape: 3 80 32 32 32 (7864320)
I0630 14:51:25.266984 47538 net.cpp:156] Memory required for data: 423886848
I0630 14:51:25.266995 47538 layer_factory.hpp:77] Creating layer ReLU2
I0630 14:51:25.267004 47538 net.cpp:91] Creating Layer ReLU2
I0630 14:51:25.267010 47538 net.cpp:425] ReLU2 <- BatchNorm2
I0630 14:51:25.267025 47538 net.cpp:386] ReLU2 -> BatchNorm2 (in-place)
I0630 14:51:25.267302 47538 net.cpp:141] Setting up ReLU2
I0630 14:51:25.267315 47538 net.cpp:148] Top shape: 3 80 32 32 32 (7864320)
I0630 14:51:25.267320 47538 net.cpp:156] Memory required for data: 455344128
I0630 14:51:25.267326 47538 layer_factory.hpp:77] Creating layer Convolution3
I0630 14:51:25.267343 47538 net.cpp:91] Creating Layer Convolution3
I0630 14:51:25.267349 47538 net.cpp:425] Convolution3 <- BatchNorm2
I0630 14:51:25.267361 47538 net.cpp:399] Convolution3 -> Convolution3
I0630 14:51:25.270527 47538 net.cpp:141] Setting up Convolution3
I0630 14:51:25.270545 47538 net.cpp:148] Top shape: 3 16 32 32 32 (1572864)
I0630 14:51:25.270552 47538 net.cpp:156] Memory required for data: 461635584
I0630 14:51:25.270562 47538 layer_factory.hpp:77] Creating layer Dropout2
I0630 14:51:25.270571 47538 net.cpp:91] Creating Layer Dropout2
I0630 14:51:25.270577 47538 net.cpp:425] Dropout2 <- Convolution3
I0630 14:51:25.270589 47538 net.cpp:399] Dropout2 -> Dropout2
I0630 14:51:25.270649 47538 net.cpp:141] Setting up Dropout2
I0630 14:51:25.270658 47538 net.cpp:148] Top shape: 3 16 32 32 32 (1572864)
I0630 14:51:25.270663 47538 net.cpp:156] Memory required for data: 467927040
I0630 14:51:25.270671 47538 layer_factory.hpp:77] Creating layer Concat2
I0630 14:51:25.270684 47538 net.cpp:91] Creating Layer Concat2
I0630 14:51:25.270689 47538 net.cpp:425] Concat2 <- Concat1_Concat1_0_split_1
I0630 14:51:25.270695 47538 net.cpp:425] Concat2 <- Dropout2
I0630 14:51:25.270704 47538 net.cpp:399] Concat2 -> Concat2
I0630 14:51:25.270737 47538 net.cpp:141] Setting up Concat2
I0630 14:51:25.270745 47538 net.cpp:148] Top shape: 3 96 32 32 32 (9437184)
I0630 14:51:25.270750 47538 net.cpp:156] Memory required for data: 505675776
I0630 14:51:25.270756 47538 layer_factory.hpp:77] Creating layer Concat2_Concat2_0_split
I0630 14:51:25.270763 47538 net.cpp:91] Creating Layer Concat2_Concat2_0_split
I0630 14:51:25.270768 47538 net.cpp:425] Concat2_Concat2_0_split <- Concat2
I0630 14:51:25.270781 47538 net.cpp:399] Concat2_Concat2_0_split -> Concat2_Concat2_0_split_0
I0630 14:51:25.270792 47538 net.cpp:399] Concat2_Concat2_0_split -> Concat2_Concat2_0_split_1
I0630 14:51:25.270838 47538 net.cpp:141] Setting up Concat2_Concat2_0_split
I0630 14:51:25.270848 47538 net.cpp:148] Top shape: 3 96 32 32 32 (9437184)
I0630 14:51:25.270853 47538 net.cpp:148] Top shape: 3 96 32 32 32 (9437184)
I0630 14:51:25.270859 47538 net.cpp:156] Memory required for data: 581173248
I0630 14:51:25.270864 47538 layer_factory.hpp:77] Creating layer BatchNorm3
I0630 14:51:25.270875 47538 net.cpp:91] Creating Layer BatchNorm3
I0630 14:51:25.270880 47538 net.cpp:425] BatchNorm3 <- Concat2_Concat2_0_split_0
I0630 14:51:25.270889 47538 net.cpp:399] BatchNorm3 -> BatchNorm3
I0630 14:51:25.271193 47538 net.cpp:141] Setting up BatchNorm3
I0630 14:51:25.271203 47538 net.cpp:148] Top shape: 3 96 32 32 32 (9437184)
I0630 14:51:25.271207 47538 net.cpp:156] Memory required for data: 618921984
I0630 14:51:25.271219 47538 layer_factory.hpp:77] Creating layer Scale3
I0630 14:51:25.271230 47538 net.cpp:91] Creating Layer Scale3
I0630 14:51:25.271236 47538 net.cpp:425] Scale3 <- BatchNorm3
I0630 14:51:25.271245 47538 net.cpp:386] Scale3 -> BatchNorm3 (in-place)
I0630 14:51:25.271302 47538 layer_factory.hpp:77] Creating layer Scale3
I0630 14:51:25.274721 47538 net.cpp:141] Setting up Scale3
I0630 14:51:25.274742 47538 net.cpp:148] Top shape: 3 96 32 32 32 (9437184)
I0630 14:51:25.274749 47538 net.cpp:156] Memory required for data: 656670720
I0630 14:51:25.274762 47538 layer_factory.hpp:77] Creating layer ReLU3
I0630 14:51:25.274771 47538 net.cpp:91] Creating Layer ReLU3
I0630 14:51:25.274777 47538 net.cpp:425] ReLU3 <- BatchNorm3
I0630 14:51:25.274785 47538 net.cpp:386] ReLU3 -> BatchNorm3 (in-place)
I0630 14:51:25.275063 47538 net.cpp:141] Setting up ReLU3
I0630 14:51:25.275075 47538 net.cpp:148] Top shape: 3 96 32 32 32 (9437184)
I0630 14:51:25.275080 47538 net.cpp:156] Memory required for data: 694419456
I0630 14:51:25.275091 47538 layer_factory.hpp:77] Creating layer Convolution4
I0630 14:51:25.275127 47538 net.cpp:91] Creating Layer Convolution4
I0630 14:51:25.275135 47538 net.cpp:425] Convolution4 <- BatchNorm3
I0630 14:51:25.275144 47538 net.cpp:399] Convolution4 -> Convolution4
I0630 14:51:25.279894 47538 net.cpp:141] Setting up Convolution4
I0630 14:51:25.279913 47538 net.cpp:148] Top shape: 3 16 32 32 32 (1572864)
I0630 14:51:25.279919 47538 net.cpp:156] Memory required for data: 700710912
I0630 14:51:25.279929 47538 layer_factory.hpp:77] Creating layer Dropout3
I0630 14:51:25.279939 47538 net.cpp:91] Creating Layer Dropout3
I0630 14:51:25.279947 47538 net.cpp:425] Dropout3 <- Convolution4
I0630 14:51:25.279958 47538 net.cpp:399] Dropout3 -> Dropout3
I0630 14:51:25.280025 47538 net.cpp:141] Setting up Dropout3
I0630 14:51:25.280032 47538 net.cpp:148] Top shape: 3 16 32 32 32 (1572864)
I0630 14:51:25.280038 47538 net.cpp:156] Memory required for data: 707002368
I0630 14:51:25.280043 47538 layer_factory.hpp:77] Creating layer Concat3
I0630 14:51:25.280051 47538 net.cpp:91] Creating Layer Concat3
I0630 14:51:25.280057 47538 net.cpp:425] Concat3 <- Concat2_Concat2_0_split_1
I0630 14:51:25.280064 47538 net.cpp:425] Concat3 <- Dropout3
I0630 14:51:25.280074 47538 net.cpp:399] Concat3 -> Concat3
I0630 14:51:25.280105 47538 net.cpp:141] Setting up Concat3
I0630 14:51:25.280112 47538 net.cpp:148] Top shape: 3 112 32 32 32 (11010048)
I0630 14:51:25.280118 47538 net.cpp:156] Memory required for data: 751042560
I0630 14:51:25.280126 47538 layer_factory.hpp:77] Creating layer bn2
I0630 14:51:25.280138 47538 net.cpp:91] Creating Layer bn2
I0630 14:51:25.280143 47538 net.cpp:425] bn2 <- Concat3
I0630 14:51:25.280154 47538 net.cpp:399] bn2 -> conv1b_bn
I0630 14:51:25.280441 47538 net.cpp:141] Setting up bn2
I0630 14:51:25.280450 47538 net.cpp:148] Top shape: 3 112 32 32 32 (11010048)
I0630 14:51:25.280455 47538 net.cpp:156] Memory required for data: 795082752
I0630 14:51:25.280473 47538 layer_factory.hpp:77] Creating layer scale_conv2
I0630 14:51:25.280485 47538 net.cpp:91] Creating Layer scale_conv2
I0630 14:51:25.280491 47538 net.cpp:425] scale_conv2 <- conv1b_bn
I0630 14:51:25.280498 47538 net.cpp:386] scale_conv2 -> conv1b_bn (in-place)
I0630 14:51:25.280555 47538 layer_factory.hpp:77] Creating layer scale_conv2
I0630 14:51:25.280755 47538 net.cpp:141] Setting up scale_conv2
I0630 14:51:25.280766 47538 net.cpp:148] Top shape: 3 112 32 32 32 (11010048)
I0630 14:51:25.280771 47538 net.cpp:156] Memory required for data: 839122944
I0630 14:51:25.280779 47538 layer_factory.hpp:77] Creating layer relu1b
I0630 14:51:25.280786 47538 net.cpp:91] Creating Layer relu1b
I0630 14:51:25.280791 47538 net.cpp:425] relu1b <- conv1b_bn
I0630 14:51:25.280802 47538 net.cpp:386] relu1b -> conv1b_bn (in-place)
I0630 14:51:25.283504 47538 net.cpp:141] Setting up relu1b
I0630 14:51:25.283520 47538 net.cpp:148] Top shape: 3 112 32 32 32 (11010048)
I0630 14:51:25.283525 47538 net.cpp:156] Memory required for data: 883163136
I0630 14:51:25.283531 47538 layer_factory.hpp:77] Creating layer conv1c
I0630 14:51:25.283550 47538 net.cpp:91] Creating Layer conv1c
I0630 14:51:25.283556 47538 net.cpp:425] conv1c <- conv1b_bn
I0630 14:51:25.283572 47538 net.cpp:399] conv1c -> conv1c
I0630 14:51:25.288772 47538 net.cpp:141] Setting up conv1c
I0630 14:51:25.288797 47538 net.cpp:148] Top shape: 3 64 32 32 32 (6291456)
I0630 14:51:25.288803 47538 net.cpp:156] Memory required for data: 908328960
I0630 14:51:25.288815 47538 layer_factory.hpp:77] Creating layer conv1c_conv1c_0_split
I0630 14:51:25.288832 47538 net.cpp:91] Creating Layer conv1c_conv1c_0_split
I0630 14:51:25.288841 47538 net.cpp:425] conv1c_conv1c_0_split <- conv1c
I0630 14:51:25.288848 47538 net.cpp:399] conv1c_conv1c_0_split -> conv1c_conv1c_0_split_0
I0630 14:51:25.288861 47538 net.cpp:399] conv1c_conv1c_0_split -> conv1c_conv1c_0_split_1
I0630 14:51:25.288924 47538 net.cpp:141] Setting up conv1c_conv1c_0_split
I0630 14:51:25.288934 47538 net.cpp:148] Top shape: 3 64 32 32 32 (6291456)
I0630 14:51:25.288946 47538 net.cpp:148] Top shape: 3 64 32 32 32 (6291456)
I0630 14:51:25.288969 47538 net.cpp:156] Memory required for data: 958660608
I0630 14:51:25.288975 47538 layer_factory.hpp:77] Creating layer bn3
I0630 14:51:25.288990 47538 net.cpp:91] Creating Layer bn3
I0630 14:51:25.288995 47538 net.cpp:425] bn3 <- conv1c_conv1c_0_split_0
I0630 14:51:25.289005 47538 net.cpp:399] bn3 -> conv1c_bn
I0630 14:51:25.289310 47538 net.cpp:141] Setting up bn3
I0630 14:51:25.289320 47538 net.cpp:148] Top shape: 3 64 32 32 32 (6291456)
I0630 14:51:25.289325 47538 net.cpp:156] Memory required for data: 983826432
I0630 14:51:25.289335 47538 layer_factory.hpp:77] Creating layer scale_conv3
I0630 14:51:25.289350 47538 net.cpp:91] Creating Layer scale_conv3
I0630 14:51:25.289357 47538 net.cpp:425] scale_conv3 <- conv1c_bn
I0630 14:51:25.289364 47538 net.cpp:386] scale_conv3 -> conv1c_bn (in-place)
I0630 14:51:25.289418 47538 layer_factory.hpp:77] Creating layer scale_conv3
I0630 14:51:25.289640 47538 net.cpp:141] Setting up scale_conv3
I0630 14:51:25.289650 47538 net.cpp:148] Top shape: 3 64 32 32 32 (6291456)
I0630 14:51:25.289655 47538 net.cpp:156] Memory required for data: 1008992256
I0630 14:51:25.289664 47538 layer_factory.hpp:77] Creating layer relu1c
I0630 14:51:25.289674 47538 net.cpp:91] Creating Layer relu1c
I0630 14:51:25.289680 47538 net.cpp:425] relu1c <- conv1c_bn
I0630 14:51:25.289687 47538 net.cpp:386] relu1c -> conv1c_bn (in-place)
I0630 14:51:25.290822 47538 net.cpp:141] Setting up relu1c
I0630 14:51:25.290838 47538 net.cpp:148] Top shape: 3 64 32 32 32 (6291456)
I0630 14:51:25.290843 47538 net.cpp:156] Memory required for data: 1034158080
I0630 14:51:25.290849 47538 layer_factory.hpp:77] Creating layer pool1
I0630 14:51:25.290863 47538 net.cpp:91] Creating Layer pool1
I0630 14:51:25.290868 47538 net.cpp:425] pool1 <- conv1c_bn
I0630 14:51:25.290879 47538 net.cpp:399] pool1 -> pool1
I0630 14:51:25.291218 47538 net.cpp:141] Setting up pool1
I0630 14:51:25.291235 47538 net.cpp:148] Top shape: 3 64 16 16 16 (786432)
I0630 14:51:25.291240 47538 net.cpp:156] Memory required for data: 1037303808
I0630 14:51:25.291245 47538 layer_factory.hpp:77] Creating layer conv2a-Convolution1
I0630 14:51:25.291262 47538 net.cpp:91] Creating Layer conv2a-Convolution1
I0630 14:51:25.291268 47538 net.cpp:425] conv2a-Convolution1 <- pool1
I0630 14:51:25.291280 47538 net.cpp:399] conv2a-Convolution1 -> conv2a-Convolution1
I0630 14:51:25.298223 47538 net.cpp:141] Setting up conv2a-Convolution1
I0630 14:51:25.298243 47538 net.cpp:148] Top shape: 3 64 16 16 16 (786432)
I0630 14:51:25.298247 47538 net.cpp:156] Memory required for data: 1040449536
I0630 14:51:25.298260 47538 layer_factory.hpp:77] Creating layer conv2a-Convolution1_conv2a-Convolution1_0_split
I0630 14:51:25.298274 47538 net.cpp:91] Creating Layer conv2a-Convolution1_conv2a-Convolution1_0_split
I0630 14:51:25.298280 47538 net.cpp:425] conv2a-Convolution1_conv2a-Convolution1_0_split <- conv2a-Convolution1
I0630 14:51:25.298291 47538 net.cpp:399] conv2a-Convolution1_conv2a-Convolution1_0_split -> conv2a-Convolution1_conv2a-Convolution1_0_split_0
I0630 14:51:25.298302 47538 net.cpp:399] conv2a-Convolution1_conv2a-Convolution1_0_split -> conv2a-Convolution1_conv2a-Convolution1_0_split_1
I0630 14:51:25.298359 47538 net.cpp:141] Setting up conv2a-Convolution1_conv2a-Convolution1_0_split
I0630 14:51:25.298372 47538 net.cpp:148] Top shape: 3 64 16 16 16 (786432)
I0630 14:51:25.298378 47538 net.cpp:148] Top shape: 3 64 16 16 16 (786432)
I0630 14:51:25.298382 47538 net.cpp:156] Memory required for data: 1046740992
I0630 14:51:25.298388 47538 layer_factory.hpp:77] Creating layer conv2a-BatchNorm1
I0630 14:51:25.298398 47538 net.cpp:91] Creating Layer conv2a-BatchNorm1
I0630 14:51:25.298403 47538 net.cpp:425] conv2a-BatchNorm1 <- conv2a-Convolution1_conv2a-Convolution1_0_split_0
I0630 14:51:25.298413 47538 net.cpp:399] conv2a-BatchNorm1 -> conv2a-BatchNorm1
I0630 14:51:25.298674 47538 net.cpp:141] Setting up conv2a-BatchNorm1
I0630 14:51:25.298683 47538 net.cpp:148] Top shape: 3 64 16 16 16 (786432)
I0630 14:51:25.298692 47538 net.cpp:156] Memory required for data: 1049886720
I0630 14:51:25.298717 47538 layer_factory.hpp:77] Creating layer conv2a-Scale1
I0630 14:51:25.298727 47538 net.cpp:91] Creating Layer conv2a-Scale1
I0630 14:51:25.298732 47538 net.cpp:425] conv2a-Scale1 <- conv2a-BatchNorm1
I0630 14:51:25.298739 47538 net.cpp:386] conv2a-Scale1 -> conv2a-BatchNorm1 (in-place)
I0630 14:51:25.298795 47538 layer_factory.hpp:77] Creating layer conv2a-Scale1
I0630 14:51:25.298955 47538 net.cpp:141] Setting up conv2a-Scale1
I0630 14:51:25.298964 47538 net.cpp:148] Top shape: 3 64 16 16 16 (786432)
I0630 14:51:25.298979 47538 net.cpp:156] Memory required for data: 1053032448
I0630 14:51:25.298998 47538 layer_factory.hpp:77] Creating layer conv2a-ReLU1
I0630 14:51:25.299018 47538 net.cpp:91] Creating Layer conv2a-ReLU1
I0630 14:51:25.299024 47538 net.cpp:425] conv2a-ReLU1 <- conv2a-BatchNorm1
I0630 14:51:25.299034 47538 net.cpp:386] conv2a-ReLU1 -> conv2a-BatchNorm1 (in-place)
I0630 14:51:25.299289 47538 net.cpp:141] Setting up conv2a-ReLU1
I0630 14:51:25.299300 47538 net.cpp:148] Top shape: 3 64 16 16 16 (786432)
I0630 14:51:25.299305 47538 net.cpp:156] Memory required for data: 1056178176
I0630 14:51:25.299311 47538 layer_factory.hpp:77] Creating layer conv2a-Convolution2
I0630 14:51:25.299327 47538 net.cpp:91] Creating Layer conv2a-Convolution2
I0630 14:51:25.299332 47538 net.cpp:425] conv2a-Convolution2 <- conv2a-BatchNorm1
I0630 14:51:25.299345 47538 net.cpp:399] conv2a-Convolution2 -> conv2a-Convolution2
I0630 14:51:25.305671 47538 net.cpp:141] Setting up conv2a-Convolution2
I0630 14:51:25.305691 47538 net.cpp:148] Top shape: 3 32 16 16 16 (393216)
I0630 14:51:25.305696 47538 net.cpp:156] Memory required for data: 1057751040
I0630 14:51:25.305706 47538 layer_factory.hpp:77] Creating layer conv2a-Dropout1
I0630 14:51:25.305716 47538 net.cpp:91] Creating Layer conv2a-Dropout1
I0630 14:51:25.305721 47538 net.cpp:425] conv2a-Dropout1 <- conv2a-Convolution2
I0630 14:51:25.305732 47538 net.cpp:399] conv2a-Dropout1 -> conv2a-Dropout1
I0630 14:51:25.305788 47538 net.cpp:141] Setting up conv2a-Dropout1
I0630 14:51:25.305799 47538 net.cpp:148] Top shape: 3 32 16 16 16 (393216)
I0630 14:51:25.305802 47538 net.cpp:156] Memory required for data: 1059323904
I0630 14:51:25.305807 47538 layer_factory.hpp:77] Creating layer conv2a-Concat1
I0630 14:51:25.305816 47538 net.cpp:91] Creating Layer conv2a-Concat1
I0630 14:51:25.305821 47538 net.cpp:425] conv2a-Concat1 <- conv2a-Convolution1_conv2a-Convolution1_0_split_1
I0630 14:51:25.305827 47538 net.cpp:425] conv2a-Concat1 <- conv2a-Dropout1
I0630 14:51:25.305835 47538 net.cpp:399] conv2a-Concat1 -> conv2a-Concat1
I0630 14:51:25.305869 47538 net.cpp:141] Setting up conv2a-Concat1
I0630 14:51:25.305876 47538 net.cpp:148] Top shape: 3 96 16 16 16 (1179648)
I0630 14:51:25.305881 47538 net.cpp:156] Memory required for data: 1064042496
I0630 14:51:25.305887 47538 layer_factory.hpp:77] Creating layer conv2a-Concat1_conv2a-Concat1_0_split
I0630 14:51:25.305898 47538 net.cpp:91] Creating Layer conv2a-Concat1_conv2a-Concat1_0_split
I0630 14:51:25.305903 47538 net.cpp:425] conv2a-Concat1_conv2a-Concat1_0_split <- conv2a-Concat1
I0630 14:51:25.305910 47538 net.cpp:399] conv2a-Concat1_conv2a-Concat1_0_split -> conv2a-Concat1_conv2a-Concat1_0_split_0
I0630 14:51:25.305919 47538 net.cpp:399] conv2a-Concat1_conv2a-Concat1_0_split -> conv2a-Concat1_conv2a-Concat1_0_split_1
I0630 14:51:25.305966 47538 net.cpp:141] Setting up conv2a-Concat1_conv2a-Concat1_0_split
I0630 14:51:25.305974 47538 net.cpp:148] Top shape: 3 96 16 16 16 (1179648)
I0630 14:51:25.305979 47538 net.cpp:148] Top shape: 3 96 16 16 16 (1179648)
I0630 14:51:25.305984 47538 net.cpp:156] Memory required for data: 1073479680
I0630 14:51:25.305989 47538 layer_factory.hpp:77] Creating layer conv2a-BatchNorm2
I0630 14:51:25.306003 47538 net.cpp:91] Creating Layer conv2a-BatchNorm2
I0630 14:51:25.306008 47538 net.cpp:425] conv2a-BatchNorm2 <- conv2a-Concat1_conv2a-Concat1_0_split_0
I0630 14:51:25.306018 47538 net.cpp:399] conv2a-BatchNorm2 -> conv2a-BatchNorm2
I0630 14:51:25.306277 47538 net.cpp:141] Setting up conv2a-BatchNorm2
I0630 14:51:25.306299 47538 net.cpp:148] Top shape: 3 96 16 16 16 (1179648)
I0630 14:51:25.306304 47538 net.cpp:156] Memory required for data: 1078198272
I0630 14:51:25.306314 47538 layer_factory.hpp:77] Creating layer conv2a-Scale2
I0630 14:51:25.306324 47538 net.cpp:91] Creating Layer conv2a-Scale2
I0630 14:51:25.306329 47538 net.cpp:425] conv2a-Scale2 <- conv2a-BatchNorm2
I0630 14:51:25.306339 47538 net.cpp:386] conv2a-Scale2 -> conv2a-BatchNorm2 (in-place)
I0630 14:51:25.306392 47538 layer_factory.hpp:77] Creating layer conv2a-Scale2
I0630 14:51:25.306541 47538 net.cpp:141] Setting up conv2a-Scale2
I0630 14:51:25.306553 47538 net.cpp:148] Top shape: 3 96 16 16 16 (1179648)
I0630 14:51:25.306557 47538 net.cpp:156] Memory required for data: 1082916864
I0630 14:51:25.306565 47538 layer_factory.hpp:77] Creating layer conv2a-ReLU2
I0630 14:51:25.306573 47538 net.cpp:91] Creating Layer conv2a-ReLU2
I0630 14:51:25.306578 47538 net.cpp:425] conv2a-ReLU2 <- conv2a-BatchNorm2
I0630 14:51:25.306586 47538 net.cpp:386] conv2a-ReLU2 -> conv2a-BatchNorm2 (in-place)
I0630 14:51:25.306823 47538 net.cpp:141] Setting up conv2a-ReLU2
I0630 14:51:25.306835 47538 net.cpp:148] Top shape: 3 96 16 16 16 (1179648)
I0630 14:51:25.306839 47538 net.cpp:156] Memory required for data: 1087635456
I0630 14:51:25.306846 47538 layer_factory.hpp:77] Creating layer conv2a-Convolution3
I0630 14:51:25.306865 47538 net.cpp:91] Creating Layer conv2a-Convolution3
I0630 14:51:25.306871 47538 net.cpp:425] conv2a-Convolution3 <- conv2a-BatchNorm2
I0630 14:51:25.306880 47538 net.cpp:399] conv2a-Convolution3 -> conv2a-Convolution3
I0630 14:51:25.309408 47538 net.cpp:141] Setting up conv2a-Convolution3
I0630 14:51:25.309427 47538 net.cpp:148] Top shape: 3 32 16 16 16 (393216)
I0630 14:51:25.309433 47538 net.cpp:156] Memory required for data: 1089208320
I0630 14:51:25.309443 47538 layer_factory.hpp:77] Creating layer conv2a-Dropout2
I0630 14:51:25.309453 47538 net.cpp:91] Creating Layer conv2a-Dropout2
I0630 14:51:25.309458 47538 net.cpp:425] conv2a-Dropout2 <- conv2a-Convolution3
I0630 14:51:25.309466 47538 net.cpp:399] conv2a-Dropout2 -> conv2a-Dropout2
I0630 14:51:25.309523 47538 net.cpp:141] Setting up conv2a-Dropout2
I0630 14:51:25.309531 47538 net.cpp:148] Top shape: 3 32 16 16 16 (393216)
I0630 14:51:25.309535 47538 net.cpp:156] Memory required for data: 1090781184
I0630 14:51:25.309541 47538 layer_factory.hpp:77] Creating layer conv2a-Concat2
I0630 14:51:25.309548 47538 net.cpp:91] Creating Layer conv2a-Concat2
I0630 14:51:25.309554 47538 net.cpp:425] conv2a-Concat2 <- conv2a-Concat1_conv2a-Concat1_0_split_1
I0630 14:51:25.309561 47538 net.cpp:425] conv2a-Concat2 <- conv2a-Dropout2
I0630 14:51:25.309571 47538 net.cpp:399] conv2a-Concat2 -> conv2a-Concat2
I0630 14:51:25.309602 47538 net.cpp:141] Setting up conv2a-Concat2
I0630 14:51:25.309608 47538 net.cpp:148] Top shape: 3 128 16 16 16 (1572864)
I0630 14:51:25.309612 47538 net.cpp:156] Memory required for data: 1097072640
I0630 14:51:25.309620 47538 layer_factory.hpp:77] Creating layer conv2a-Concat2_conv2a-Concat2_0_split
I0630 14:51:25.309628 47538 net.cpp:91] Creating Layer conv2a-Concat2_conv2a-Concat2_0_split
I0630 14:51:25.309633 47538 net.cpp:425] conv2a-Concat2_conv2a-Concat2_0_split <- conv2a-Concat2
I0630 14:51:25.309643 47538 net.cpp:399] conv2a-Concat2_conv2a-Concat2_0_split -> conv2a-Concat2_conv2a-Concat2_0_split_0
I0630 14:51:25.309653 47538 net.cpp:399] conv2a-Concat2_conv2a-Concat2_0_split -> conv2a-Concat2_conv2a-Concat2_0_split_1
I0630 14:51:25.309698 47538 net.cpp:141] Setting up conv2a-Concat2_conv2a-Concat2_0_split
I0630 14:51:25.309706 47538 net.cpp:148] Top shape: 3 128 16 16 16 (1572864)
I0630 14:51:25.309711 47538 net.cpp:148] Top shape: 3 128 16 16 16 (1572864)
I0630 14:51:25.309717 47538 net.cpp:156] Memory required for data: 1109655552
I0630 14:51:25.309721 47538 layer_factory.hpp:77] Creating layer conv2a-BatchNorm3
I0630 14:51:25.309732 47538 net.cpp:91] Creating Layer conv2a-BatchNorm3
I0630 14:51:25.309743 47538 net.cpp:425] conv2a-BatchNorm3 <- conv2a-Concat2_conv2a-Concat2_0_split_0
I0630 14:51:25.309764 47538 net.cpp:399] conv2a-BatchNorm3 -> conv2a-BatchNorm3
I0630 14:51:25.310015 47538 net.cpp:141] Setting up conv2a-BatchNorm3
I0630 14:51:25.310024 47538 net.cpp:148] Top shape: 3 128 16 16 16 (1572864)
I0630 14:51:25.310029 47538 net.cpp:156] Memory required for data: 1115947008
I0630 14:51:25.310039 47538 layer_factory.hpp:77] Creating layer conv2a-Scale3
I0630 14:51:25.310047 47538 net.cpp:91] Creating Layer conv2a-Scale3
I0630 14:51:25.310052 47538 net.cpp:425] conv2a-Scale3 <- conv2a-BatchNorm3
I0630 14:51:25.310062 47538 net.cpp:386] conv2a-Scale3 -> conv2a-BatchNorm3 (in-place)
I0630 14:51:25.310115 47538 layer_factory.hpp:77] Creating layer conv2a-Scale3
I0630 14:51:25.310256 47538 net.cpp:141] Setting up conv2a-Scale3
I0630 14:51:25.310264 47538 net.cpp:148] Top shape: 3 128 16 16 16 (1572864)
I0630 14:51:25.310269 47538 net.cpp:156] Memory required for data: 1122238464
I0630 14:51:25.310278 47538 layer_factory.hpp:77] Creating layer conv2a-ReLU3
I0630 14:51:25.310286 47538 net.cpp:91] Creating Layer conv2a-ReLU3
I0630 14:51:25.310290 47538 net.cpp:425] conv2a-ReLU3 <- conv2a-BatchNorm3
I0630 14:51:25.310299 47538 net.cpp:386] conv2a-ReLU3 -> conv2a-BatchNorm3 (in-place)
I0630 14:51:25.310534 47538 net.cpp:141] Setting up conv2a-ReLU3
I0630 14:51:25.310544 47538 net.cpp:148] Top shape: 3 128 16 16 16 (1572864)
I0630 14:51:25.310549 47538 net.cpp:156] Memory required for data: 1128529920
I0630 14:51:25.310555 47538 layer_factory.hpp:77] Creating layer conv2a-Convolution4
I0630 14:51:25.310571 47538 net.cpp:91] Creating Layer conv2a-Convolution4
I0630 14:51:25.310577 47538 net.cpp:425] conv2a-Convolution4 <- conv2a-BatchNorm3
I0630 14:51:25.310590 47538 net.cpp:399] conv2a-Convolution4 -> conv2a-Convolution4
I0630 14:51:25.315160 47538 net.cpp:141] Setting up conv2a-Convolution4
I0630 14:51:25.315177 47538 net.cpp:148] Top shape: 3 32 16 16 16 (393216)
I0630 14:51:25.315182 47538 net.cpp:156] Memory required for data: 1130102784
I0630 14:51:25.315203 47538 layer_factory.hpp:77] Creating layer conv2a-Dropout3
I0630 14:51:25.315217 47538 net.cpp:91] Creating Layer conv2a-Dropout3
I0630 14:51:25.315223 47538 net.cpp:425] conv2a-Dropout3 <- conv2a-Convolution4
I0630 14:51:25.315232 47538 net.cpp:399] conv2a-Dropout3 -> conv2a-Dropout3
I0630 14:51:25.315296 47538 net.cpp:141] Setting up conv2a-Dropout3
I0630 14:51:25.315304 47538 net.cpp:148] Top shape: 3 32 16 16 16 (393216)
I0630 14:51:25.315310 47538 net.cpp:156] Memory required for data: 1131675648
I0630 14:51:25.315315 47538 layer_factory.hpp:77] Creating layer conv2a-Concat3
I0630 14:51:25.315325 47538 net.cpp:91] Creating Layer conv2a-Concat3
I0630 14:51:25.315330 47538 net.cpp:425] conv2a-Concat3 <- conv2a-Concat2_conv2a-Concat2_0_split_1
I0630 14:51:25.315337 47538 net.cpp:425] conv2a-Concat3 <- conv2a-Dropout3
I0630 14:51:25.315344 47538 net.cpp:399] conv2a-Concat3 -> conv2a
I0630 14:51:25.315376 47538 net.cpp:141] Setting up conv2a-Concat3
I0630 14:51:25.315383 47538 net.cpp:148] Top shape: 3 160 16 16 16 (1966080)
I0630 14:51:25.315388 47538 net.cpp:156] Memory required for data: 1139539968
I0630 14:51:25.315393 47538 layer_factory.hpp:77] Creating layer bn4
I0630 14:51:25.315415 47538 net.cpp:91] Creating Layer bn4
I0630 14:51:25.315420 47538 net.cpp:425] bn4 <- conv2a
I0630 14:51:25.315429 47538 net.cpp:399] bn4 -> conv2a_bn
I0630 14:51:25.315688 47538 net.cpp:141] Setting up bn4
I0630 14:51:25.315696 47538 net.cpp:148] Top shape: 3 160 16 16 16 (1966080)
I0630 14:51:25.315701 47538 net.cpp:156] Memory required for data: 1147404288
I0630 14:51:25.315711 47538 layer_factory.hpp:77] Creating layer scale_conv4
I0630 14:51:25.315721 47538 net.cpp:91] Creating Layer scale_conv4
I0630 14:51:25.315727 47538 net.cpp:425] scale_conv4 <- conv2a_bn
I0630 14:51:25.315733 47538 net.cpp:386] scale_conv4 -> conv2a_bn (in-place)
I0630 14:51:25.315786 47538 layer_factory.hpp:77] Creating layer scale_conv4
I0630 14:51:25.315939 47538 net.cpp:141] Setting up scale_conv4
I0630 14:51:25.315953 47538 net.cpp:148] Top shape: 3 160 16 16 16 (1966080)
I0630 14:51:25.315970 47538 net.cpp:156] Memory required for data: 1155268608
I0630 14:51:25.315979 47538 layer_factory.hpp:77] Creating layer relu2a
I0630 14:51:25.315986 47538 net.cpp:91] Creating Layer relu2a
I0630 14:51:25.315991 47538 net.cpp:425] relu2a <- conv2a_bn
I0630 14:51:25.316001 47538 net.cpp:386] relu2a -> conv2a_bn (in-place)
I0630 14:51:25.318686 47538 net.cpp:141] Setting up relu2a
I0630 14:51:25.318703 47538 net.cpp:148] Top shape: 3 160 16 16 16 (1966080)
I0630 14:51:25.318708 47538 net.cpp:156] Memory required for data: 1163132928
I0630 14:51:25.318714 47538 layer_factory.hpp:77] Creating layer conv2b
I0630 14:51:25.318732 47538 net.cpp:91] Creating Layer conv2b
I0630 14:51:25.318738 47538 net.cpp:425] conv2b <- conv2a_bn
I0630 14:51:25.318753 47538 net.cpp:399] conv2b -> conv2b
I0630 14:51:25.331730 47538 net.cpp:141] Setting up conv2b
I0630 14:51:25.331749 47538 net.cpp:148] Top shape: 3 128 16 16 16 (1572864)
I0630 14:51:25.331755 47538 net.cpp:156] Memory required for data: 1169424384
I0630 14:51:25.331768 47538 layer_factory.hpp:77] Creating layer conv2b_conv2b_0_split
I0630 14:51:25.331779 47538 net.cpp:91] Creating Layer conv2b_conv2b_0_split
I0630 14:51:25.331784 47538 net.cpp:425] conv2b_conv2b_0_split <- conv2b
I0630 14:51:25.331796 47538 net.cpp:399] conv2b_conv2b_0_split -> conv2b_conv2b_0_split_0
I0630 14:51:25.331807 47538 net.cpp:399] conv2b_conv2b_0_split -> conv2b_conv2b_0_split_1
I0630 14:51:25.331866 47538 net.cpp:141] Setting up conv2b_conv2b_0_split
I0630 14:51:25.331874 47538 net.cpp:148] Top shape: 3 128 16 16 16 (1572864)
I0630 14:51:25.331881 47538 net.cpp:148] Top shape: 3 128 16 16 16 (1572864)
I0630 14:51:25.331884 47538 net.cpp:156] Memory required for data: 1182007296
I0630 14:51:25.331889 47538 layer_factory.hpp:77] Creating layer bn5
I0630 14:51:25.331912 47538 net.cpp:91] Creating Layer bn5
I0630 14:51:25.331918 47538 net.cpp:425] bn5 <- conv2b_conv2b_0_split_0
I0630 14:51:25.331925 47538 net.cpp:399] bn5 -> conv2b_bn
I0630 14:51:25.332175 47538 net.cpp:141] Setting up bn5
I0630 14:51:25.332185 47538 net.cpp:148] Top shape: 3 128 16 16 16 (1572864)
I0630 14:51:25.332190 47538 net.cpp:156] Memory required for data: 1188298752
I0630 14:51:25.332199 47538 layer_factory.hpp:77] Creating layer scale_conv5_fine
I0630 14:51:25.332207 47538 net.cpp:91] Creating Layer scale_conv5_fine
I0630 14:51:25.332213 47538 net.cpp:425] scale_conv5_fine <- conv2b_bn
I0630 14:51:25.332221 47538 net.cpp:386] scale_conv5_fine -> conv2b_bn (in-place)
I0630 14:51:25.332271 47538 layer_factory.hpp:77] Creating layer scale_conv5_fine
I0630 14:51:25.332412 47538 net.cpp:141] Setting up scale_conv5_fine
I0630 14:51:25.332422 47538 net.cpp:148] Top shape: 3 128 16 16 16 (1572864)
I0630 14:51:25.332425 47538 net.cpp:156] Memory required for data: 1194590208
I0630 14:51:25.332433 47538 layer_factory.hpp:77] Creating layer relu2b
I0630 14:51:25.332445 47538 net.cpp:91] Creating Layer relu2b
I0630 14:51:25.332451 47538 net.cpp:425] relu2b <- conv2b_bn
I0630 14:51:25.332458 47538 net.cpp:386] relu2b -> conv2b_bn (in-place)
I0630 14:51:25.332692 47538 net.cpp:141] Setting up relu2b
I0630 14:51:25.332702 47538 net.cpp:148] Top shape: 3 128 16 16 16 (1572864)
I0630 14:51:25.332708 47538 net.cpp:156] Memory required for data: 1200881664
I0630 14:51:25.332713 47538 layer_factory.hpp:77] Creating layer pool2
I0630 14:51:25.332724 47538 net.cpp:91] Creating Layer pool2
I0630 14:51:25.332729 47538 net.cpp:425] pool2 <- conv2b_bn
I0630 14:51:25.332737 47538 net.cpp:399] pool2 -> pool2
I0630 14:51:25.333009 47538 net.cpp:141] Setting up pool2
I0630 14:51:25.333022 47538 net.cpp:148] Top shape: 3 128 8 8 8 (196608)
I0630 14:51:25.333027 47538 net.cpp:156] Memory required for data: 1201668096
I0630 14:51:25.333034 47538 layer_factory.hpp:77] Creating layer conv3a
I0630 14:51:25.333046 47538 net.cpp:91] Creating Layer conv3a
I0630 14:51:25.333052 47538 net.cpp:425] conv3a <- pool2
I0630 14:51:25.333060 47538 net.cpp:399] conv3a -> conv3a
I0630 14:51:25.347493 47538 net.cpp:141] Setting up conv3a
I0630 14:51:25.347528 47538 net.cpp:148] Top shape: 3 128 8 8 8 (196608)
I0630 14:51:25.347534 47538 net.cpp:156] Memory required for data: 1202454528
I0630 14:51:25.347544 47538 layer_factory.hpp:77] Creating layer conv3a_conv3a_0_split
I0630 14:51:25.347558 47538 net.cpp:91] Creating Layer conv3a_conv3a_0_split
I0630 14:51:25.347564 47538 net.cpp:425] conv3a_conv3a_0_split <- conv3a
I0630 14:51:25.347573 47538 net.cpp:399] conv3a_conv3a_0_split -> conv3a_conv3a_0_split_0
I0630 14:51:25.347586 47538 net.cpp:399] conv3a_conv3a_0_split -> conv3a_conv3a_0_split_1
I0630 14:51:25.347647 47538 net.cpp:141] Setting up conv3a_conv3a_0_split
I0630 14:51:25.347656 47538 net.cpp:148] Top shape: 3 128 8 8 8 (196608)
I0630 14:51:25.347662 47538 net.cpp:148] Top shape: 3 128 8 8 8 (196608)
I0630 14:51:25.347666 47538 net.cpp:156] Memory required for data: 1204027392
I0630 14:51:25.347671 47538 layer_factory.hpp:77] Creating layer bn6
I0630 14:51:25.347687 47538 net.cpp:91] Creating Layer bn6
I0630 14:51:25.347692 47538 net.cpp:425] bn6 <- conv3a_conv3a_0_split_0
I0630 14:51:25.347703 47538 net.cpp:399] bn6 -> conv3a_bn
I0630 14:51:25.347954 47538 net.cpp:141] Setting up bn6
I0630 14:51:25.347962 47538 net.cpp:148] Top shape: 3 128 8 8 8 (196608)
I0630 14:51:25.347967 47538 net.cpp:156] Memory required for data: 1204813824
I0630 14:51:25.347977 47538 layer_factory.hpp:77] Creating layer scale_conv6
I0630 14:51:25.347986 47538 net.cpp:91] Creating Layer scale_conv6
I0630 14:51:25.347991 47538 net.cpp:425] scale_conv6 <- conv3a_bn
I0630 14:51:25.347998 47538 net.cpp:386] scale_conv6 -> conv3a_bn (in-place)
I0630 14:51:25.348062 47538 layer_factory.hpp:77] Creating layer scale_conv6
I0630 14:51:25.348193 47538 net.cpp:141] Setting up scale_conv6
I0630 14:51:25.348202 47538 net.cpp:148] Top shape: 3 128 8 8 8 (196608)
I0630 14:51:25.348207 47538 net.cpp:156] Memory required for data: 1205600256
I0630 14:51:25.348215 47538 layer_factory.hpp:77] Creating layer relu3a
I0630 14:51:25.348225 47538 net.cpp:91] Creating Layer relu3a
I0630 14:51:25.348232 47538 net.cpp:425] relu3a <- conv3a_bn
I0630 14:51:25.348237 47538 net.cpp:386] relu3a -> conv3a_bn (in-place)
I0630 14:51:25.348492 47538 net.cpp:141] Setting up relu3a
I0630 14:51:25.348507 47538 net.cpp:148] Top shape: 3 128 8 8 8 (196608)
I0630 14:51:25.348512 47538 net.cpp:156] Memory required for data: 1206386688
I0630 14:51:25.348518 47538 layer_factory.hpp:77] Creating layer pool3
I0630 14:51:25.348527 47538 net.cpp:91] Creating Layer pool3
I0630 14:51:25.348533 47538 net.cpp:425] pool3 <- conv3a_bn
I0630 14:51:25.348543 47538 net.cpp:399] pool3 -> pool3
I0630 14:51:25.350827 47538 net.cpp:141] Setting up pool3
I0630 14:51:25.350847 47538 net.cpp:148] Top shape: 3 128 4 4 4 (24576)
I0630 14:51:25.350852 47538 net.cpp:156] Memory required for data: 1206484992
I0630 14:51:25.350858 47538 layer_factory.hpp:77] Creating layer deconv4
I0630 14:51:25.350870 47538 net.cpp:91] Creating Layer deconv4
I0630 14:51:25.350877 47538 net.cpp:425] deconv4 <- pool3
I0630 14:51:25.350888 47538 net.cpp:399] deconv4 -> deconv4
I0630 14:51:25.361203 47538 net.cpp:141] Setting up deconv4
I0630 14:51:25.361222 47538 net.cpp:148] Top shape: 3 128 8 8 8 (196608)
I0630 14:51:25.361227 47538 net.cpp:156] Memory required for data: 1207271424
I0630 14:51:25.361238 47538 layer_factory.hpp:77] Creating layer concat8
I0630 14:51:25.361250 47538 net.cpp:91] Creating Layer concat8
I0630 14:51:25.361256 47538 net.cpp:425] concat8 <- conv3a_conv3a_0_split_1
I0630 14:51:25.361263 47538 net.cpp:425] concat8 <- deconv4
I0630 14:51:25.361271 47538 net.cpp:399] concat8 -> concat8
I0630 14:51:25.361310 47538 net.cpp:141] Setting up concat8
I0630 14:51:25.361317 47538 net.cpp:148] Top shape: 3 256 8 8 8 (393216)
I0630 14:51:25.361321 47538 net.cpp:156] Memory required for data: 1208844288
I0630 14:51:25.361327 47538 layer_factory.hpp:77] Creating layer conv4-Convolution1
I0630 14:51:25.361346 47538 net.cpp:91] Creating Layer conv4-Convolution1
I0630 14:51:25.361356 47538 net.cpp:425] conv4-Convolution1 <- concat8
I0630 14:51:25.361383 47538 net.cpp:399] conv4-Convolution1 -> conv4-Convolution1
I0630 14:51:25.385004 47538 net.cpp:141] Setting up conv4-Convolution1
I0630 14:51:25.385032 47538 net.cpp:148] Top shape: 3 256 8 8 8 (393216)
I0630 14:51:25.385037 47538 net.cpp:156] Memory required for data: 1210417152
I0630 14:51:25.385048 47538 layer_factory.hpp:77] Creating layer conv4-Convolution1_conv4-Convolution1_0_split
I0630 14:51:25.385061 47538 net.cpp:91] Creating Layer conv4-Convolution1_conv4-Convolution1_0_split
I0630 14:51:25.385066 47538 net.cpp:425] conv4-Convolution1_conv4-Convolution1_0_split <- conv4-Convolution1
I0630 14:51:25.385082 47538 net.cpp:399] conv4-Convolution1_conv4-Convolution1_0_split -> conv4-Convolution1_conv4-Convolution1_0_split_0
I0630 14:51:25.385093 47538 net.cpp:399] conv4-Convolution1_conv4-Convolution1_0_split -> conv4-Convolution1_conv4-Convolution1_0_split_1
I0630 14:51:25.385150 47538 net.cpp:141] Setting up conv4-Convolution1_conv4-Convolution1_0_split
I0630 14:51:25.385159 47538 net.cpp:148] Top shape: 3 256 8 8 8 (393216)
I0630 14:51:25.385165 47538 net.cpp:148] Top shape: 3 256 8 8 8 (393216)
I0630 14:51:25.385169 47538 net.cpp:156] Memory required for data: 1213562880
I0630 14:51:25.385175 47538 layer_factory.hpp:77] Creating layer conv4-BatchNorm1
I0630 14:51:25.385187 47538 net.cpp:91] Creating Layer conv4-BatchNorm1
I0630 14:51:25.385192 47538 net.cpp:425] conv4-BatchNorm1 <- conv4-Convolution1_conv4-Convolution1_0_split_0
I0630 14:51:25.385200 47538 net.cpp:399] conv4-BatchNorm1 -> conv4-BatchNorm1
I0630 14:51:25.385452 47538 net.cpp:141] Setting up conv4-BatchNorm1
I0630 14:51:25.385459 47538 net.cpp:148] Top shape: 3 256 8 8 8 (393216)
I0630 14:51:25.385464 47538 net.cpp:156] Memory required for data: 1215135744
I0630 14:51:25.385474 47538 layer_factory.hpp:77] Creating layer conv4-Scale1
I0630 14:51:25.385486 47538 net.cpp:91] Creating Layer conv4-Scale1
I0630 14:51:25.385493 47538 net.cpp:425] conv4-Scale1 <- conv4-BatchNorm1
I0630 14:51:25.385499 47538 net.cpp:386] conv4-Scale1 -> conv4-BatchNorm1 (in-place)
I0630 14:51:25.385556 47538 layer_factory.hpp:77] Creating layer conv4-Scale1
I0630 14:51:25.385689 47538 net.cpp:141] Setting up conv4-Scale1
I0630 14:51:25.385696 47538 net.cpp:148] Top shape: 3 256 8 8 8 (393216)
I0630 14:51:25.385701 47538 net.cpp:156] Memory required for data: 1216708608
I0630 14:51:25.385712 47538 layer_factory.hpp:77] Creating layer conv4-ReLU1
I0630 14:51:25.385720 47538 net.cpp:91] Creating Layer conv4-ReLU1
I0630 14:51:25.385725 47538 net.cpp:425] conv4-ReLU1 <- conv4-BatchNorm1
I0630 14:51:25.385735 47538 net.cpp:386] conv4-ReLU1 -> conv4-BatchNorm1 (in-place)
I0630 14:51:25.390702 47538 net.cpp:141] Setting up conv4-ReLU1
I0630 14:51:25.390722 47538 net.cpp:148] Top shape: 3 256 8 8 8 (393216)
I0630 14:51:25.390727 47538 net.cpp:156] Memory required for data: 1218281472
I0630 14:51:25.390733 47538 layer_factory.hpp:77] Creating layer conv4-Convolution2
I0630 14:51:25.390755 47538 net.cpp:91] Creating Layer conv4-Convolution2
I0630 14:51:25.390763 47538 net.cpp:425] conv4-Convolution2 <- conv4-BatchNorm1
I0630 14:51:25.390772 47538 net.cpp:399] conv4-Convolution2 -> conv4-Convolution2
I0630 14:51:25.394419 47538 net.cpp:141] Setting up conv4-Convolution2
I0630 14:51:25.394436 47538 net.cpp:148] Top shape: 3 32 8 8 8 (49152)
I0630 14:51:25.394443 47538 net.cpp:156] Memory required for data: 1218478080
I0630 14:51:25.394451 47538 layer_factory.hpp:77] Creating layer conv4-Dropout1
I0630 14:51:25.394464 47538 net.cpp:91] Creating Layer conv4-Dropout1
I0630 14:51:25.394470 47538 net.cpp:425] conv4-Dropout1 <- conv4-Convolution2
I0630 14:51:25.394479 47538 net.cpp:399] conv4-Dropout1 -> conv4-Dropout1
I0630 14:51:25.394536 47538 net.cpp:141] Setting up conv4-Dropout1
I0630 14:51:25.394544 47538 net.cpp:148] Top shape: 3 32 8 8 8 (49152)
I0630 14:51:25.394548 47538 net.cpp:156] Memory required for data: 1218674688
I0630 14:51:25.394554 47538 layer_factory.hpp:77] Creating layer conv4-Concat1
I0630 14:51:25.394572 47538 net.cpp:91] Creating Layer conv4-Concat1
I0630 14:51:25.394593 47538 net.cpp:425] conv4-Concat1 <- conv4-Convolution1_conv4-Convolution1_0_split_1
I0630 14:51:25.394599 47538 net.cpp:425] conv4-Concat1 <- conv4-Dropout1
I0630 14:51:25.394610 47538 net.cpp:399] conv4-Concat1 -> conv4-Concat1
I0630 14:51:25.394644 47538 net.cpp:141] Setting up conv4-Concat1
I0630 14:51:25.394654 47538 net.cpp:148] Top shape: 3 288 8 8 8 (442368)
I0630 14:51:25.394659 47538 net.cpp:156] Memory required for data: 1220444160
I0630 14:51:25.394665 47538 layer_factory.hpp:77] Creating layer conv4-Concat1_conv4-Concat1_0_split
I0630 14:51:25.394672 47538 net.cpp:91] Creating Layer conv4-Concat1_conv4-Concat1_0_split
I0630 14:51:25.394677 47538 net.cpp:425] conv4-Concat1_conv4-Concat1_0_split <- conv4-Concat1
I0630 14:51:25.394685 47538 net.cpp:399] conv4-Concat1_conv4-Concat1_0_split -> conv4-Concat1_conv4-Concat1_0_split_0
I0630 14:51:25.394714 47538 net.cpp:399] conv4-Concat1_conv4-Concat1_0_split -> conv4-Concat1_conv4-Concat1_0_split_1
I0630 14:51:25.394764 47538 net.cpp:141] Setting up conv4-Concat1_conv4-Concat1_0_split
I0630 14:51:25.394773 47538 net.cpp:148] Top shape: 3 288 8 8 8 (442368)
I0630 14:51:25.394778 47538 net.cpp:148] Top shape: 3 288 8 8 8 (442368)
I0630 14:51:25.394783 47538 net.cpp:156] Memory required for data: 1223983104
I0630 14:51:25.394788 47538 layer_factory.hpp:77] Creating layer conv4-BatchNorm2
I0630 14:51:25.394798 47538 net.cpp:91] Creating Layer conv4-BatchNorm2
I0630 14:51:25.394802 47538 net.cpp:425] conv4-BatchNorm2 <- conv4-Concat1_conv4-Concat1_0_split_0
I0630 14:51:25.394814 47538 net.cpp:399] conv4-BatchNorm2 -> conv4-BatchNorm2
I0630 14:51:25.395105 47538 net.cpp:141] Setting up conv4-BatchNorm2
I0630 14:51:25.395115 47538 net.cpp:148] Top shape: 3 288 8 8 8 (442368)
I0630 14:51:25.395119 47538 net.cpp:156] Memory required for data: 1225752576
I0630 14:51:25.395130 47538 layer_factory.hpp:77] Creating layer conv4-Scale2
I0630 14:51:25.395138 47538 net.cpp:91] Creating Layer conv4-Scale2
I0630 14:51:25.395144 47538 net.cpp:425] conv4-Scale2 <- conv4-BatchNorm2
I0630 14:51:25.395153 47538 net.cpp:386] conv4-Scale2 -> conv4-BatchNorm2 (in-place)
I0630 14:51:25.395202 47538 layer_factory.hpp:77] Creating layer conv4-Scale2
I0630 14:51:25.395370 47538 net.cpp:141] Setting up conv4-Scale2
I0630 14:51:25.395378 47538 net.cpp:148] Top shape: 3 288 8 8 8 (442368)
I0630 14:51:25.395382 47538 net.cpp:156] Memory required for data: 1227522048
I0630 14:51:25.395395 47538 layer_factory.hpp:77] Creating layer conv4-ReLU2
I0630 14:51:25.395401 47538 net.cpp:91] Creating Layer conv4-ReLU2
I0630 14:51:25.395406 47538 net.cpp:425] conv4-ReLU2 <- conv4-BatchNorm2
I0630 14:51:25.395416 47538 net.cpp:386] conv4-ReLU2 -> conv4-BatchNorm2 (in-place)
I0630 14:51:25.395661 47538 net.cpp:141] Setting up conv4-ReLU2
I0630 14:51:25.395673 47538 net.cpp:148] Top shape: 3 288 8 8 8 (442368)
I0630 14:51:25.395678 47538 net.cpp:156] Memory required for data: 1229291520
I0630 14:51:25.395682 47538 layer_factory.hpp:77] Creating layer conv4-Convolution3
I0630 14:51:25.395699 47538 net.cpp:91] Creating Layer conv4-Convolution3
I0630 14:51:25.395704 47538 net.cpp:425] conv4-Convolution3 <- conv4-BatchNorm2
I0630 14:51:25.395715 47538 net.cpp:399] conv4-Convolution3 -> conv4-Convolution3
I0630 14:51:25.414634 47538 net.cpp:141] Setting up conv4-Convolution3
I0630 14:51:25.414654 47538 net.cpp:148] Top shape: 3 32 8 8 8 (49152)
I0630 14:51:25.414659 47538 net.cpp:156] Memory required for data: 1229488128
I0630 14:51:25.414670 47538 layer_factory.hpp:77] Creating layer conv4-Dropout2
I0630 14:51:25.414683 47538 net.cpp:91] Creating Layer conv4-Dropout2
I0630 14:51:25.414690 47538 net.cpp:425] conv4-Dropout2 <- conv4-Convolution3
I0630 14:51:25.414700 47538 net.cpp:399] conv4-Dropout2 -> conv4-Dropout2
I0630 14:51:25.414762 47538 net.cpp:141] Setting up conv4-Dropout2
I0630 14:51:25.414770 47538 net.cpp:148] Top shape: 3 32 8 8 8 (49152)
I0630 14:51:25.414775 47538 net.cpp:156] Memory required for data: 1229684736
I0630 14:51:25.414785 47538 layer_factory.hpp:77] Creating layer conv4-Concat2
I0630 14:51:25.414808 47538 net.cpp:91] Creating Layer conv4-Concat2
I0630 14:51:25.414813 47538 net.cpp:425] conv4-Concat2 <- conv4-Concat1_conv4-Concat1_0_split_1
I0630 14:51:25.414821 47538 net.cpp:425] conv4-Concat2 <- conv4-Dropout2
I0630 14:51:25.414834 47538 net.cpp:399] conv4-Concat2 -> conv4-Concat2
I0630 14:51:25.414868 47538 net.cpp:141] Setting up conv4-Concat2
I0630 14:51:25.414876 47538 net.cpp:148] Top shape: 3 320 8 8 8 (491520)
I0630 14:51:25.414881 47538 net.cpp:156] Memory required for data: 1231650816
I0630 14:51:25.414889 47538 layer_factory.hpp:77] Creating layer conv4-Concat2_conv4-Concat2_0_split
I0630 14:51:25.414901 47538 net.cpp:91] Creating Layer conv4-Concat2_conv4-Concat2_0_split
I0630 14:51:25.414906 47538 net.cpp:425] conv4-Concat2_conv4-Concat2_0_split <- conv4-Concat2
I0630 14:51:25.414917 47538 net.cpp:399] conv4-Concat2_conv4-Concat2_0_split -> conv4-Concat2_conv4-Concat2_0_split_0
I0630 14:51:25.414927 47538 net.cpp:399] conv4-Concat2_conv4-Concat2_0_split -> conv4-Concat2_conv4-Concat2_0_split_1
I0630 14:51:25.414999 47538 net.cpp:141] Setting up conv4-Concat2_conv4-Concat2_0_split
I0630 14:51:25.415022 47538 net.cpp:148] Top shape: 3 320 8 8 8 (491520)
I0630 14:51:25.415030 47538 net.cpp:148] Top shape: 3 320 8 8 8 (491520)
I0630 14:51:25.415035 47538 net.cpp:156] Memory required for data: 1235582976
I0630 14:51:25.415038 47538 layer_factory.hpp:77] Creating layer conv4-BatchNorm3
I0630 14:51:25.415048 47538 net.cpp:91] Creating Layer conv4-BatchNorm3
I0630 14:51:25.415055 47538 net.cpp:425] conv4-BatchNorm3 <- conv4-Concat2_conv4-Concat2_0_split_0
I0630 14:51:25.415066 47538 net.cpp:399] conv4-BatchNorm3 -> conv4-BatchNorm3
I0630 14:51:25.415354 47538 net.cpp:141] Setting up conv4-BatchNorm3
I0630 14:51:25.415362 47538 net.cpp:148] Top shape: 3 320 8 8 8 (491520)
I0630 14:51:25.415369 47538 net.cpp:156] Memory required for data: 1237549056
I0630 14:51:25.415378 47538 layer_factory.hpp:77] Creating layer conv4-Scale3
I0630 14:51:25.415386 47538 net.cpp:91] Creating Layer conv4-Scale3
I0630 14:51:25.415398 47538 net.cpp:425] conv4-Scale3 <- conv4-BatchNorm3
I0630 14:51:25.415406 47538 net.cpp:386] conv4-Scale3 -> conv4-BatchNorm3 (in-place)
I0630 14:51:25.415467 47538 layer_factory.hpp:77] Creating layer conv4-Scale3
I0630 14:51:25.415625 47538 net.cpp:141] Setting up conv4-Scale3
I0630 14:51:25.415634 47538 net.cpp:148] Top shape: 3 320 8 8 8 (491520)
I0630 14:51:25.415639 47538 net.cpp:156] Memory required for data: 1239515136
I0630 14:51:25.415650 47538 layer_factory.hpp:77] Creating layer conv4-ReLU3
I0630 14:51:25.415657 47538 net.cpp:91] Creating Layer conv4-ReLU3
I0630 14:51:25.415663 47538 net.cpp:425] conv4-ReLU3 <- conv4-BatchNorm3
I0630 14:51:25.415673 47538 net.cpp:386] conv4-ReLU3 -> conv4-BatchNorm3 (in-place)
I0630 14:51:25.415926 47538 net.cpp:141] Setting up conv4-ReLU3
I0630 14:51:25.415937 47538 net.cpp:148] Top shape: 3 320 8 8 8 (491520)
I0630 14:51:25.415942 47538 net.cpp:156] Memory required for data: 1241481216
I0630 14:51:25.415948 47538 layer_factory.hpp:77] Creating layer conv4-Convolution4
I0630 14:51:25.415966 47538 net.cpp:91] Creating Layer conv4-Convolution4
I0630 14:51:25.415972 47538 net.cpp:425] conv4-Convolution4 <- conv4-BatchNorm3
I0630 14:51:25.415984 47538 net.cpp:399] conv4-Convolution4 -> conv4-Convolution4
I0630 14:51:25.423909 47538 net.cpp:141] Setting up conv4-Convolution4
I0630 14:51:25.423928 47538 net.cpp:148] Top shape: 3 32 8 8 8 (49152)
I0630 14:51:25.423933 47538 net.cpp:156] Memory required for data: 1241677824
I0630 14:51:25.423943 47538 layer_factory.hpp:77] Creating layer conv4-Dropout3
I0630 14:51:25.423954 47538 net.cpp:91] Creating Layer conv4-Dropout3
I0630 14:51:25.423959 47538 net.cpp:425] conv4-Dropout3 <- conv4-Convolution4
I0630 14:51:25.423971 47538 net.cpp:399] conv4-Dropout3 -> conv4-Dropout3
I0630 14:51:25.424031 47538 net.cpp:141] Setting up conv4-Dropout3
I0630 14:51:25.424039 47538 net.cpp:148] Top shape: 3 32 8 8 8 (49152)
I0630 14:51:25.424048 47538 net.cpp:156] Memory required for data: 1241874432
I0630 14:51:25.424070 47538 layer_factory.hpp:77] Creating layer conv4-Concat3
I0630 14:51:25.424078 47538 net.cpp:91] Creating Layer conv4-Concat3
I0630 14:51:25.424085 47538 net.cpp:425] conv4-Concat3 <- conv4-Concat2_conv4-Concat2_0_split_1
I0630 14:51:25.424091 47538 net.cpp:425] conv4-Concat3 <- conv4-Dropout3
I0630 14:51:25.424103 47538 net.cpp:399] conv4-Concat3 -> conv4
I0630 14:51:25.424135 47538 net.cpp:141] Setting up conv4-Concat3
I0630 14:51:25.424144 47538 net.cpp:148] Top shape: 3 352 8 8 8 (540672)
I0630 14:51:25.424149 47538 net.cpp:156] Memory required for data: 1244037120
I0630 14:51:25.424154 47538 layer_factory.hpp:77] Creating layer conv4_bn
I0630 14:51:25.424165 47538 net.cpp:91] Creating Layer conv4_bn
I0630 14:51:25.424170 47538 net.cpp:425] conv4_bn <- conv4
I0630 14:51:25.424180 47538 net.cpp:399] conv4_bn -> conv4_bn
I0630 14:51:25.424445 47538 net.cpp:141] Setting up conv4_bn
I0630 14:51:25.424454 47538 net.cpp:148] Top shape: 3 352 8 8 8 (540672)
I0630 14:51:25.424459 47538 net.cpp:156] Memory required for data: 1246199808
I0630 14:51:25.424469 47538 layer_factory.hpp:77] Creating layer scale_conv4_fine
I0630 14:51:25.424477 47538 net.cpp:91] Creating Layer scale_conv4_fine
I0630 14:51:25.424482 47538 net.cpp:425] scale_conv4_fine <- conv4_bn
I0630 14:51:25.424494 47538 net.cpp:386] scale_conv4_fine -> conv4_bn (in-place)
I0630 14:51:25.424542 47538 layer_factory.hpp:77] Creating layer scale_conv4_fine
I0630 14:51:25.424697 47538 net.cpp:141] Setting up scale_conv4_fine
I0630 14:51:25.424706 47538 net.cpp:148] Top shape: 3 352 8 8 8 (540672)
I0630 14:51:25.424711 47538 net.cpp:156] Memory required for data: 1248362496
I0630 14:51:25.424719 47538 layer_factory.hpp:77] Creating layer relu4a
I0630 14:51:25.424726 47538 net.cpp:91] Creating Layer relu4a
I0630 14:51:25.424731 47538 net.cpp:425] relu4a <- conv4_bn
I0630 14:51:25.424738 47538 net.cpp:386] relu4a -> conv4_bn (in-place)
I0630 14:51:25.424990 47538 net.cpp:141] Setting up relu4a
I0630 14:51:25.425001 47538 net.cpp:148] Top shape: 3 352 8 8 8 (540672)
I0630 14:51:25.425006 47538 net.cpp:156] Memory required for data: 1250525184
I0630 14:51:25.425024 47538 layer_factory.hpp:77] Creating layer deconv5
I0630 14:51:25.425036 47538 net.cpp:91] Creating Layer deconv5
I0630 14:51:25.425041 47538 net.cpp:425] deconv5 <- conv4_bn
I0630 14:51:25.425050 47538 net.cpp:399] deconv5 -> deconv5
I0630 14:51:25.451166 47538 net.cpp:141] Setting up deconv5
I0630 14:51:25.451208 47538 net.cpp:148] Top shape: 3 128 16 16 16 (1572864)
I0630 14:51:25.451213 47538 net.cpp:156] Memory required for data: 1256816640
I0630 14:51:25.451227 47538 layer_factory.hpp:77] Creating layer concat16
I0630 14:51:25.451244 47538 net.cpp:91] Creating Layer concat16
I0630 14:51:25.451252 47538 net.cpp:425] concat16 <- conv2b_conv2b_0_split_1
I0630 14:51:25.451262 47538 net.cpp:425] concat16 <- deconv5
I0630 14:51:25.451272 47538 net.cpp:399] concat16 -> concat16
I0630 14:51:25.451324 47538 net.cpp:141] Setting up concat16
I0630 14:51:25.451333 47538 net.cpp:148] Top shape: 3 256 16 16 16 (3145728)
I0630 14:51:25.451337 47538 net.cpp:156] Memory required for data: 1269399552
I0630 14:51:25.451342 47538 layer_factory.hpp:77] Creating layer conv5-Convolution1
I0630 14:51:25.451371 47538 net.cpp:91] Creating Layer conv5-Convolution1
I0630 14:51:25.451376 47538 net.cpp:425] conv5-Convolution1 <- concat16
I0630 14:51:25.451388 47538 net.cpp:399] conv5-Convolution1 -> conv5-Convolution1
I0630 14:51:25.473501 47538 net.cpp:141] Setting up conv5-Convolution1
I0630 14:51:25.473524 47538 net.cpp:148] Top shape: 3 256 16 16 16 (3145728)
I0630 14:51:25.473531 47538 net.cpp:156] Memory required for data: 1281982464
I0630 14:51:25.473548 47538 layer_factory.hpp:77] Creating layer conv5-Convolution1_conv5-Convolution1_0_split
I0630 14:51:25.473567 47538 net.cpp:91] Creating Layer conv5-Convolution1_conv5-Convolution1_0_split
I0630 14:51:25.473584 47538 net.cpp:425] conv5-Convolution1_conv5-Convolution1_0_split <- conv5-Convolution1
I0630 14:51:25.473611 47538 net.cpp:399] conv5-Convolution1_conv5-Convolution1_0_split -> conv5-Convolution1_conv5-Convolution1_0_split_0
I0630 14:51:25.473664 47538 net.cpp:399] conv5-Convolution1_conv5-Convolution1_0_split -> conv5-Convolution1_conv5-Convolution1_0_split_1
I0630 14:51:25.473735 47538 net.cpp:141] Setting up conv5-Convolution1_conv5-Convolution1_0_split
I0630 14:51:25.473745 47538 net.cpp:148] Top shape: 3 256 16 16 16 (3145728)
I0630 14:51:25.473752 47538 net.cpp:148] Top shape: 3 256 16 16 16 (3145728)
I0630 14:51:25.473757 47538 net.cpp:156] Memory required for data: 1307148288
I0630 14:51:25.473762 47538 layer_factory.hpp:77] Creating layer conv5-BatchNorm1
I0630 14:51:25.473774 47538 net.cpp:91] Creating Layer conv5-BatchNorm1
I0630 14:51:25.473780 47538 net.cpp:425] conv5-BatchNorm1 <- conv5-Convolution1_conv5-Convolution1_0_split_0
I0630 14:51:25.473788 47538 net.cpp:399] conv5-BatchNorm1 -> conv5-BatchNorm1
I0630 14:51:25.474098 47538 net.cpp:141] Setting up conv5-BatchNorm1
I0630 14:51:25.474118 47538 net.cpp:148] Top shape: 3 256 16 16 16 (3145728)
I0630 14:51:25.474123 47538 net.cpp:156] Memory required for data: 1319731200
I0630 14:51:25.474134 47538 layer_factory.hpp:77] Creating layer conv5-Scale1
I0630 14:51:25.474144 47538 net.cpp:91] Creating Layer conv5-Scale1
I0630 14:51:25.474150 47538 net.cpp:425] conv5-Scale1 <- conv5-BatchNorm1
I0630 14:51:25.474160 47538 net.cpp:386] conv5-Scale1 -> conv5-BatchNorm1 (in-place)
I0630 14:51:25.474220 47538 layer_factory.hpp:77] Creating layer conv5-Scale1
I0630 14:51:25.474370 47538 net.cpp:141] Setting up conv5-Scale1
I0630 14:51:25.474380 47538 net.cpp:148] Top shape: 3 256 16 16 16 (3145728)
I0630 14:51:25.474383 47538 net.cpp:156] Memory required for data: 1332314112
I0630 14:51:25.474392 47538 layer_factory.hpp:77] Creating layer conv5-ReLU1
I0630 14:51:25.474406 47538 net.cpp:91] Creating Layer conv5-ReLU1
I0630 14:51:25.474412 47538 net.cpp:425] conv5-ReLU1 <- conv5-BatchNorm1
I0630 14:51:25.474418 47538 net.cpp:386] conv5-ReLU1 -> conv5-BatchNorm1 (in-place)
I0630 14:51:25.474673 47538 net.cpp:141] Setting up conv5-ReLU1
I0630 14:51:25.474684 47538 net.cpp:148] Top shape: 3 256 16 16 16 (3145728)
I0630 14:51:25.474689 47538 net.cpp:156] Memory required for data: 1344897024
I0630 14:51:25.474696 47538 layer_factory.hpp:77] Creating layer conv5-Convolution2
I0630 14:51:25.474714 47538 net.cpp:91] Creating Layer conv5-Convolution2
I0630 14:51:25.474720 47538 net.cpp:425] conv5-Convolution2 <- conv5-BatchNorm1
I0630 14:51:25.474730 47538 net.cpp:399] conv5-Convolution2 -> conv5-Convolution2
I0630 14:51:25.478472 47538 net.cpp:141] Setting up conv5-Convolution2
I0630 14:51:25.478489 47538 net.cpp:148] Top shape: 3 32 16 16 16 (393216)
I0630 14:51:25.478494 47538 net.cpp:156] Memory required for data: 1346469888
I0630 14:51:25.478505 47538 layer_factory.hpp:77] Creating layer conv5-Dropout1
I0630 14:51:25.478515 47538 net.cpp:91] Creating Layer conv5-Dropout1
I0630 14:51:25.478521 47538 net.cpp:425] conv5-Dropout1 <- conv5-Convolution2
I0630 14:51:25.478529 47538 net.cpp:399] conv5-Dropout1 -> conv5-Dropout1
I0630 14:51:25.478593 47538 net.cpp:141] Setting up conv5-Dropout1
I0630 14:51:25.478601 47538 net.cpp:148] Top shape: 3 32 16 16 16 (393216)
I0630 14:51:25.478606 47538 net.cpp:156] Memory required for data: 1348042752
I0630 14:51:25.478611 47538 layer_factory.hpp:77] Creating layer conv5-Concat1
I0630 14:51:25.478619 47538 net.cpp:91] Creating Layer conv5-Concat1
I0630 14:51:25.478624 47538 net.cpp:425] conv5-Concat1 <- conv5-Convolution1_conv5-Convolution1_0_split_1
I0630 14:51:25.478631 47538 net.cpp:425] conv5-Concat1 <- conv5-Dropout1
I0630 14:51:25.478641 47538 net.cpp:399] conv5-Concat1 -> conv5-Concat1
I0630 14:51:25.478675 47538 net.cpp:141] Setting up conv5-Concat1
I0630 14:51:25.478683 47538 net.cpp:148] Top shape: 3 288 16 16 16 (3538944)
I0630 14:51:25.478688 47538 net.cpp:156] Memory required for data: 1362198528
I0630 14:51:25.478694 47538 layer_factory.hpp:77] Creating layer conv5-Concat1_conv5-Concat1_0_split
I0630 14:51:25.478708 47538 net.cpp:91] Creating Layer conv5-Concat1_conv5-Concat1_0_split
I0630 14:51:25.478726 47538 net.cpp:425] conv5-Concat1_conv5-Concat1_0_split <- conv5-Concat1
I0630 14:51:25.478736 47538 net.cpp:399] conv5-Concat1_conv5-Concat1_0_split -> conv5-Concat1_conv5-Concat1_0_split_0
I0630 14:51:25.478746 47538 net.cpp:399] conv5-Concat1_conv5-Concat1_0_split -> conv5-Concat1_conv5-Concat1_0_split_1
I0630 14:51:25.478798 47538 net.cpp:141] Setting up conv5-Concat1_conv5-Concat1_0_split
I0630 14:51:25.478806 47538 net.cpp:148] Top shape: 3 288 16 16 16 (3538944)
I0630 14:51:25.478811 47538 net.cpp:148] Top shape: 3 288 16 16 16 (3538944)
I0630 14:51:25.478816 47538 net.cpp:156] Memory required for data: 1390510080
I0630 14:51:25.478821 47538 layer_factory.hpp:77] Creating layer conv5-BatchNorm2
I0630 14:51:25.478833 47538 net.cpp:91] Creating Layer conv5-BatchNorm2
I0630 14:51:25.478839 47538 net.cpp:425] conv5-BatchNorm2 <- conv5-Concat1_conv5-Concat1_0_split_0
I0630 14:51:25.478848 47538 net.cpp:399] conv5-BatchNorm2 -> conv5-BatchNorm2
I0630 14:51:25.479133 47538 net.cpp:141] Setting up conv5-BatchNorm2
I0630 14:51:25.479142 47538 net.cpp:148] Top shape: 3 288 16 16 16 (3538944)
I0630 14:51:25.479146 47538 net.cpp:156] Memory required for data: 1404665856
I0630 14:51:25.479157 47538 layer_factory.hpp:77] Creating layer conv5-Scale2
I0630 14:51:25.479166 47538 net.cpp:91] Creating Layer conv5-Scale2
I0630 14:51:25.479171 47538 net.cpp:425] conv5-Scale2 <- conv5-BatchNorm2
I0630 14:51:25.479185 47538 net.cpp:386] conv5-Scale2 -> conv5-BatchNorm2 (in-place)
I0630 14:51:25.479243 47538 layer_factory.hpp:77] Creating layer conv5-Scale2
I0630 14:51:25.479408 47538 net.cpp:141] Setting up conv5-Scale2
I0630 14:51:25.479418 47538 net.cpp:148] Top shape: 3 288 16 16 16 (3538944)
I0630 14:51:25.479424 47538 net.cpp:156] Memory required for data: 1418821632
I0630 14:51:25.479447 47538 layer_factory.hpp:77] Creating layer conv5-ReLU2
I0630 14:51:25.479460 47538 net.cpp:91] Creating Layer conv5-ReLU2
I0630 14:51:25.479465 47538 net.cpp:425] conv5-ReLU2 <- conv5-BatchNorm2
I0630 14:51:25.479470 47538 net.cpp:386] conv5-ReLU2 -> conv5-BatchNorm2 (in-place)
I0630 14:51:25.490896 47538 net.cpp:141] Setting up conv5-ReLU2
I0630 14:51:25.490918 47538 net.cpp:148] Top shape: 3 288 16 16 16 (3538944)
I0630 14:51:25.490923 47538 net.cpp:156] Memory required for data: 1432977408
I0630 14:51:25.490929 47538 layer_factory.hpp:77] Creating layer conv5-Convolution3
I0630 14:51:25.490945 47538 net.cpp:91] Creating Layer conv5-Convolution3
I0630 14:51:25.490953 47538 net.cpp:425] conv5-Convolution3 <- conv5-BatchNorm2
I0630 14:51:25.490965 47538 net.cpp:399] conv5-Convolution3 -> conv5-Convolution3
I0630 14:51:25.493974 47538 net.cpp:141] Setting up conv5-Convolution3
I0630 14:51:25.493990 47538 net.cpp:148] Top shape: 3 32 16 16 16 (393216)
I0630 14:51:25.493996 47538 net.cpp:156] Memory required for data: 1434550272
I0630 14:51:25.494005 47538 layer_factory.hpp:77] Creating layer conv5-Dropout2
I0630 14:51:25.494017 47538 net.cpp:91] Creating Layer conv5-Dropout2
I0630 14:51:25.494024 47538 net.cpp:425] conv5-Dropout2 <- conv5-Convolution3
I0630 14:51:25.494035 47538 net.cpp:399] conv5-Dropout2 -> conv5-Dropout2
I0630 14:51:25.494092 47538 net.cpp:141] Setting up conv5-Dropout2
I0630 14:51:25.494102 47538 net.cpp:148] Top shape: 3 32 16 16 16 (393216)
I0630 14:51:25.494105 47538 net.cpp:156] Memory required for data: 1436123136
I0630 14:51:25.494112 47538 layer_factory.hpp:77] Creating layer conv5-Concat2
I0630 14:51:25.494122 47538 net.cpp:91] Creating Layer conv5-Concat2
I0630 14:51:25.494127 47538 net.cpp:425] conv5-Concat2 <- conv5-Concat1_conv5-Concat1_0_split_1
I0630 14:51:25.494132 47538 net.cpp:425] conv5-Concat2 <- conv5-Dropout2
I0630 14:51:25.494140 47538 net.cpp:399] conv5-Concat2 -> conv5-Concat2
I0630 14:51:25.494174 47538 net.cpp:141] Setting up conv5-Concat2
I0630 14:51:25.494181 47538 net.cpp:148] Top shape: 3 320 16 16 16 (3932160)
I0630 14:51:25.494185 47538 net.cpp:156] Memory required for data: 1451851776
I0630 14:51:25.494199 47538 layer_factory.hpp:77] Creating layer conv5-Concat2_conv5-Concat2_0_split
I0630 14:51:25.494220 47538 net.cpp:91] Creating Layer conv5-Concat2_conv5-Concat2_0_split
I0630 14:51:25.494225 47538 net.cpp:425] conv5-Concat2_conv5-Concat2_0_split <- conv5-Concat2
I0630 14:51:25.494235 47538 net.cpp:399] conv5-Concat2_conv5-Concat2_0_split -> conv5-Concat2_conv5-Concat2_0_split_0
I0630 14:51:25.494246 47538 net.cpp:399] conv5-Concat2_conv5-Concat2_0_split -> conv5-Concat2_conv5-Concat2_0_split_1
I0630 14:51:25.494299 47538 net.cpp:141] Setting up conv5-Concat2_conv5-Concat2_0_split
I0630 14:51:25.494307 47538 net.cpp:148] Top shape: 3 320 16 16 16 (3932160)
I0630 14:51:25.494313 47538 net.cpp:148] Top shape: 3 320 16 16 16 (3932160)
I0630 14:51:25.494318 47538 net.cpp:156] Memory required for data: 1483309056
I0630 14:51:25.494323 47538 layer_factory.hpp:77] Creating layer conv5-BatchNorm3
I0630 14:51:25.494334 47538 net.cpp:91] Creating Layer conv5-BatchNorm3
I0630 14:51:25.494339 47538 net.cpp:425] conv5-BatchNorm3 <- conv5-Concat2_conv5-Concat2_0_split_0
I0630 14:51:25.494349 47538 net.cpp:399] conv5-BatchNorm3 -> conv5-BatchNorm3
I0630 14:51:25.494627 47538 net.cpp:141] Setting up conv5-BatchNorm3
I0630 14:51:25.494637 47538 net.cpp:148] Top shape: 3 320 16 16 16 (3932160)
I0630 14:51:25.494640 47538 net.cpp:156] Memory required for data: 1499037696
I0630 14:51:25.494652 47538 layer_factory.hpp:77] Creating layer conv5-Scale3
I0630 14:51:25.494662 47538 net.cpp:91] Creating Layer conv5-Scale3
I0630 14:51:25.494668 47538 net.cpp:425] conv5-Scale3 <- conv5-BatchNorm3
I0630 14:51:25.494673 47538 net.cpp:386] conv5-Scale3 -> conv5-BatchNorm3 (in-place)
I0630 14:51:25.494733 47538 layer_factory.hpp:77] Creating layer conv5-Scale3
I0630 14:51:25.494894 47538 net.cpp:141] Setting up conv5-Scale3
I0630 14:51:25.494904 47538 net.cpp:148] Top shape: 3 320 16 16 16 (3932160)
I0630 14:51:25.494907 47538 net.cpp:156] Memory required for data: 1514766336
I0630 14:51:25.494916 47538 layer_factory.hpp:77] Creating layer conv5-ReLU3
I0630 14:51:25.494928 47538 net.cpp:91] Creating Layer conv5-ReLU3
I0630 14:51:25.494933 47538 net.cpp:425] conv5-ReLU3 <- conv5-BatchNorm3
I0630 14:51:25.494940 47538 net.cpp:386] conv5-ReLU3 -> conv5-BatchNorm3 (in-place)
I0630 14:51:25.497694 47538 net.cpp:141] Setting up conv5-ReLU3
I0630 14:51:25.497710 47538 net.cpp:148] Top shape: 3 320 16 16 16 (3932160)
I0630 14:51:25.497715 47538 net.cpp:156] Memory required for data: 1530494976
I0630 14:51:25.497720 47538 layer_factory.hpp:77] Creating layer conv5-Convolution4
I0630 14:51:25.497737 47538 net.cpp:91] Creating Layer conv5-Convolution4
I0630 14:51:25.497743 47538 net.cpp:425] conv5-Convolution4 <- conv5-BatchNorm3
I0630 14:51:25.497756 47538 net.cpp:399] conv5-Convolution4 -> conv5-Convolution4
I0630 14:51:25.504222 47538 net.cpp:141] Setting up conv5-Convolution4
I0630 14:51:25.504243 47538 net.cpp:148] Top shape: 3 32 16 16 16 (393216)
I0630 14:51:25.504248 47538 net.cpp:156] Memory required for data: 1532067840
I0630 14:51:25.504258 47538 layer_factory.hpp:77] Creating layer conv5-Dropout3
I0630 14:51:25.504267 47538 net.cpp:91] Creating Layer conv5-Dropout3
I0630 14:51:25.504274 47538 net.cpp:425] conv5-Dropout3 <- conv5-Convolution4
I0630 14:51:25.504282 47538 net.cpp:399] conv5-Dropout3 -> conv5-Dropout3
I0630 14:51:25.504344 47538 net.cpp:141] Setting up conv5-Dropout3
I0630 14:51:25.504353 47538 net.cpp:148] Top shape: 3 32 16 16 16 (393216)
I0630 14:51:25.504357 47538 net.cpp:156] Memory required for data: 1533640704
I0630 14:51:25.504362 47538 layer_factory.hpp:77] Creating layer conv5-Concat3
I0630 14:51:25.504370 47538 net.cpp:91] Creating Layer conv5-Concat3
I0630 14:51:25.504375 47538 net.cpp:425] conv5-Concat3 <- conv5-Concat2_conv5-Concat2_0_split_1
I0630 14:51:25.504382 47538 net.cpp:425] conv5-Concat3 <- conv5-Dropout3
I0630 14:51:25.504392 47538 net.cpp:399] conv5-Concat3 -> conv5
I0630 14:51:25.504426 47538 net.cpp:141] Setting up conv5-Concat3
I0630 14:51:25.504433 47538 net.cpp:148] Top shape: 3 352 16 16 16 (4325376)
I0630 14:51:25.504443 47538 net.cpp:156] Memory required for data: 1550942208
I0630 14:51:25.504464 47538 layer_factory.hpp:77] Creating layer conv5_bn
I0630 14:51:25.504473 47538 net.cpp:91] Creating Layer conv5_bn
I0630 14:51:25.504478 47538 net.cpp:425] conv5_bn <- conv5
I0630 14:51:25.504489 47538 net.cpp:399] conv5_bn -> conv5_bn
I0630 14:51:25.504774 47538 net.cpp:141] Setting up conv5_bn
I0630 14:51:25.504783 47538 net.cpp:148] Top shape: 3 352 16 16 16 (4325376)
I0630 14:51:25.504787 47538 net.cpp:156] Memory required for data: 1568243712
I0630 14:51:25.504798 47538 layer_factory.hpp:77] Creating layer scale_conv5
I0630 14:51:25.504806 47538 net.cpp:91] Creating Layer scale_conv5
I0630 14:51:25.504812 47538 net.cpp:425] scale_conv5 <- conv5_bn
I0630 14:51:25.504817 47538 net.cpp:386] scale_conv5 -> conv5_bn (in-place)
I0630 14:51:25.504879 47538 layer_factory.hpp:77] Creating layer scale_conv5
I0630 14:51:25.505048 47538 net.cpp:141] Setting up scale_conv5
I0630 14:51:25.505056 47538 net.cpp:148] Top shape: 3 352 16 16 16 (4325376)
I0630 14:51:25.505061 47538 net.cpp:156] Memory required for data: 1585545216
I0630 14:51:25.505070 47538 layer_factory.hpp:77] Creating layer relu5a
I0630 14:51:25.505076 47538 net.cpp:91] Creating Layer relu5a
I0630 14:51:25.505081 47538 net.cpp:425] relu5a <- conv5_bn
I0630 14:51:25.505090 47538 net.cpp:386] relu5a -> conv5_bn (in-place)
I0630 14:51:25.505331 47538 net.cpp:141] Setting up relu5a
I0630 14:51:25.505342 47538 net.cpp:148] Top shape: 3 352 16 16 16 (4325376)
I0630 14:51:25.505347 47538 net.cpp:156] Memory required for data: 1602846720
I0630 14:51:25.505352 47538 layer_factory.hpp:77] Creating layer conv5_2-Convolution1
I0630 14:51:25.505383 47538 net.cpp:91] Creating Layer conv5_2-Convolution1
I0630 14:51:25.505388 47538 net.cpp:425] conv5_2-Convolution1 <- conv5_bn
I0630 14:51:25.505398 47538 net.cpp:399] conv5_2-Convolution1 -> conv5_2-Convolution1
I0630 14:51:25.532616 47538 net.cpp:141] Setting up conv5_2-Convolution1
I0630 14:51:25.532637 47538 net.cpp:148] Top shape: 3 256 16 16 16 (3145728)
I0630 14:51:25.532642 47538 net.cpp:156] Memory required for data: 1615429632
I0630 14:51:25.532654 47538 layer_factory.hpp:77] Creating layer conv5_2-Convolution1_conv5_2-Convolution1_0_split
I0630 14:51:25.532663 47538 net.cpp:91] Creating Layer conv5_2-Convolution1_conv5_2-Convolution1_0_split
I0630 14:51:25.532670 47538 net.cpp:425] conv5_2-Convolution1_conv5_2-Convolution1_0_split <- conv5_2-Convolution1
I0630 14:51:25.532681 47538 net.cpp:399] conv5_2-Convolution1_conv5_2-Convolution1_0_split -> conv5_2-Convolution1_conv5_2-Convolution1_0_split_0
I0630 14:51:25.532693 47538 net.cpp:399] conv5_2-Convolution1_conv5_2-Convolution1_0_split -> conv5_2-Convolution1_conv5_2-Convolution1_0_split_1
I0630 14:51:25.532761 47538 net.cpp:141] Setting up conv5_2-Convolution1_conv5_2-Convolution1_0_split
I0630 14:51:25.532771 47538 net.cpp:148] Top shape: 3 256 16 16 16 (3145728)
I0630 14:51:25.532778 47538 net.cpp:148] Top shape: 3 256 16 16 16 (3145728)
I0630 14:51:25.532781 47538 net.cpp:156] Memory required for data: 1640595456
I0630 14:51:25.532786 47538 layer_factory.hpp:77] Creating layer conv5_2-BatchNorm1
I0630 14:51:25.532799 47538 net.cpp:91] Creating Layer conv5_2-BatchNorm1
I0630 14:51:25.532804 47538 net.cpp:425] conv5_2-BatchNorm1 <- conv5_2-Convolution1_conv5_2-Convolution1_0_split_0
I0630 14:51:25.532812 47538 net.cpp:399] conv5_2-BatchNorm1 -> conv5_2-BatchNorm1
I0630 14:51:25.533088 47538 net.cpp:141] Setting up conv5_2-BatchNorm1
I0630 14:51:25.533098 47538 net.cpp:148] Top shape: 3 256 16 16 16 (3145728)
I0630 14:51:25.533103 47538 net.cpp:156] Memory required for data: 1653178368
I0630 14:51:25.533113 47538 layer_factory.hpp:77] Creating layer conv5_2-Scale1
I0630 14:51:25.533120 47538 net.cpp:91] Creating Layer conv5_2-Scale1
I0630 14:51:25.533126 47538 net.cpp:425] conv5_2-Scale1 <- conv5_2-BatchNorm1
I0630 14:51:25.533136 47538 net.cpp:386] conv5_2-Scale1 -> conv5_2-BatchNorm1 (in-place)
I0630 14:51:25.533192 47538 layer_factory.hpp:77] Creating layer conv5_2-Scale1
I0630 14:51:25.533354 47538 net.cpp:141] Setting up conv5_2-Scale1
I0630 14:51:25.533376 47538 net.cpp:148] Top shape: 3 256 16 16 16 (3145728)
I0630 14:51:25.533381 47538 net.cpp:156] Memory required for data: 1665761280
I0630 14:51:25.533393 47538 layer_factory.hpp:77] Creating layer conv5_2-ReLU1
I0630 14:51:25.533403 47538 net.cpp:91] Creating Layer conv5_2-ReLU1
I0630 14:51:25.533409 47538 net.cpp:425] conv5_2-ReLU1 <- conv5_2-BatchNorm1
I0630 14:51:25.533416 47538 net.cpp:386] conv5_2-ReLU1 -> conv5_2-BatchNorm1 (in-place)
I0630 14:51:25.533677 47538 net.cpp:141] Setting up conv5_2-ReLU1
I0630 14:51:25.533689 47538 net.cpp:148] Top shape: 3 256 16 16 16 (3145728)
I0630 14:51:25.533694 47538 net.cpp:156] Memory required for data: 1678344192
I0630 14:51:25.533699 47538 layer_factory.hpp:77] Creating layer conv5_2-Convolution2
I0630 14:51:25.533715 47538 net.cpp:91] Creating Layer conv5_2-Convolution2
I0630 14:51:25.533720 47538 net.cpp:425] conv5_2-Convolution2 <- conv5_2-BatchNorm1
I0630 14:51:25.533733 47538 net.cpp:399] conv5_2-Convolution2 -> conv5_2-Convolution2
I0630 14:51:25.537261 47538 net.cpp:141] Setting up conv5_2-Convolution2
I0630 14:51:25.537278 47538 net.cpp:148] Top shape: 3 32 16 16 16 (393216)
I0630 14:51:25.537283 47538 net.cpp:156] Memory required for data: 1679917056
I0630 14:51:25.537293 47538 layer_factory.hpp:77] Creating layer conv5_2-Dropout1
I0630 14:51:25.537302 47538 net.cpp:91] Creating Layer conv5_2-Dropout1
I0630 14:51:25.537312 47538 net.cpp:425] conv5_2-Dropout1 <- conv5_2-Convolution2
I0630 14:51:25.537320 47538 net.cpp:399] conv5_2-Dropout1 -> conv5_2-Dropout1
I0630 14:51:25.537381 47538 net.cpp:141] Setting up conv5_2-Dropout1
I0630 14:51:25.537390 47538 net.cpp:148] Top shape: 3 32 16 16 16 (393216)
I0630 14:51:25.537395 47538 net.cpp:156] Memory required for data: 1681489920
I0630 14:51:25.537400 47538 layer_factory.hpp:77] Creating layer conv5_2-Concat1
I0630 14:51:25.537412 47538 net.cpp:91] Creating Layer conv5_2-Concat1
I0630 14:51:25.537417 47538 net.cpp:425] conv5_2-Concat1 <- conv5_2-Convolution1_conv5_2-Convolution1_0_split_1
I0630 14:51:25.537423 47538 net.cpp:425] conv5_2-Concat1 <- conv5_2-Dropout1
I0630 14:51:25.537436 47538 net.cpp:399] conv5_2-Concat1 -> conv5_2-Concat1
I0630 14:51:25.537467 47538 net.cpp:141] Setting up conv5_2-Concat1
I0630 14:51:25.537478 47538 net.cpp:148] Top shape: 3 288 16 16 16 (3538944)
I0630 14:51:25.537482 47538 net.cpp:156] Memory required for data: 1695645696
I0630 14:51:25.537487 47538 layer_factory.hpp:77] Creating layer conv5_2-Concat1_conv5_2-Concat1_0_split
I0630 14:51:25.537498 47538 net.cpp:91] Creating Layer conv5_2-Concat1_conv5_2-Concat1_0_split
I0630 14:51:25.537503 47538 net.cpp:425] conv5_2-Concat1_conv5_2-Concat1_0_split <- conv5_2-Concat1
I0630 14:51:25.537510 47538 net.cpp:399] conv5_2-Concat1_conv5_2-Concat1_0_split -> conv5_2-Concat1_conv5_2-Concat1_0_split_0
I0630 14:51:25.537523 47538 net.cpp:399] conv5_2-Concat1_conv5_2-Concat1_0_split -> conv5_2-Concat1_conv5_2-Concat1_0_split_1
I0630 14:51:25.537570 47538 net.cpp:141] Setting up conv5_2-Concat1_conv5_2-Concat1_0_split
I0630 14:51:25.537578 47538 net.cpp:148] Top shape: 3 288 16 16 16 (3538944)
I0630 14:51:25.537585 47538 net.cpp:148] Top shape: 3 288 16 16 16 (3538944)
I0630 14:51:25.537588 47538 net.cpp:156] Memory required for data: 1723957248
I0630 14:51:25.537593 47538 layer_factory.hpp:77] Creating layer conv5_2-BatchNorm2
I0630 14:51:25.537606 47538 net.cpp:91] Creating Layer conv5_2-BatchNorm2
I0630 14:51:25.537611 47538 net.cpp:425] conv5_2-BatchNorm2 <- conv5_2-Concat1_conv5_2-Concat1_0_split_0
I0630 14:51:25.537621 47538 net.cpp:399] conv5_2-BatchNorm2 -> conv5_2-BatchNorm2
I0630 14:51:25.537900 47538 net.cpp:141] Setting up conv5_2-BatchNorm2
I0630 14:51:25.537909 47538 net.cpp:148] Top shape: 3 288 16 16 16 (3538944)
I0630 14:51:25.537914 47538 net.cpp:156] Memory required for data: 1738113024
I0630 14:51:25.537923 47538 layer_factory.hpp:77] Creating layer conv5_2-Scale2
I0630 14:51:25.537935 47538 net.cpp:91] Creating Layer conv5_2-Scale2
I0630 14:51:25.537945 47538 net.cpp:425] conv5_2-Scale2 <- conv5_2-BatchNorm2
I0630 14:51:25.537967 47538 net.cpp:386] conv5_2-Scale2 -> conv5_2-BatchNorm2 (in-place)
I0630 14:51:25.538033 47538 layer_factory.hpp:77] Creating layer conv5_2-Scale2
I0630 14:51:25.538204 47538 net.cpp:141] Setting up conv5_2-Scale2
I0630 14:51:25.538213 47538 net.cpp:148] Top shape: 3 288 16 16 16 (3538944)
I0630 14:51:25.538218 47538 net.cpp:156] Memory required for data: 1752268800
I0630 14:51:25.538226 47538 layer_factory.hpp:77] Creating layer conv5_2-ReLU2
I0630 14:51:25.538233 47538 net.cpp:91] Creating Layer conv5_2-ReLU2
I0630 14:51:25.538239 47538 net.cpp:425] conv5_2-ReLU2 <- conv5_2-BatchNorm2
I0630 14:51:25.538249 47538 net.cpp:386] conv5_2-ReLU2 -> conv5_2-BatchNorm2 (in-place)
I0630 14:51:25.538486 47538 net.cpp:141] Setting up conv5_2-ReLU2
I0630 14:51:25.538497 47538 net.cpp:148] Top shape: 3 288 16 16 16 (3538944)
I0630 14:51:25.538501 47538 net.cpp:156] Memory required for data: 1766424576
I0630 14:51:25.538506 47538 layer_factory.hpp:77] Creating layer conv5_2-Convolution3
I0630 14:51:25.538522 47538 net.cpp:91] Creating Layer conv5_2-Convolution3
I0630 14:51:25.538528 47538 net.cpp:425] conv5_2-Convolution3 <- conv5_2-BatchNorm2
I0630 14:51:25.538540 47538 net.cpp:399] conv5_2-Convolution3 -> conv5_2-Convolution3
I0630 14:51:25.546516 47538 net.cpp:141] Setting up conv5_2-Convolution3
I0630 14:51:25.546533 47538 net.cpp:148] Top shape: 3 32 16 16 16 (393216)
I0630 14:51:25.546540 47538 net.cpp:156] Memory required for data: 1767997440
I0630 14:51:25.546548 47538 layer_factory.hpp:77] Creating layer conv5_2-Dropout2
I0630 14:51:25.546561 47538 net.cpp:91] Creating Layer conv5_2-Dropout2
I0630 14:51:25.546566 47538 net.cpp:425] conv5_2-Dropout2 <- conv5_2-Convolution3
I0630 14:51:25.546576 47538 net.cpp:399] conv5_2-Dropout2 -> conv5_2-Dropout2
I0630 14:51:25.546639 47538 net.cpp:141] Setting up conv5_2-Dropout2
I0630 14:51:25.546648 47538 net.cpp:148] Top shape: 3 32 16 16 16 (393216)
I0630 14:51:25.546653 47538 net.cpp:156] Memory required for data: 1769570304
I0630 14:51:25.546661 47538 layer_factory.hpp:77] Creating layer conv5_2-Concat2
I0630 14:51:25.546669 47538 net.cpp:91] Creating Layer conv5_2-Concat2
I0630 14:51:25.546674 47538 net.cpp:425] conv5_2-Concat2 <- conv5_2-Concat1_conv5_2-Concat1_0_split_1
I0630 14:51:25.546680 47538 net.cpp:425] conv5_2-Concat2 <- conv5_2-Dropout2
I0630 14:51:25.546692 47538 net.cpp:399] conv5_2-Concat2 -> conv5_2-Concat2
I0630 14:51:25.546727 47538 net.cpp:141] Setting up conv5_2-Concat2
I0630 14:51:25.546736 47538 net.cpp:148] Top shape: 3 320 16 16 16 (3932160)
I0630 14:51:25.546739 47538 net.cpp:156] Memory required for data: 1785298944
I0630 14:51:25.546744 47538 layer_factory.hpp:77] Creating layer conv5_2-Concat2_conv5_2-Concat2_0_split
I0630 14:51:25.546752 47538 net.cpp:91] Creating Layer conv5_2-Concat2_conv5_2-Concat2_0_split
I0630 14:51:25.546757 47538 net.cpp:425] conv5_2-Concat2_conv5_2-Concat2_0_split <- conv5_2-Concat2
I0630 14:51:25.546767 47538 net.cpp:399] conv5_2-Concat2_conv5_2-Concat2_0_split -> conv5_2-Concat2_conv5_2-Concat2_0_split_0
I0630 14:51:25.546777 47538 net.cpp:399] conv5_2-Concat2_conv5_2-Concat2_0_split -> conv5_2-Concat2_conv5_2-Concat2_0_split_1
I0630 14:51:25.546826 47538 net.cpp:141] Setting up conv5_2-Concat2_conv5_2-Concat2_0_split
I0630 14:51:25.546833 47538 net.cpp:148] Top shape: 3 320 16 16 16 (3932160)
I0630 14:51:25.546839 47538 net.cpp:148] Top shape: 3 320 16 16 16 (3932160)
I0630 14:51:25.546844 47538 net.cpp:156] Memory required for data: 1816756224
I0630 14:51:25.546849 47538 layer_factory.hpp:77] Creating layer conv5_2-BatchNorm3
I0630 14:51:25.546864 47538 net.cpp:91] Creating Layer conv5_2-BatchNorm3
I0630 14:51:25.546869 47538 net.cpp:425] conv5_2-BatchNorm3 <- conv5_2-Concat2_conv5_2-Concat2_0_split_0
I0630 14:51:25.546876 47538 net.cpp:399] conv5_2-BatchNorm3 -> conv5_2-BatchNorm3
I0630 14:51:25.547171 47538 net.cpp:141] Setting up conv5_2-BatchNorm3
I0630 14:51:25.547181 47538 net.cpp:148] Top shape: 3 320 16 16 16 (3932160)
I0630 14:51:25.547189 47538 net.cpp:156] Memory required for data: 1832484864
I0630 14:51:25.547214 47538 layer_factory.hpp:77] Creating layer conv5_2-Scale3
I0630 14:51:25.547224 47538 net.cpp:91] Creating Layer conv5_2-Scale3
I0630 14:51:25.547230 47538 net.cpp:425] conv5_2-Scale3 <- conv5_2-BatchNorm3
I0630 14:51:25.547238 47538 net.cpp:386] conv5_2-Scale3 -> conv5_2-BatchNorm3 (in-place)
I0630 14:51:25.547304 47538 layer_factory.hpp:77] Creating layer conv5_2-Scale3
I0630 14:51:25.547475 47538 net.cpp:141] Setting up conv5_2-Scale3
I0630 14:51:25.547484 47538 net.cpp:148] Top shape: 3 320 16 16 16 (3932160)
I0630 14:51:25.547488 47538 net.cpp:156] Memory required for data: 1848213504
I0630 14:51:25.547497 47538 layer_factory.hpp:77] Creating layer conv5_2-ReLU3
I0630 14:51:25.547504 47538 net.cpp:91] Creating Layer conv5_2-ReLU3
I0630 14:51:25.547509 47538 net.cpp:425] conv5_2-ReLU3 <- conv5_2-BatchNorm3
I0630 14:51:25.547518 47538 net.cpp:386] conv5_2-ReLU3 -> conv5_2-BatchNorm3 (in-place)
I0630 14:51:25.547760 47538 net.cpp:141] Setting up conv5_2-ReLU3
I0630 14:51:25.547771 47538 net.cpp:148] Top shape: 3 320 16 16 16 (3932160)
I0630 14:51:25.547776 47538 net.cpp:156] Memory required for data: 1863942144
I0630 14:51:25.547780 47538 layer_factory.hpp:77] Creating layer conv5_2-Convolution4
I0630 14:51:25.547796 47538 net.cpp:91] Creating Layer conv5_2-Convolution4
I0630 14:51:25.547802 47538 net.cpp:425] conv5_2-Convolution4 <- conv5_2-BatchNorm3
I0630 14:51:25.547813 47538 net.cpp:399] conv5_2-Convolution4 -> conv5_2-Convolution4
I0630 14:51:25.554379 47538 net.cpp:141] Setting up conv5_2-Convolution4
I0630 14:51:25.554397 47538 net.cpp:148] Top shape: 3 32 16 16 16 (393216)
I0630 14:51:25.554402 47538 net.cpp:156] Memory required for data: 1865515008
I0630 14:51:25.554411 47538 layer_factory.hpp:77] Creating layer conv5_2-Dropout3
I0630 14:51:25.554425 47538 net.cpp:91] Creating Layer conv5_2-Dropout3
I0630 14:51:25.554431 47538 net.cpp:425] conv5_2-Dropout3 <- conv5_2-Convolution4
I0630 14:51:25.554440 47538 net.cpp:399] conv5_2-Dropout3 -> conv5_2-Dropout3
I0630 14:51:25.554503 47538 net.cpp:141] Setting up conv5_2-Dropout3
I0630 14:51:25.554512 47538 net.cpp:148] Top shape: 3 32 16 16 16 (393216)
I0630 14:51:25.554517 47538 net.cpp:156] Memory required for data: 1867087872
I0630 14:51:25.554524 47538 layer_factory.hpp:77] Creating layer conv5_2-Concat3
I0630 14:51:25.554533 47538 net.cpp:91] Creating Layer conv5_2-Concat3
I0630 14:51:25.554538 47538 net.cpp:425] conv5_2-Concat3 <- conv5_2-Concat2_conv5_2-Concat2_0_split_1
I0630 14:51:25.554545 47538 net.cpp:425] conv5_2-Concat3 <- conv5_2-Dropout3
I0630 14:51:25.554555 47538 net.cpp:399] conv5_2-Concat3 -> conv5_2
I0630 14:51:25.554590 47538 net.cpp:141] Setting up conv5_2-Concat3
I0630 14:51:25.554599 47538 net.cpp:148] Top shape: 3 352 16 16 16 (4325376)
I0630 14:51:25.554603 47538 net.cpp:156] Memory required for data: 1884389376
I0630 14:51:25.554607 47538 layer_factory.hpp:77] Creating layer conv5_2_bn
I0630 14:51:25.554615 47538 net.cpp:91] Creating Layer conv5_2_bn
I0630 14:51:25.554621 47538 net.cpp:425] conv5_2_bn <- conv5_2
I0630 14:51:25.554632 47538 net.cpp:399] conv5_2_bn -> conv5_2_bn
I0630 14:51:25.554929 47538 net.cpp:141] Setting up conv5_2_bn
I0630 14:51:25.554937 47538 net.cpp:148] Top shape: 3 352 16 16 16 (4325376)
I0630 14:51:25.554942 47538 net.cpp:156] Memory required for data: 1901690880
I0630 14:51:25.554952 47538 layer_factory.hpp:77] Creating layer scale_conv5_2
I0630 14:51:25.554960 47538 net.cpp:91] Creating Layer scale_conv5_2
I0630 14:51:25.554965 47538 net.cpp:425] scale_conv5_2 <- conv5_2_bn
I0630 14:51:25.554980 47538 net.cpp:386] scale_conv5_2 -> conv5_2_bn (in-place)
I0630 14:51:25.555045 47538 layer_factory.hpp:77] Creating layer scale_conv5_2
I0630 14:51:25.555215 47538 net.cpp:141] Setting up scale_conv5_2
I0630 14:51:25.555224 47538 net.cpp:148] Top shape: 3 352 16 16 16 (4325376)
I0630 14:51:25.555229 47538 net.cpp:156] Memory required for data: 1918992384
I0630 14:51:25.555238 47538 layer_factory.hpp:77] Creating layer relu5a_2
I0630 14:51:25.555253 47538 net.cpp:91] Creating Layer relu5a_2
I0630 14:51:25.555270 47538 net.cpp:425] relu5a_2 <- conv5_2_bn
I0630 14:51:25.555280 47538 net.cpp:386] relu5a_2 -> conv5_2_bn (in-place)
I0630 14:51:25.556409 47538 net.cpp:141] Setting up relu5a_2
I0630 14:51:25.556427 47538 net.cpp:148] Top shape: 3 352 16 16 16 (4325376)
I0630 14:51:25.556432 47538 net.cpp:156] Memory required for data: 1936293888
I0630 14:51:25.556437 47538 layer_factory.hpp:77] Creating layer deconv6
I0630 14:51:25.556452 47538 net.cpp:91] Creating Layer deconv6
I0630 14:51:25.556458 47538 net.cpp:425] deconv6 <- conv5_2_bn
I0630 14:51:25.556466 47538 net.cpp:399] deconv6 -> deconv6
I0630 14:51:25.570029 47538 net.cpp:141] Setting up deconv6
I0630 14:51:25.570046 47538 net.cpp:148] Top shape: 3 64 32 32 32 (6291456)
I0630 14:51:25.570051 47538 net.cpp:156] Memory required for data: 1961459712
I0630 14:51:25.570061 47538 layer_factory.hpp:77] Creating layer concat32
I0630 14:51:25.570073 47538 net.cpp:91] Creating Layer concat32
I0630 14:51:25.570080 47538 net.cpp:425] concat32 <- conv1c_conv1c_0_split_1
I0630 14:51:25.570087 47538 net.cpp:425] concat32 <- deconv6
I0630 14:51:25.570094 47538 net.cpp:399] concat32 -> concat32
I0630 14:51:25.570137 47538 net.cpp:141] Setting up concat32
I0630 14:51:25.570144 47538 net.cpp:148] Top shape: 3 128 32 32 32 (12582912)
I0630 14:51:25.570150 47538 net.cpp:156] Memory required for data: 2011791360
I0630 14:51:25.570154 47538 layer_factory.hpp:77] Creating layer conv6-Convolution1
I0630 14:51:25.570168 47538 net.cpp:91] Creating Layer conv6-Convolution1
I0630 14:51:25.570173 47538 net.cpp:425] conv6-Convolution1 <- concat32
I0630 14:51:25.570186 47538 net.cpp:399] conv6-Convolution1 -> conv6-Convolution1
I0630 14:51:25.585556 47538 net.cpp:141] Setting up conv6-Convolution1
I0630 14:51:25.585578 47538 net.cpp:148] Top shape: 3 128 32 32 32 (12582912)
I0630 14:51:25.585583 47538 net.cpp:156] Memory required for data: 2062123008
I0630 14:51:25.585597 47538 layer_factory.hpp:77] Creating layer conv6-Convolution1_conv6-Convolution1_0_split
I0630 14:51:25.585606 47538 net.cpp:91] Creating Layer conv6-Convolution1_conv6-Convolution1_0_split
I0630 14:51:25.585613 47538 net.cpp:425] conv6-Convolution1_conv6-Convolution1_0_split <- conv6-Convolution1
I0630 14:51:25.585620 47538 net.cpp:399] conv6-Convolution1_conv6-Convolution1_0_split -> conv6-Convolution1_conv6-Convolution1_0_split_0
I0630 14:51:25.585634 47538 net.cpp:399] conv6-Convolution1_conv6-Convolution1_0_split -> conv6-Convolution1_conv6-Convolution1_0_split_1
I0630 14:51:25.585701 47538 net.cpp:141] Setting up conv6-Convolution1_conv6-Convolution1_0_split
I0630 14:51:25.585709 47538 net.cpp:148] Top shape: 3 128 32 32 32 (12582912)
I0630 14:51:25.585716 47538 net.cpp:148] Top shape: 3 128 32 32 32 (12582912)
I0630 14:51:25.585721 47538 net.cpp:156] Memory required for data: 2162786304
I0630 14:51:25.585726 47538 layer_factory.hpp:77] Creating layer conv6-BatchNorm1
I0630 14:51:25.585736 47538 net.cpp:91] Creating Layer conv6-BatchNorm1
I0630 14:51:25.585741 47538 net.cpp:425] conv6-BatchNorm1 <- conv6-Convolution1_conv6-Convolution1_0_split_0
I0630 14:51:25.585752 47538 net.cpp:399] conv6-BatchNorm1 -> conv6-BatchNorm1
I0630 14:51:25.586069 47538 net.cpp:141] Setting up conv6-BatchNorm1
I0630 14:51:25.586079 47538 net.cpp:148] Top shape: 3 128 32 32 32 (12582912)
I0630 14:51:25.586083 47538 net.cpp:156] Memory required for data: 2213117952
I0630 14:51:25.586094 47538 layer_factory.hpp:77] Creating layer conv6-Scale1
I0630 14:51:25.586102 47538 net.cpp:91] Creating Layer conv6-Scale1
I0630 14:51:25.586107 47538 net.cpp:425] conv6-Scale1 <- conv6-BatchNorm1
I0630 14:51:25.586114 47538 net.cpp:386] conv6-Scale1 -> conv6-BatchNorm1 (in-place)
I0630 14:51:25.586174 47538 layer_factory.hpp:77] Creating layer conv6-Scale1
I0630 14:51:25.589768 47538 net.cpp:141] Setting up conv6-Scale1
I0630 14:51:25.589784 47538 net.cpp:148] Top shape: 3 128 32 32 32 (12582912)
I0630 14:51:25.589789 47538 net.cpp:156] Memory required for data: 2263449600
I0630 14:51:25.589804 47538 layer_factory.hpp:77] Creating layer conv6-ReLU1
I0630 14:51:25.589826 47538 net.cpp:91] Creating Layer conv6-ReLU1
I0630 14:51:25.589833 47538 net.cpp:425] conv6-ReLU1 <- conv6-BatchNorm1
I0630 14:51:25.589843 47538 net.cpp:386] conv6-ReLU1 -> conv6-BatchNorm1 (in-place)
I0630 14:51:25.590889 47538 net.cpp:141] Setting up conv6-ReLU1
I0630 14:51:25.590905 47538 net.cpp:148] Top shape: 3 128 32 32 32 (12582912)
I0630 14:51:25.590910 47538 net.cpp:156] Memory required for data: 2313781248
I0630 14:51:25.590919 47538 layer_factory.hpp:77] Creating layer conv6-Convolution2
I0630 14:51:25.590934 47538 net.cpp:91] Creating Layer conv6-Convolution2
I0630 14:51:25.590940 47538 net.cpp:425] conv6-Convolution2 <- conv6-BatchNorm1
I0630 14:51:25.590953 47538 net.cpp:399] conv6-Convolution2 -> conv6-Convolution2
I0630 14:51:25.596271 47538 net.cpp:141] Setting up conv6-Convolution2
I0630 14:51:25.596287 47538 net.cpp:148] Top shape: 3 16 32 32 32 (1572864)
I0630 14:51:25.596292 47538 net.cpp:156] Memory required for data: 2320072704
I0630 14:51:25.596302 47538 layer_factory.hpp:77] Creating layer conv6-Dropout1
I0630 14:51:25.596312 47538 net.cpp:91] Creating Layer conv6-Dropout1
I0630 14:51:25.596318 47538 net.cpp:425] conv6-Dropout1 <- conv6-Convolution2
I0630 14:51:25.596328 47538 net.cpp:399] conv6-Dropout1 -> conv6-Dropout1
I0630 14:51:25.596396 47538 net.cpp:141] Setting up conv6-Dropout1
I0630 14:51:25.596405 47538 net.cpp:148] Top shape: 3 16 32 32 32 (1572864)
I0630 14:51:25.596410 47538 net.cpp:156] Memory required for data: 2326364160
I0630 14:51:25.596415 47538 layer_factory.hpp:77] Creating layer conv6-Concat1
I0630 14:51:25.596424 47538 net.cpp:91] Creating Layer conv6-Concat1
I0630 14:51:25.596429 47538 net.cpp:425] conv6-Concat1 <- conv6-Convolution1_conv6-Convolution1_0_split_1
I0630 14:51:25.596436 47538 net.cpp:425] conv6-Concat1 <- conv6-Dropout1
I0630 14:51:25.596449 47538 net.cpp:399] conv6-Concat1 -> conv6-Concat1
I0630 14:51:25.596482 47538 net.cpp:141] Setting up conv6-Concat1
I0630 14:51:25.596489 47538 net.cpp:148] Top shape: 3 144 32 32 32 (14155776)
I0630 14:51:25.596494 47538 net.cpp:156] Memory required for data: 2382987264
I0630 14:51:25.596503 47538 layer_factory.hpp:77] Creating layer conv6-Concat1_conv6-Concat1_0_split
I0630 14:51:25.596513 47538 net.cpp:91] Creating Layer conv6-Concat1_conv6-Concat1_0_split
I0630 14:51:25.596518 47538 net.cpp:425] conv6-Concat1_conv6-Concat1_0_split <- conv6-Concat1
I0630 14:51:25.596525 47538 net.cpp:399] conv6-Concat1_conv6-Concat1_0_split -> conv6-Concat1_conv6-Concat1_0_split_0
I0630 14:51:25.596537 47538 net.cpp:399] conv6-Concat1_conv6-Concat1_0_split -> conv6-Concat1_conv6-Concat1_0_split_1
I0630 14:51:25.596586 47538 net.cpp:141] Setting up conv6-Concat1_conv6-Concat1_0_split
I0630 14:51:25.596594 47538 net.cpp:148] Top shape: 3 144 32 32 32 (14155776)
I0630 14:51:25.596601 47538 net.cpp:148] Top shape: 3 144 32 32 32 (14155776)
I0630 14:51:25.596606 47538 net.cpp:156] Memory required for data: 2496233472
I0630 14:51:25.596609 47538 layer_factory.hpp:77] Creating layer conv6-BatchNorm2
I0630 14:51:25.596621 47538 net.cpp:91] Creating Layer conv6-BatchNorm2
I0630 14:51:25.596627 47538 net.cpp:425] conv6-BatchNorm2 <- conv6-Concat1_conv6-Concat1_0_split_0
I0630 14:51:25.596637 47538 net.cpp:399] conv6-BatchNorm2 -> conv6-BatchNorm2
I0630 14:51:25.596941 47538 net.cpp:141] Setting up conv6-BatchNorm2
I0630 14:51:25.596951 47538 net.cpp:148] Top shape: 3 144 32 32 32 (14155776)
I0630 14:51:25.596956 47538 net.cpp:156] Memory required for data: 2552856576
I0630 14:51:25.596966 47538 layer_factory.hpp:77] Creating layer conv6-Scale2
I0630 14:51:25.596976 47538 net.cpp:91] Creating Layer conv6-Scale2
I0630 14:51:25.596982 47538 net.cpp:425] conv6-Scale2 <- conv6-BatchNorm2
I0630 14:51:25.596989 47538 net.cpp:386] conv6-Scale2 -> conv6-BatchNorm2 (in-place)
I0630 14:51:25.597045 47538 layer_factory.hpp:77] Creating layer conv6-Scale2
I0630 14:51:25.597252 47538 net.cpp:141] Setting up conv6-Scale2
I0630 14:51:25.597266 47538 net.cpp:148] Top shape: 3 144 32 32 32 (14155776)
I0630 14:51:25.597285 47538 net.cpp:156] Memory required for data: 2609479680
I0630 14:51:25.597295 47538 layer_factory.hpp:77] Creating layer conv6-ReLU2
I0630 14:51:25.597306 47538 net.cpp:91] Creating Layer conv6-ReLU2
I0630 14:51:25.597311 47538 net.cpp:425] conv6-ReLU2 <- conv6-BatchNorm2
I0630 14:51:25.597321 47538 net.cpp:386] conv6-ReLU2 -> conv6-BatchNorm2 (in-place)
I0630 14:51:25.597568 47538 net.cpp:141] Setting up conv6-ReLU2
I0630 14:51:25.597579 47538 net.cpp:148] Top shape: 3 144 32 32 32 (14155776)
I0630 14:51:25.597584 47538 net.cpp:156] Memory required for data: 2666102784
I0630 14:51:25.597590 47538 layer_factory.hpp:77] Creating layer conv6-Convolution3
I0630 14:51:25.597605 47538 net.cpp:91] Creating Layer conv6-Convolution3
I0630 14:51:25.597611 47538 net.cpp:425] conv6-Convolution3 <- conv6-BatchNorm2
I0630 14:51:25.597622 47538 net.cpp:399] conv6-Convolution3 -> conv6-Convolution3
I0630 14:51:25.600962 47538 net.cpp:141] Setting up conv6-Convolution3
I0630 14:51:25.600978 47538 net.cpp:148] Top shape: 3 16 32 32 32 (1572864)
I0630 14:51:25.600983 47538 net.cpp:156] Memory required for data: 2672394240
I0630 14:51:25.600992 47538 layer_factory.hpp:77] Creating layer conv6-Dropout2
I0630 14:51:25.601002 47538 net.cpp:91] Creating Layer conv6-Dropout2
I0630 14:51:25.601008 47538 net.cpp:425] conv6-Dropout2 <- conv6-Convolution3
I0630 14:51:25.601016 47538 net.cpp:399] conv6-Dropout2 -> conv6-Dropout2
I0630 14:51:25.601084 47538 net.cpp:141] Setting up conv6-Dropout2
I0630 14:51:25.601094 47538 net.cpp:148] Top shape: 3 16 32 32 32 (1572864)
I0630 14:51:25.601099 47538 net.cpp:156] Memory required for data: 2678685696
I0630 14:51:25.601104 47538 layer_factory.hpp:77] Creating layer conv6-Concat2
I0630 14:51:25.601114 47538 net.cpp:91] Creating Layer conv6-Concat2
I0630 14:51:25.601120 47538 net.cpp:425] conv6-Concat2 <- conv6-Concat1_conv6-Concat1_0_split_1
I0630 14:51:25.601126 47538 net.cpp:425] conv6-Concat2 <- conv6-Dropout2
I0630 14:51:25.601133 47538 net.cpp:399] conv6-Concat2 -> conv6-Concat2
I0630 14:51:25.601168 47538 net.cpp:141] Setting up conv6-Concat2
I0630 14:51:25.601177 47538 net.cpp:148] Top shape: 3 160 32 32 32 (15728640)
I0630 14:51:25.601181 47538 net.cpp:156] Memory required for data: 2741600256
I0630 14:51:25.601189 47538 layer_factory.hpp:77] Creating layer conv6-Concat2_conv6-Concat2_0_split
I0630 14:51:25.601197 47538 net.cpp:91] Creating Layer conv6-Concat2_conv6-Concat2_0_split
I0630 14:51:25.601203 47538 net.cpp:425] conv6-Concat2_conv6-Concat2_0_split <- conv6-Concat2
I0630 14:51:25.601212 47538 net.cpp:399] conv6-Concat2_conv6-Concat2_0_split -> conv6-Concat2_conv6-Concat2_0_split_0
I0630 14:51:25.601222 47538 net.cpp:399] conv6-Concat2_conv6-Concat2_0_split -> conv6-Concat2_conv6-Concat2_0_split_1
I0630 14:51:25.601275 47538 net.cpp:141] Setting up conv6-Concat2_conv6-Concat2_0_split
I0630 14:51:25.601284 47538 net.cpp:148] Top shape: 3 160 32 32 32 (15728640)
I0630 14:51:25.601289 47538 net.cpp:148] Top shape: 3 160 32 32 32 (15728640)
I0630 14:51:25.601294 47538 net.cpp:156] Memory required for data: 2867429376
I0630 14:51:25.601298 47538 layer_factory.hpp:77] Creating layer conv6-BatchNorm3
I0630 14:51:25.601310 47538 net.cpp:91] Creating Layer conv6-BatchNorm3
I0630 14:51:25.601315 47538 net.cpp:425] conv6-BatchNorm3 <- conv6-Concat2_conv6-Concat2_0_split_0
I0630 14:51:25.601322 47538 net.cpp:399] conv6-BatchNorm3 -> conv6-BatchNorm3
I0630 14:51:25.601629 47538 net.cpp:141] Setting up conv6-BatchNorm3
I0630 14:51:25.601639 47538 net.cpp:148] Top shape: 3 160 32 32 32 (15728640)
I0630 14:51:25.601642 47538 net.cpp:156] Memory required for data: 2930343936
I0630 14:51:25.601652 47538 layer_factory.hpp:77] Creating layer conv6-Scale3
I0630 14:51:25.601665 47538 net.cpp:91] Creating Layer conv6-Scale3
I0630 14:51:25.601671 47538 net.cpp:425] conv6-Scale3 <- conv6-BatchNorm3
I0630 14:51:25.601678 47538 net.cpp:386] conv6-Scale3 -> conv6-BatchNorm3 (in-place)
I0630 14:51:25.601737 47538 layer_factory.hpp:77] Creating layer conv6-Scale3
I0630 14:51:25.601953 47538 net.cpp:141] Setting up conv6-Scale3
I0630 14:51:25.601976 47538 net.cpp:148] Top shape: 3 160 32 32 32 (15728640)
I0630 14:51:25.601981 47538 net.cpp:156] Memory required for data: 2993258496
I0630 14:51:25.601991 47538 layer_factory.hpp:77] Creating layer conv6-ReLU3
I0630 14:51:25.602001 47538 net.cpp:91] Creating Layer conv6-ReLU3
I0630 14:51:25.602007 47538 net.cpp:425] conv6-ReLU3 <- conv6-BatchNorm3
I0630 14:51:25.602015 47538 net.cpp:386] conv6-ReLU3 -> conv6-BatchNorm3 (in-place)
I0630 14:51:25.602268 47538 net.cpp:141] Setting up conv6-ReLU3
I0630 14:51:25.602279 47538 net.cpp:148] Top shape: 3 160 32 32 32 (15728640)
I0630 14:51:25.602285 47538 net.cpp:156] Memory required for data: 3056173056
I0630 14:51:25.602290 47538 layer_factory.hpp:77] Creating layer conv6-Convolution4
I0630 14:51:25.602305 47538 net.cpp:91] Creating Layer conv6-Convolution4
I0630 14:51:25.602310 47538 net.cpp:425] conv6-Convolution4 <- conv6-BatchNorm3
I0630 14:51:25.602325 47538 net.cpp:399] conv6-Convolution4 -> conv6-Convolution4
I0630 14:51:25.609656 47538 net.cpp:141] Setting up conv6-Convolution4
I0630 14:51:25.609673 47538 net.cpp:148] Top shape: 3 16 32 32 32 (1572864)
I0630 14:51:25.609678 47538 net.cpp:156] Memory required for data: 3062464512
I0630 14:51:25.609688 47538 layer_factory.hpp:77] Creating layer conv6-Dropout3
I0630 14:51:25.609700 47538 net.cpp:91] Creating Layer conv6-Dropout3
I0630 14:51:25.609706 47538 net.cpp:425] conv6-Dropout3 <- conv6-Convolution4
I0630 14:51:25.609714 47538 net.cpp:399] conv6-Dropout3 -> conv6-Dropout3
I0630 14:51:25.609787 47538 net.cpp:141] Setting up conv6-Dropout3
I0630 14:51:25.609795 47538 net.cpp:148] Top shape: 3 16 32 32 32 (1572864)
I0630 14:51:25.609800 47538 net.cpp:156] Memory required for data: 3068755968
I0630 14:51:25.609807 47538 layer_factory.hpp:77] Creating layer conv6-Concat3
I0630 14:51:25.609817 47538 net.cpp:91] Creating Layer conv6-Concat3
I0630 14:51:25.609822 47538 net.cpp:425] conv6-Concat3 <- conv6-Concat2_conv6-Concat2_0_split_1
I0630 14:51:25.609828 47538 net.cpp:425] conv6-Concat3 <- conv6-Dropout3
I0630 14:51:25.609838 47538 net.cpp:399] conv6-Concat3 -> conv6
I0630 14:51:25.609872 47538 net.cpp:141] Setting up conv6-Concat3
I0630 14:51:25.609882 47538 net.cpp:148] Top shape: 3 176 32 32 32 (17301504)
I0630 14:51:25.609887 47538 net.cpp:156] Memory required for data: 3137961984
I0630 14:51:25.609891 47538 layer_factory.hpp:77] Creating layer conv6_bn
I0630 14:51:25.609900 47538 net.cpp:91] Creating Layer conv6_bn
I0630 14:51:25.609905 47538 net.cpp:425] conv6_bn <- conv6
I0630 14:51:25.609915 47538 net.cpp:399] conv6_bn -> conv6_bn
I0630 14:51:25.610231 47538 net.cpp:141] Setting up conv6_bn
I0630 14:51:25.610241 47538 net.cpp:148] Top shape: 3 176 32 32 32 (17301504)
I0630 14:51:25.610246 47538 net.cpp:156] Memory required for data: 3207168000
I0630 14:51:25.610256 47538 layer_factory.hpp:77] Creating layer scale_conv6_fine
I0630 14:51:25.610267 47538 net.cpp:91] Creating Layer scale_conv6_fine
I0630 14:51:25.610273 47538 net.cpp:425] scale_conv6_fine <- conv6_bn
I0630 14:51:25.610280 47538 net.cpp:386] scale_conv6_fine -> conv6_bn (in-place)
I0630 14:51:25.610337 47538 layer_factory.hpp:77] Creating layer scale_conv6_fine
I0630 14:51:25.612524 47538 net.cpp:141] Setting up scale_conv6_fine
I0630 14:51:25.612540 47538 net.cpp:148] Top shape: 3 176 32 32 32 (17301504)
I0630 14:51:25.612545 47538 net.cpp:156] Memory required for data: 3276374016
I0630 14:51:25.612555 47538 layer_factory.hpp:77] Creating layer relu6
I0630 14:51:25.612562 47538 net.cpp:91] Creating Layer relu6
I0630 14:51:25.612569 47538 net.cpp:425] relu6 <- conv6_bn
I0630 14:51:25.612579 47538 net.cpp:386] relu6 -> conv6_bn (in-place)
I0630 14:51:25.612843 47538 net.cpp:141] Setting up relu6
I0630 14:51:25.612854 47538 net.cpp:148] Top shape: 3 176 32 32 32 (17301504)
I0630 14:51:25.612860 47538 net.cpp:156] Memory required for data: 3345580032
I0630 14:51:25.612869 47538 layer_factory.hpp:77] Creating layer conv6_2-Convolution1
I0630 14:51:25.612887 47538 net.cpp:91] Creating Layer conv6_2-Convolution1
I0630 14:51:25.612906 47538 net.cpp:425] conv6_2-Convolution1 <- conv6_bn
I0630 14:51:25.612920 47538 net.cpp:399] conv6_2-Convolution1 -> conv6_2-Convolution1
I0630 14:51:25.626179 47538 net.cpp:141] Setting up conv6_2-Convolution1
I0630 14:51:25.626195 47538 net.cpp:148] Top shape: 3 64 32 32 32 (6291456)
I0630 14:51:25.626200 47538 net.cpp:156] Memory required for data: 3370745856
I0630 14:51:25.626211 47538 layer_factory.hpp:77] Creating layer conv6_2-Convolution1_conv6_2-Convolution1_0_split
I0630 14:51:25.626224 47538 net.cpp:91] Creating Layer conv6_2-Convolution1_conv6_2-Convolution1_0_split
I0630 14:51:25.626230 47538 net.cpp:425] conv6_2-Convolution1_conv6_2-Convolution1_0_split <- conv6_2-Convolution1
I0630 14:51:25.626237 47538 net.cpp:399] conv6_2-Convolution1_conv6_2-Convolution1_0_split -> conv6_2-Convolution1_conv6_2-Convolution1_0_split_0
I0630 14:51:25.626251 47538 net.cpp:399] conv6_2-Convolution1_conv6_2-Convolution1_0_split -> conv6_2-Convolution1_conv6_2-Convolution1_0_split_1
I0630 14:51:25.626317 47538 net.cpp:141] Setting up conv6_2-Convolution1_conv6_2-Convolution1_0_split
I0630 14:51:25.626327 47538 net.cpp:148] Top shape: 3 64 32 32 32 (6291456)
I0630 14:51:25.626332 47538 net.cpp:148] Top shape: 3 64 32 32 32 (6291456)
I0630 14:51:25.626338 47538 net.cpp:156] Memory required for data: 3421077504
I0630 14:51:25.626343 47538 layer_factory.hpp:77] Creating layer conv6_2-BatchNorm1
I0630 14:51:25.626353 47538 net.cpp:91] Creating Layer conv6_2-BatchNorm1
I0630 14:51:25.626358 47538 net.cpp:425] conv6_2-BatchNorm1 <- conv6_2-Convolution1_conv6_2-Convolution1_0_split_0
I0630 14:51:25.626369 47538 net.cpp:399] conv6_2-BatchNorm1 -> conv6_2-BatchNorm1
I0630 14:51:25.626694 47538 net.cpp:141] Setting up conv6_2-BatchNorm1
I0630 14:51:25.626703 47538 net.cpp:148] Top shape: 3 64 32 32 32 (6291456)
I0630 14:51:25.626708 47538 net.cpp:156] Memory required for data: 3446243328
I0630 14:51:25.626718 47538 layer_factory.hpp:77] Creating layer conv6_2-Scale1
I0630 14:51:25.626729 47538 net.cpp:91] Creating Layer conv6_2-Scale1
I0630 14:51:25.626734 47538 net.cpp:425] conv6_2-Scale1 <- conv6_2-BatchNorm1
I0630 14:51:25.626741 47538 net.cpp:386] conv6_2-Scale1 -> conv6_2-BatchNorm1 (in-place)
I0630 14:51:25.626802 47538 layer_factory.hpp:77] Creating layer conv6_2-Scale1
I0630 14:51:25.627023 47538 net.cpp:141] Setting up conv6_2-Scale1
I0630 14:51:25.627033 47538 net.cpp:148] Top shape: 3 64 32 32 32 (6291456)
I0630 14:51:25.627038 47538 net.cpp:156] Memory required for data: 3471409152
I0630 14:51:25.627046 47538 layer_factory.hpp:77] Creating layer conv6_2-ReLU1
I0630 14:51:25.627056 47538 net.cpp:91] Creating Layer conv6_2-ReLU1
I0630 14:51:25.627063 47538 net.cpp:425] conv6_2-ReLU1 <- conv6_2-BatchNorm1
I0630 14:51:25.627068 47538 net.cpp:386] conv6_2-ReLU1 -> conv6_2-BatchNorm1 (in-place)
I0630 14:51:25.627323 47538 net.cpp:141] Setting up conv6_2-ReLU1
I0630 14:51:25.627337 47538 net.cpp:148] Top shape: 3 64 32 32 32 (6291456)
I0630 14:51:25.627342 47538 net.cpp:156] Memory required for data: 3496574976
I0630 14:51:25.627347 47538 layer_factory.hpp:77] Creating layer conv6_2-Convolution2
I0630 14:51:25.627363 47538 net.cpp:91] Creating Layer conv6_2-Convolution2
I0630 14:51:25.627369 47538 net.cpp:425] conv6_2-Convolution2 <- conv6_2-BatchNorm1
I0630 14:51:25.627380 47538 net.cpp:399] conv6_2-Convolution2 -> conv6_2-Convolution2
I0630 14:51:25.640314 47538 net.cpp:141] Setting up conv6_2-Convolution2
I0630 14:51:25.640331 47538 net.cpp:148] Top shape: 3 16 32 32 32 (1572864)
I0630 14:51:25.640336 47538 net.cpp:156] Memory required for data: 3502866432
I0630 14:51:25.640349 47538 layer_factory.hpp:77] Creating layer conv6_2-Dropout1
I0630 14:51:25.640362 47538 net.cpp:91] Creating Layer conv6_2-Dropout1
I0630 14:51:25.640368 47538 net.cpp:425] conv6_2-Dropout1 <- conv6_2-Convolution2
I0630 14:51:25.640379 47538 net.cpp:399] conv6_2-Dropout1 -> conv6_2-Dropout1
I0630 14:51:25.640447 47538 net.cpp:141] Setting up conv6_2-Dropout1
I0630 14:51:25.640462 47538 net.cpp:148] Top shape: 3 16 32 32 32 (1572864)
I0630 14:51:25.640480 47538 net.cpp:156] Memory required for data: 3509157888
I0630 14:51:25.640488 47538 layer_factory.hpp:77] Creating layer conv6_2-Concat1
I0630 14:51:25.640496 47538 net.cpp:91] Creating Layer conv6_2-Concat1
I0630 14:51:25.640502 47538 net.cpp:425] conv6_2-Concat1 <- conv6_2-Convolution1_conv6_2-Convolution1_0_split_1
I0630 14:51:25.640509 47538 net.cpp:425] conv6_2-Concat1 <- conv6_2-Dropout1
I0630 14:51:25.640517 47538 net.cpp:399] conv6_2-Concat1 -> conv6_2-Concat1
I0630 14:51:25.640560 47538 net.cpp:141] Setting up conv6_2-Concat1
I0630 14:51:25.640568 47538 net.cpp:148] Top shape: 3 80 32 32 32 (7864320)
I0630 14:51:25.640574 47538 net.cpp:156] Memory required for data: 3540615168
I0630 14:51:25.640578 47538 layer_factory.hpp:77] Creating layer conv6_2-Concat1_conv6_2-Concat1_0_split
I0630 14:51:25.640588 47538 net.cpp:91] Creating Layer conv6_2-Concat1_conv6_2-Concat1_0_split
I0630 14:51:25.640594 47538 net.cpp:425] conv6_2-Concat1_conv6_2-Concat1_0_split <- conv6_2-Concat1
I0630 14:51:25.640602 47538 net.cpp:399] conv6_2-Concat1_conv6_2-Concat1_0_split -> conv6_2-Concat1_conv6_2-Concat1_0_split_0
I0630 14:51:25.640611 47538 net.cpp:399] conv6_2-Concat1_conv6_2-Concat1_0_split -> conv6_2-Concat1_conv6_2-Concat1_0_split_1
I0630 14:51:25.640666 47538 net.cpp:141] Setting up conv6_2-Concat1_conv6_2-Concat1_0_split
I0630 14:51:25.640673 47538 net.cpp:148] Top shape: 3 80 32 32 32 (7864320)
I0630 14:51:25.640679 47538 net.cpp:148] Top shape: 3 80 32 32 32 (7864320)
I0630 14:51:25.640684 47538 net.cpp:156] Memory required for data: 3603529728
I0630 14:51:25.640688 47538 layer_factory.hpp:77] Creating layer conv6_2-BatchNorm2
I0630 14:51:25.640702 47538 net.cpp:91] Creating Layer conv6_2-BatchNorm2
I0630 14:51:25.640707 47538 net.cpp:425] conv6_2-BatchNorm2 <- conv6_2-Concat1_conv6_2-Concat1_0_split_0
I0630 14:51:25.640717 47538 net.cpp:399] conv6_2-BatchNorm2 -> conv6_2-BatchNorm2
I0630 14:51:25.641037 47538 net.cpp:141] Setting up conv6_2-BatchNorm2
I0630 14:51:25.641047 47538 net.cpp:148] Top shape: 3 80 32 32 32 (7864320)
I0630 14:51:25.641052 47538 net.cpp:156] Memory required for data: 3634987008
I0630 14:51:25.641062 47538 layer_factory.hpp:77] Creating layer conv6_2-Scale2
I0630 14:51:25.641069 47538 net.cpp:91] Creating Layer conv6_2-Scale2
I0630 14:51:25.641075 47538 net.cpp:425] conv6_2-Scale2 <- conv6_2-BatchNorm2
I0630 14:51:25.641085 47538 net.cpp:386] conv6_2-Scale2 -> conv6_2-BatchNorm2 (in-place)
I0630 14:51:25.641145 47538 layer_factory.hpp:77] Creating layer conv6_2-Scale2
I0630 14:51:25.641356 47538 net.cpp:141] Setting up conv6_2-Scale2
I0630 14:51:25.641368 47538 net.cpp:148] Top shape: 3 80 32 32 32 (7864320)
I0630 14:51:25.641373 47538 net.cpp:156] Memory required for data: 3666444288
I0630 14:51:25.641381 47538 layer_factory.hpp:77] Creating layer conv6_2-ReLU2
I0630 14:51:25.641388 47538 net.cpp:91] Creating Layer conv6_2-ReLU2
I0630 14:51:25.641393 47538 net.cpp:425] conv6_2-ReLU2 <- conv6_2-BatchNorm2
I0630 14:51:25.641402 47538 net.cpp:386] conv6_2-ReLU2 -> conv6_2-BatchNorm2 (in-place)
I0630 14:51:25.643286 47538 net.cpp:141] Setting up conv6_2-ReLU2
I0630 14:51:25.643304 47538 net.cpp:148] Top shape: 3 80 32 32 32 (7864320)
I0630 14:51:25.643309 47538 net.cpp:156] Memory required for data: 3697901568
I0630 14:51:25.643316 47538 layer_factory.hpp:77] Creating layer conv6_2-Convolution3
I0630 14:51:25.643334 47538 net.cpp:91] Creating Layer conv6_2-Convolution3
I0630 14:51:25.643340 47538 net.cpp:425] conv6_2-Convolution3 <- conv6_2-BatchNorm2
I0630 14:51:25.643353 47538 net.cpp:399] conv6_2-Convolution3 -> conv6_2-Convolution3
I0630 14:51:25.645694 47538 net.cpp:141] Setting up conv6_2-Convolution3
I0630 14:51:25.645710 47538 net.cpp:148] Top shape: 3 16 32 32 32 (1572864)
I0630 14:51:25.645715 47538 net.cpp:156] Memory required for data: 3704193024
I0630 14:51:25.645725 47538 layer_factory.hpp:77] Creating layer conv6_2-Dropout2
I0630 14:51:25.645740 47538 net.cpp:91] Creating Layer conv6_2-Dropout2
I0630 14:51:25.645752 47538 net.cpp:425] conv6_2-Dropout2 <- conv6_2-Convolution3
I0630 14:51:25.645776 47538 net.cpp:399] conv6_2-Dropout2 -> conv6_2-Dropout2
I0630 14:51:25.645848 47538 net.cpp:141] Setting up conv6_2-Dropout2
I0630 14:51:25.645859 47538 net.cpp:148] Top shape: 3 16 32 32 32 (1572864)
I0630 14:51:25.645862 47538 net.cpp:156] Memory required for data: 3710484480
I0630 14:51:25.645867 47538 layer_factory.hpp:77] Creating layer conv6_2-Concat2
I0630 14:51:25.645877 47538 net.cpp:91] Creating Layer conv6_2-Concat2
I0630 14:51:25.645884 47538 net.cpp:425] conv6_2-Concat2 <- conv6_2-Concat1_conv6_2-Concat1_0_split_1
I0630 14:51:25.645890 47538 net.cpp:425] conv6_2-Concat2 <- conv6_2-Dropout2
I0630 14:51:25.645898 47538 net.cpp:399] conv6_2-Concat2 -> conv6_2-Concat2
I0630 14:51:25.645934 47538 net.cpp:141] Setting up conv6_2-Concat2
I0630 14:51:25.645943 47538 net.cpp:148] Top shape: 3 96 32 32 32 (9437184)
I0630 14:51:25.645947 47538 net.cpp:156] Memory required for data: 3748233216
I0630 14:51:25.645952 47538 layer_factory.hpp:77] Creating layer conv6_2-Concat2_conv6_2-Concat2_0_split
I0630 14:51:25.645959 47538 net.cpp:91] Creating Layer conv6_2-Concat2_conv6_2-Concat2_0_split
I0630 14:51:25.645965 47538 net.cpp:425] conv6_2-Concat2_conv6_2-Concat2_0_split <- conv6_2-Concat2
I0630 14:51:25.645975 47538 net.cpp:399] conv6_2-Concat2_conv6_2-Concat2_0_split -> conv6_2-Concat2_conv6_2-Concat2_0_split_0
I0630 14:51:25.645984 47538 net.cpp:399] conv6_2-Concat2_conv6_2-Concat2_0_split -> conv6_2-Concat2_conv6_2-Concat2_0_split_1
I0630 14:51:25.646039 47538 net.cpp:141] Setting up conv6_2-Concat2_conv6_2-Concat2_0_split
I0630 14:51:25.646046 47538 net.cpp:148] Top shape: 3 96 32 32 32 (9437184)
I0630 14:51:25.646052 47538 net.cpp:148] Top shape: 3 96 32 32 32 (9437184)
I0630 14:51:25.646056 47538 net.cpp:156] Memory required for data: 3823730688
I0630 14:51:25.646061 47538 layer_factory.hpp:77] Creating layer conv6_2-BatchNorm3
I0630 14:51:25.646073 47538 net.cpp:91] Creating Layer conv6_2-BatchNorm3
I0630 14:51:25.646078 47538 net.cpp:425] conv6_2-BatchNorm3 <- conv6_2-Concat2_conv6_2-Concat2_0_split_0
I0630 14:51:25.646088 47538 net.cpp:399] conv6_2-BatchNorm3 -> conv6_2-BatchNorm3
I0630 14:51:25.646409 47538 net.cpp:141] Setting up conv6_2-BatchNorm3
I0630 14:51:25.646418 47538 net.cpp:148] Top shape: 3 96 32 32 32 (9437184)
I0630 14:51:25.646422 47538 net.cpp:156] Memory required for data: 3861479424
I0630 14:51:25.646433 47538 layer_factory.hpp:77] Creating layer conv6_2-Scale3
I0630 14:51:25.646440 47538 net.cpp:91] Creating Layer conv6_2-Scale3
I0630 14:51:25.646447 47538 net.cpp:425] conv6_2-Scale3 <- conv6_2-BatchNorm3
I0630 14:51:25.646453 47538 net.cpp:386] conv6_2-Scale3 -> conv6_2-BatchNorm3 (in-place)
I0630 14:51:25.646517 47538 layer_factory.hpp:77] Creating layer conv6_2-Scale3
I0630 14:51:25.646734 47538 net.cpp:141] Setting up conv6_2-Scale3
I0630 14:51:25.646744 47538 net.cpp:148] Top shape: 3 96 32 32 32 (9437184)
I0630 14:51:25.646749 47538 net.cpp:156] Memory required for data: 3899228160
I0630 14:51:25.646757 47538 layer_factory.hpp:77] Creating layer conv6_2-ReLU3
I0630 14:51:25.646767 47538 net.cpp:91] Creating Layer conv6_2-ReLU3
I0630 14:51:25.646773 47538 net.cpp:425] conv6_2-ReLU3 <- conv6_2-BatchNorm3
I0630 14:51:25.646780 47538 net.cpp:386] conv6_2-ReLU3 -> conv6_2-BatchNorm3 (in-place)
I0630 14:51:25.647994 47538 net.cpp:141] Setting up conv6_2-ReLU3
I0630 14:51:25.648010 47538 net.cpp:148] Top shape: 3 96 32 32 32 (9437184)
I0630 14:51:25.648015 47538 net.cpp:156] Memory required for data: 3936976896
I0630 14:51:25.648020 47538 layer_factory.hpp:77] Creating layer conv6_2-Convolution4
I0630 14:51:25.648043 47538 net.cpp:91] Creating Layer conv6_2-Convolution4
I0630 14:51:25.648051 47538 net.cpp:425] conv6_2-Convolution4 <- conv6_2-BatchNorm3
I0630 14:51:25.648061 47538 net.cpp:399] conv6_2-Convolution4 -> conv6_2-Convolution4
I0630 14:51:25.653354 47538 net.cpp:141] Setting up conv6_2-Convolution4
I0630 14:51:25.653371 47538 net.cpp:148] Top shape: 3 16 32 32 32 (1572864)
I0630 14:51:25.653380 47538 net.cpp:156] Memory required for data: 3943268352
I0630 14:51:25.653405 47538 layer_factory.hpp:77] Creating layer conv6_2-Dropout3
I0630 14:51:25.653417 47538 net.cpp:91] Creating Layer conv6_2-Dropout3
I0630 14:51:25.653424 47538 net.cpp:425] conv6_2-Dropout3 <- conv6_2-Convolution4
I0630 14:51:25.653434 47538 net.cpp:399] conv6_2-Dropout3 -> conv6_2-Dropout3
I0630 14:51:25.653504 47538 net.cpp:141] Setting up conv6_2-Dropout3
I0630 14:51:25.653513 47538 net.cpp:148] Top shape: 3 16 32 32 32 (1572864)
I0630 14:51:25.653517 47538 net.cpp:156] Memory required for data: 3949559808
I0630 14:51:25.653522 47538 layer_factory.hpp:77] Creating layer conv6_2-Concat3
I0630 14:51:25.653533 47538 net.cpp:91] Creating Layer conv6_2-Concat3
I0630 14:51:25.653539 47538 net.cpp:425] conv6_2-Concat3 <- conv6_2-Concat2_conv6_2-Concat2_0_split_1
I0630 14:51:25.653545 47538 net.cpp:425] conv6_2-Concat3 <- conv6_2-Dropout3
I0630 14:51:25.653553 47538 net.cpp:399] conv6_2-Concat3 -> conv6_2
I0630 14:51:25.653591 47538 net.cpp:141] Setting up conv6_2-Concat3
I0630 14:51:25.653599 47538 net.cpp:148] Top shape: 3 112 32 32 32 (11010048)
I0630 14:51:25.653604 47538 net.cpp:156] Memory required for data: 3993600000
I0630 14:51:25.653609 47538 layer_factory.hpp:77] Creating layer conv6_2_bn
I0630 14:51:25.653622 47538 net.cpp:91] Creating Layer conv6_2_bn
I0630 14:51:25.653627 47538 net.cpp:425] conv6_2_bn <- conv6_2
I0630 14:51:25.653635 47538 net.cpp:399] conv6_2_bn -> conv6_2_bn
I0630 14:51:25.653955 47538 net.cpp:141] Setting up conv6_2_bn
I0630 14:51:25.653966 47538 net.cpp:148] Top shape: 3 112 32 32 32 (11010048)
I0630 14:51:25.653970 47538 net.cpp:156] Memory required for data: 4037640192
I0630 14:51:25.653983 47538 layer_factory.hpp:77] Creating layer scale_conv6_2
I0630 14:51:25.653995 47538 net.cpp:91] Creating Layer scale_conv6_2
I0630 14:51:25.654001 47538 net.cpp:425] scale_conv6_2 <- conv6_2_bn
I0630 14:51:25.654008 47538 net.cpp:386] scale_conv6_2 -> conv6_2_bn (in-place)
I0630 14:51:25.654072 47538 layer_factory.hpp:77] Creating layer scale_conv6_2
I0630 14:51:25.654287 47538 net.cpp:141] Setting up scale_conv6_2
I0630 14:51:25.654297 47538 net.cpp:148] Top shape: 3 112 32 32 32 (11010048)
I0630 14:51:25.654301 47538 net.cpp:156] Memory required for data: 4081680384
I0630 14:51:25.654309 47538 layer_factory.hpp:77] Creating layer relu6_2
I0630 14:51:25.654316 47538 net.cpp:91] Creating Layer relu6_2
I0630 14:51:25.654322 47538 net.cpp:425] relu6_2 <- conv6_2_bn
I0630 14:51:25.654331 47538 net.cpp:386] relu6_2 -> conv6_2_bn (in-place)
I0630 14:51:25.654578 47538 net.cpp:141] Setting up relu6_2
I0630 14:51:25.654589 47538 net.cpp:148] Top shape: 3 112 32 32 32 (11010048)
I0630 14:51:25.654595 47538 net.cpp:156] Memory required for data: 4125720576
I0630 14:51:25.654600 47538 layer_factory.hpp:77] Creating layer conv6_3-Convolution1
I0630 14:51:25.654614 47538 net.cpp:91] Creating Layer conv6_3-Convolution1
I0630 14:51:25.654620 47538 net.cpp:425] conv6_3-Convolution1 <- conv6_2_bn
I0630 14:51:25.654633 47538 net.cpp:399] conv6_3-Convolution1 -> conv6_3-Convolution1
I0630 14:51:25.662004 47538 net.cpp:141] Setting up conv6_3-Convolution1
I0630 14:51:25.662021 47538 net.cpp:148] Top shape: 3 4 32 32 32 (393216)
I0630 14:51:25.662026 47538 net.cpp:156] Memory required for data: 4127293440
…
I0630 14:51:31.073098 47538 net.cpp:425] relu5a <- conv5_bn
I0630 14:51:31.073105 47538 net.cpp:386] relu5a -> conv5_bn (in-place)
I0630 14:51:31.073367 47538 net.cpp:141] Setting up relu5a
I0630 14:51:31.073379 47538 net.cpp:148] Top shape: 3 352 16 16 16 (4325376)
I0630 14:51:31.073385 47538 net.cpp:156] Memory required for data: 1603633152
I0630 14:51:31.073390 47538 layer_factory.hpp:77] Creating layer conv5_2-Convolution1
I0630 14:51:31.073406 47538 net.cpp:91] Creating Layer conv5_2-Convolution1
I0630 14:51:31.073412 47538 net.cpp:425] conv5_2-Convolution1 <- conv5_bn
I0630 14:51:31.073423 47538 net.cpp:399] conv5_2-Convolution1 -> conv5_2-Convolution1
I0630 14:51:31.098309 47538 net.cpp:141] Setting up conv5_2-Convolution1
I0630 14:51:31.098330 47538 net.cpp:148] Top shape: 3 256 16 16 16 (3145728)
I0630 14:51:31.098335 47538 net.cpp:156] Memory required for data: 1616216064
I0630 14:51:31.098345 47538 layer_factory.hpp:77] Creating layer conv5_2-Convolution1_conv5_2-Convolution1_0_split
I0630 14:51:31.098354 47538 net.cpp:91] Creating Layer conv5_2-Convolution1_conv5_2-Convolution1_0_split
I0630 14:51:31.098361 47538 net.cpp:425] conv5_2-Convolution1_conv5_2-Convolution1_0_split <- conv5_2-Convolution1
I0630 14:51:31.098372 47538 net.cpp:399] conv5_2-Convolution1_conv5_2-Convolution1_0_split -> conv5_2-Convolution1_conv5_2-Convolution1_0_split_0
I0630 14:51:31.098384 47538 net.cpp:399] conv5_2-Convolution1_conv5_2-Convolution1_0_split -> conv5_2-Convolution1_conv5_2-Convolution1_0_split_1
I0630 14:51:31.098456 47538 net.cpp:141] Setting up conv5_2-Convolution1_conv5_2-Convolution1_0_split
I0630 14:51:31.098466 47538 net.cpp:148] Top shape: 3 256 16 16 16 (3145728)
I0630 14:51:31.098472 47538 net.cpp:148] Top shape: 3 256 16 16 16 (3145728)
I0630 14:51:31.098476 47538 net.cpp:156] Memory required for data: 1641381888
I0630 14:51:31.098481 47538 layer_factory.hpp:77] Creating layer conv5_2-BatchNorm1
I0630 14:51:31.098493 47538 net.cpp:91] Creating Layer conv5_2-BatchNorm1
I0630 14:51:31.098500 47538 net.cpp:425] conv5_2-BatchNorm1 <- conv5_2-Convolution1_conv5_2-Convolution1_0_split_0
I0630 14:51:31.098507 47538 net.cpp:399] conv5_2-BatchNorm1 -> conv5_2-BatchNorm1
I0630 14:51:31.098837 47538 net.cpp:141] Setting up conv5_2-BatchNorm1
I0630 14:51:31.098847 47538 net.cpp:148] Top shape: 3 256 16 16 16 (3145728)
I0630 14:51:31.098851 47538 net.cpp:156] Memory required for data: 1653964800
I0630 14:51:31.098865 47538 layer_factory.hpp:77] Creating layer conv5_2-Scale1
I0630 14:51:31.098873 47538 net.cpp:91] Creating Layer conv5_2-Scale1
I0630 14:51:31.098879 47538 net.cpp:425] conv5_2-Scale1 <- conv5_2-BatchNorm1
I0630 14:51:31.098889 47538 net.cpp:386] conv5_2-Scale1 -> conv5_2-BatchNorm1 (in-place)
I0630 14:51:31.098955 47538 layer_factory.hpp:77] Creating layer conv5_2-Scale1
I0630 14:51:31.099157 47538 net.cpp:141] Setting up conv5_2-Scale1
I0630 14:51:31.099169 47538 net.cpp:148] Top shape: 3 256 16 16 16 (3145728)
I0630 14:51:31.099172 47538 net.cpp:156] Memory required for data: 1666547712
I0630 14:51:31.099180 47538 layer_factory.hpp:77] Creating layer conv5_2-ReLU1
I0630 14:51:31.099191 47538 net.cpp:91] Creating Layer conv5_2-ReLU1
I0630 14:51:31.099197 47538 net.cpp:425] conv5_2-ReLU1 <- conv5_2-BatchNorm1
I0630 14:51:31.099205 47538 net.cpp:386] conv5_2-ReLU1 -> conv5_2-BatchNorm1 (in-place)
I0630 14:51:31.100483 47538 net.cpp:141] Setting up conv5_2-ReLU1
I0630 14:51:31.100499 47538 net.cpp:148] Top shape: 3 256 16 16 16 (3145728)
I0630 14:51:31.100505 47538 net.cpp:156] Memory required for data: 1679130624
I0630 14:51:31.100510 47538 layer_factory.hpp:77] Creating layer conv5_2-Convolution2
I0630 14:51:31.100531 47538 net.cpp:91] Creating Layer conv5_2-Convolution2
I0630 14:51:31.100553 47538 net.cpp:425] conv5_2-Convolution2 <- conv5_2-BatchNorm1
I0630 14:51:31.100567 47538 net.cpp:399] conv5_2-Convolution2 -> conv5_2-Convolution2
I0630 14:51:31.103281 47538 net.cpp:141] Setting up conv5_2-Convolution2
I0630 14:51:31.103294 47538 net.cpp:148] Top shape: 3 32 16 16 16 (393216)
I0630 14:51:31.103299 47538 net.cpp:156] Memory required for data: 1680703488
I0630 14:51:31.103309 47538 layer_factory.hpp:77] Creating layer conv5_2-Dropout1
I0630 14:51:31.103322 47538 net.cpp:91] Creating Layer conv5_2-Dropout1
I0630 14:51:31.103327 47538 net.cpp:425] conv5_2-Dropout1 <- conv5_2-Convolution2
I0630 14:51:31.103334 47538 net.cpp:399] conv5_2-Dropout1 -> conv5_2-Dropout1
I0630 14:51:31.103407 47538 net.cpp:141] Setting up conv5_2-Dropout1
I0630 14:51:31.103415 47538 net.cpp:148] Top shape: 3 32 16 16 16 (393216)
I0630 14:51:31.103420 47538 net.cpp:156] Memory required for data: 1682276352
I0630 14:51:31.103427 47538 layer_factory.hpp:77] Creating layer conv5_2-Concat1
I0630 14:51:31.103436 47538 net.cpp:91] Creating Layer conv5_2-Concat1
I0630 14:51:31.103441 47538 net.cpp:425] conv5_2-Concat1 <- conv5_2-Convolution1_conv5_2-Convolution1_0_split_1
I0630 14:51:31.103448 47538 net.cpp:425] conv5_2-Concat1 <- conv5_2-Dropout1
I0630 14:51:31.103458 47538 net.cpp:399] conv5_2-Concat1 -> conv5_2-Concat1
I0630 14:51:31.103500 47538 net.cpp:141] Setting up conv5_2-Concat1
I0630 14:51:31.103508 47538 net.cpp:148] Top shape: 3 288 16 16 16 (3538944)
I0630 14:51:31.103513 47538 net.cpp:156] Memory required for data: 1696432128
I0630 14:51:31.103518 47538 layer_factory.hpp:77] Creating layer conv5_2-Concat1_conv5_2-Concat1_0_split
I0630 14:51:31.103525 47538 net.cpp:91] Creating Layer conv5_2-Concat1_conv5_2-Concat1_0_split
I0630 14:51:31.103530 47538 net.cpp:425] conv5_2-Concat1_conv5_2-Concat1_0_split <- conv5_2-Concat1
I0630 14:51:31.103541 47538 net.cpp:399] conv5_2-Concat1_conv5_2-Concat1_0_split -> conv5_2-Concat1_conv5_2-Concat1_0_split_0
I0630 14:51:31.103552 47538 net.cpp:399] conv5_2-Concat1_conv5_2-Concat1_0_split -> conv5_2-Concat1_conv5_2-Concat1_0_split_1
I0630 14:51:31.103610 47538 net.cpp:141] Setting up conv5_2-Concat1_conv5_2-Concat1_0_split
I0630 14:51:31.103618 47538 net.cpp:148] Top shape: 3 288 16 16 16 (3538944)
I0630 14:51:31.103624 47538 net.cpp:148] Top shape: 3 288 16 16 16 (3538944)
I0630 14:51:31.103628 47538 net.cpp:156] Memory required for data: 1724743680
I0630 14:51:31.103634 47538 layer_factory.hpp:77] Creating layer conv5_2-BatchNorm2
I0630 14:51:31.103646 47538 net.cpp:91] Creating Layer conv5_2-BatchNorm2
I0630 14:51:31.103652 47538 net.cpp:425] conv5_2-BatchNorm2 <- conv5_2-Concat1_conv5_2-Concat1_0_split_0
I0630 14:51:31.103662 47538 net.cpp:399] conv5_2-BatchNorm2 -> conv5_2-BatchNorm2
I0630 14:51:31.104005 47538 net.cpp:141] Setting up conv5_2-BatchNorm2
I0630 14:51:31.104014 47538 net.cpp:148] Top shape: 3 288 16 16 16 (3538944)
I0630 14:51:31.104019 47538 net.cpp:156] Memory required for data: 1738899456
I0630 14:51:31.104029 47538 layer_factory.hpp:77] Creating layer conv5_2-Scale2
I0630 14:51:31.104038 47538 net.cpp:91] Creating Layer conv5_2-Scale2
I0630 14:51:31.104043 47538 net.cpp:425] conv5_2-Scale2 <- conv5_2-BatchNorm2
I0630 14:51:31.104053 47538 net.cpp:386] conv5_2-Scale2 -> conv5_2-BatchNorm2 (in-place)
I0630 14:51:31.104125 47538 layer_factory.hpp:77] Creating layer conv5_2-Scale2
I0630 14:51:31.104331 47538 net.cpp:141] Setting up conv5_2-Scale2
I0630 14:51:31.104341 47538 net.cpp:148] Top shape: 3 288 16 16 16 (3538944)
I0630 14:51:31.104344 47538 net.cpp:156] Memory required for data: 1753055232
I0630 14:51:31.104352 47538 layer_factory.hpp:77] Creating layer conv5_2-ReLU2
I0630 14:51:31.104360 47538 net.cpp:91] Creating Layer conv5_2-ReLU2
I0630 14:51:31.104367 47538 net.cpp:425] conv5_2-ReLU2 <- conv5_2-BatchNorm2
I0630 14:51:31.104375 47538 net.cpp:386] conv5_2-ReLU2 -> conv5_2-BatchNorm2 (in-place)
I0630 14:51:31.105633 47538 net.cpp:141] Setting up conv5_2-ReLU2
I0630 14:51:31.105651 47538 net.cpp:148] Top shape: 3 288 16 16 16 (3538944)
I0630 14:51:31.105670 47538 net.cpp:156] Memory required for data: 1767211008
I0630 14:51:31.105675 47538 layer_factory.hpp:77] Creating layer conv5_2-Convolution3
I0630 14:51:31.105691 47538 net.cpp:91] Creating Layer conv5_2-Convolution3
I0630 14:51:31.105698 47538 net.cpp:425] conv5_2-Convolution3 <- conv5_2-BatchNorm2
I0630 14:51:31.105712 47538 net.cpp:399] conv5_2-Convolution3 -> conv5_2-Convolution3
I0630 14:51:31.111984 47538 net.cpp:141] Setting up conv5_2-Convolution3
I0630 14:51:31.112004 47538 net.cpp:148] Top shape: 3 32 16 16 16 (393216)
I0630 14:51:31.112008 47538 net.cpp:156] Memory required for data: 1768783872
I0630 14:51:31.112022 47538 layer_factory.hpp:77] Creating layer conv5_2-Dropout2
I0630 14:51:31.112032 47538 net.cpp:91] Creating Layer conv5_2-Dropout2
I0630 14:51:31.112038 47538 net.cpp:425] conv5_2-Dropout2 <- conv5_2-Convolution3
I0630 14:51:31.112051 47538 net.cpp:399] conv5_2-Dropout2 -> conv5_2-Dropout2
I0630 14:51:31.112125 47538 net.cpp:141] Setting up conv5_2-Dropout2
I0630 14:51:31.112133 47538 net.cpp:148] Top shape: 3 32 16 16 16 (393216)
I0630 14:51:31.112138 47538 net.cpp:156] Memory required for data: 1770356736
I0630 14:51:31.112143 47538 layer_factory.hpp:77] Creating layer conv5_2-Concat2
I0630 14:51:31.112151 47538 net.cpp:91] Creating Layer conv5_2-Concat2
I0630 14:51:31.112157 47538 net.cpp:425] conv5_2-Concat2 <- conv5_2-Concat1_conv5_2-Concat1_0_split_1
I0630 14:51:31.112164 47538 net.cpp:425] conv5_2-Concat2 <- conv5_2-Dropout2
I0630 14:51:31.112171 47538 net.cpp:399] conv5_2-Concat2 -> conv5_2-Concat2
I0630 14:51:31.112210 47538 net.cpp:141] Setting up conv5_2-Concat2
I0630 14:51:31.112218 47538 net.cpp:148] Top shape: 3 320 16 16 16 (3932160)
I0630 14:51:31.112223 47538 net.cpp:156] Memory required for data: 1786085376
I0630 14:51:31.112227 47538 layer_factory.hpp:77] Creating layer conv5_2-Concat2_conv5_2-Concat2_0_split
I0630 14:51:31.112236 47538 net.cpp:91] Creating Layer conv5_2-Concat2_conv5_2-Concat2_0_split
I0630 14:51:31.112241 47538 net.cpp:425] conv5_2-Concat2_conv5_2-Concat2_0_split <- conv5_2-Concat2
I0630 14:51:31.112248 47538 net.cpp:399] conv5_2-Concat2_conv5_2-Concat2_0_split -> conv5_2-Concat2_conv5_2-Concat2_0_split_0
I0630 14:51:31.112258 47538 net.cpp:399] conv5_2-Concat2_conv5_2-Concat2_0_split -> conv5_2-Concat2_conv5_2-Concat2_0_split_1
I0630 14:51:31.112314 47538 net.cpp:141] Setting up conv5_2-Concat2_conv5_2-Concat2_0_split
I0630 14:51:31.112321 47538 net.cpp:148] Top shape: 3 320 16 16 16 (3932160)
I0630 14:51:31.112327 47538 net.cpp:148] Top shape: 3 320 16 16 16 (3932160)
I0630 14:51:31.112331 47538 net.cpp:156] Memory required for data: 1817542656
I0630 14:51:31.112337 47538 layer_factory.hpp:77] Creating layer conv5_2-BatchNorm3
I0630 14:51:31.112351 47538 net.cpp:91] Creating Layer conv5_2-BatchNorm3
I0630 14:51:31.112356 47538 net.cpp:425] conv5_2-BatchNorm3 <- conv5_2-Concat2_conv5_2-Concat2_0_split_0
I0630 14:51:31.112366 47538 net.cpp:399] conv5_2-BatchNorm3 -> conv5_2-BatchNorm3
I0630 14:51:31.112730 47538 net.cpp:141] Setting up conv5_2-BatchNorm3
I0630 14:51:31.112738 47538 net.cpp:148] Top shape: 3 320 16 16 16 (3932160)
I0630 14:51:31.112742 47538 net.cpp:156] Memory required for data: 1833271296
I0630 14:51:31.112752 47538 layer_factory.hpp:77] Creating layer conv5_2-Scale3
I0630 14:51:31.112761 47538 net.cpp:91] Creating Layer conv5_2-Scale3
I0630 14:51:31.112766 47538 net.cpp:425] conv5_2-Scale3 <- conv5_2-BatchNorm3
I0630 14:51:31.112776 47538 net.cpp:386] conv5_2-Scale3 -> conv5_2-BatchNorm3 (in-place)
I0630 14:51:31.112846 47538 layer_factory.hpp:77] Creating layer conv5_2-Scale3
I0630 14:51:31.113049 47538 net.cpp:141] Setting up conv5_2-Scale3
I0630 14:51:31.113059 47538 net.cpp:148] Top shape: 3 320 16 16 16 (3932160)
I0630 14:51:31.113063 47538 net.cpp:156] Memory required for data: 1848999936
I0630 14:51:31.113071 47538 layer_factory.hpp:77] Creating layer conv5_2-ReLU3
I0630 14:51:31.113080 47538 net.cpp:91] Creating Layer conv5_2-ReLU3
I0630 14:51:31.113090 47538 net.cpp:425] conv5_2-ReLU3 <- conv5_2-BatchNorm3
I0630 14:51:31.113113 47538 net.cpp:386] conv5_2-ReLU3 -> conv5_2-BatchNorm3 (in-place)
I0630 14:51:31.113391 47538 net.cpp:141] Setting up conv5_2-ReLU3
I0630 14:51:31.113404 47538 net.cpp:148] Top shape: 3 320 16 16 16 (3932160)
I0630 14:51:31.113409 47538 net.cpp:156] Memory required for data: 1864728576
I0630 14:51:31.113415 47538 layer_factory.hpp:77] Creating layer conv5_2-Convolution4
I0630 14:51:31.113430 47538 net.cpp:91] Creating Layer conv5_2-Convolution4
I0630 14:51:31.113436 47538 net.cpp:425] conv5_2-Convolution4 <- conv5_2-BatchNorm3
I0630 14:51:31.113448 47538 net.cpp:399] conv5_2-Convolution4 -> conv5_2-Convolution4
I0630 14:51:31.119990 47538 net.cpp:141] Setting up conv5_2-Convolution4
I0630 14:51:31.120008 47538 net.cpp:148] Top shape: 3 32 16 16 16 (393216)
I0630 14:51:31.120015 47538 net.cpp:156] Memory required for data: 1866301440
I0630 14:51:31.120028 47538 layer_factory.hpp:77] Creating layer conv5_2-Dropout3
I0630 14:51:31.120038 47538 net.cpp:91] Creating Layer conv5_2-Dropout3
I0630 14:51:31.120044 47538 net.cpp:425] conv5_2-Dropout3 <- conv5_2-Convolution4
I0630 14:51:31.120054 47538 net.cpp:399] conv5_2-Dropout3 -> conv5_2-Dropout3
I0630 14:51:31.120121 47538 net.cpp:141] Setting up conv5_2-Dropout3
I0630 14:51:31.120129 47538 net.cpp:148] Top shape: 3 32 16 16 16 (393216)
I0630 14:51:31.120134 47538 net.cpp:156] Memory required for data: 1867874304
I0630 14:51:31.120139 47538 layer_factory.hpp:77] Creating layer conv5_2-Concat3
I0630 14:51:31.120147 47538 net.cpp:91] Creating Layer conv5_2-Concat3
I0630 14:51:31.120153 47538 net.cpp:425] conv5_2-Concat3 <- conv5_2-Concat2_conv5_2-Concat2_0_split_1
I0630 14:51:31.120159 47538 net.cpp:425] conv5_2-Concat3 <- conv5_2-Dropout3
I0630 14:51:31.120177 47538 net.cpp:399] conv5_2-Concat3 -> conv5_2
I0630 14:51:31.120218 47538 net.cpp:141] Setting up conv5_2-Concat3
I0630 14:51:31.120225 47538 net.cpp:148] Top shape: 3 352 16 16 16 (4325376)
I0630 14:51:31.120229 47538 net.cpp:156] Memory required for data: 1885175808
I0630 14:51:31.120235 47538 layer_factory.hpp:77] Creating layer conv5_2_bn
I0630 14:51:31.120244 47538 net.cpp:91] Creating Layer conv5_2_bn
I0630 14:51:31.120249 47538 net.cpp:425] conv5_2_bn <- conv5_2
I0630 14:51:31.120256 47538 net.cpp:399] conv5_2_bn -> conv5_2_bn
I0630 14:51:31.120594 47538 net.cpp:141] Setting up conv5_2_bn
I0630 14:51:31.120604 47538 net.cpp:148] Top shape: 3 352 16 16 16 (4325376)
I0630 14:51:31.120609 47538 net.cpp:156] Memory required for data: 1902477312
I0630 14:51:31.120618 47538 layer_factory.hpp:77] Creating layer scale_conv5_2
I0630 14:51:31.120632 47538 net.cpp:91] Creating Layer scale_conv5_2
I0630 14:51:31.120637 47538 net.cpp:425] scale_conv5_2 <- conv5_2_bn
I0630 14:51:31.120647 47538 net.cpp:386] scale_conv5_2 -> conv5_2_bn (in-place)
I0630 14:51:31.120718 47538 layer_factory.hpp:77] Creating layer scale_conv5_2
I0630 14:51:31.120923 47538 net.cpp:141] Setting up scale_conv5_2
I0630 14:51:31.120931 47538 net.cpp:148] Top shape: 3 352 16 16 16 (4325376)
I0630 14:51:31.120936 47538 net.cpp:156] Memory required for data: 1919778816
I0630 14:51:31.120944 47538 layer_factory.hpp:77] Creating layer relu5a_2
I0630 14:51:31.120954 47538 net.cpp:91] Creating Layer relu5a_2
I0630 14:51:31.120960 47538 net.cpp:425] relu5a_2 <- conv5_2_bn
I0630 14:51:31.120966 47538 net.cpp:386] relu5a_2 -> conv5_2_bn (in-place)
I0630 14:51:31.121220 47538 net.cpp:141] Setting up relu5a_2
I0630 14:51:31.121235 47538 net.cpp:148] Top shape: 3 352 16 16 16 (4325376)
I0630 14:51:31.121240 47538 net.cpp:156] Memory required for data: 1937080320
I0630 14:51:31.121245 47538 layer_factory.hpp:77] Creating layer deconv6
I0630 14:51:31.121255 47538 net.cpp:91] Creating Layer deconv6
I0630 14:51:31.121261 47538 net.cpp:425] deconv6 <- conv5_2_bn
I0630 14:51:31.121273 47538 net.cpp:399] deconv6 -> deconv6
I0630 14:51:31.135413 47538 net.cpp:141] Setting up deconv6
I0630 14:51:31.135437 47538 net.cpp:148] Top shape: 3 64 32 32 32 (6291456)
I0630 14:51:31.135443 47538 net.cpp:156] Memory required for data: 1962246144
I0630 14:51:31.135457 47538 layer_factory.hpp:77] Creating layer concat32
I0630 14:51:31.135481 47538 net.cpp:91] Creating Layer concat32
I0630 14:51:31.135488 47538 net.cpp:425] concat32 <- conv1c_conv1c_0_split_1
I0630 14:51:31.135496 47538 net.cpp:425] concat32 <- deconv6
I0630 14:51:31.135504 47538 net.cpp:399] concat32 -> concat32
I0630 14:51:31.135556 47538 net.cpp:141] Setting up concat32
I0630 14:51:31.135565 47538 net.cpp:148] Top shape: 3 128 32 32 32 (12582912)
I0630 14:51:31.135571 47538 net.cpp:156] Memory required for data: 2012577792
I0630 14:51:31.135578 47538 layer_factory.hpp:77] Creating layer conv6-Convolution1
I0630 14:51:31.135594 47538 net.cpp:91] Creating Layer conv6-Convolution1
I0630 14:51:31.135599 47538 net.cpp:425] conv6-Convolution1 <- concat32
I0630 14:51:31.135612 47538 net.cpp:399] conv6-Convolution1 -> conv6-Convolution1
I0630 14:51:31.149591 47538 net.cpp:141] Setting up conv6-Convolution1
I0630 14:51:31.149610 47538 net.cpp:148] Top shape: 3 128 32 32 32 (12582912)
I0630 14:51:31.149616 47538 net.cpp:156] Memory required for data: 2062909440
I0630 14:51:31.149626 47538 layer_factory.hpp:77] Creating layer conv6-Convolution1_conv6-Convolution1_0_split
I0630 14:51:31.149638 47538 net.cpp:91] Creating Layer conv6-Convolution1_conv6-Convolution1_0_split
I0630 14:51:31.149646 47538 net.cpp:425] conv6-Convolution1_conv6-Convolution1_0_split <- conv6-Convolution1
I0630 14:51:31.149653 47538 net.cpp:399] conv6-Convolution1_conv6-Convolution1_0_split -> conv6-Convolution1_conv6-Convolution1_0_split_0
I0630 14:51:31.149665 47538 net.cpp:399] conv6-Convolution1_conv6-Convolution1_0_split -> conv6-Convolution1_conv6-Convolution1_0_split_1
I0630 14:51:31.149746 47538 net.cpp:141] Setting up conv6-Convolution1_conv6-Convolution1_0_split
I0630 14:51:31.149755 47538 net.cpp:148] Top shape: 3 128 32 32 32 (12582912)
I0630 14:51:31.149761 47538 net.cpp:148] Top shape: 3 128 32 32 32 (12582912)
I0630 14:51:31.149766 47538 net.cpp:156] Memory required for data: 2163572736
I0630 14:51:31.149771 47538 layer_factory.hpp:77] Creating layer conv6-BatchNorm1
I0630 14:51:31.149782 47538 net.cpp:91] Creating Layer conv6-BatchNorm1
I0630 14:51:31.149788 47538 net.cpp:425] conv6-BatchNorm1 <- conv6-Convolution1_conv6-Convolution1_0_split_0
I0630 14:51:31.149799 47538 net.cpp:399] conv6-BatchNorm1 -> conv6-BatchNorm1
I0630 14:51:31.150182 47538 net.cpp:141] Setting up conv6-BatchNorm1
I0630 14:51:31.150190 47538 net.cpp:148] Top shape: 3 128 32 32 32 (12582912)
I0630 14:51:31.150195 47538 net.cpp:156] Memory required for data: 2213904384
I0630 14:51:31.150207 47538 layer_factory.hpp:77] Creating layer conv6-Scale1
I0630 14:51:31.150214 47538 net.cpp:91] Creating Layer conv6-Scale1
I0630 14:51:31.150220 47538 net.cpp:425] conv6-Scale1 <- conv6-BatchNorm1
I0630 14:51:31.150228 47538 net.cpp:386] conv6-Scale1 -> conv6-BatchNorm1 (in-place)
I0630 14:51:31.150297 47538 layer_factory.hpp:77] Creating layer conv6-Scale1
I0630 14:51:31.150554 47538 net.cpp:141] Setting up conv6-Scale1
I0630 14:51:31.150563 47538 net.cpp:148] Top shape: 3 128 32 32 32 (12582912)
I0630 14:51:31.150568 47538 net.cpp:156] Memory required for data: 2264236032
I0630 14:51:31.150580 47538 layer_factory.hpp:77] Creating layer conv6-ReLU1
I0630 14:51:31.150594 47538 net.cpp:91] Creating Layer conv6-ReLU1
I0630 14:51:31.150600 47538 net.cpp:425] conv6-ReLU1 <- conv6-BatchNorm1
I0630 14:51:31.150606 47538 net.cpp:386] conv6-ReLU1 -> conv6-BatchNorm1 (in-place)
I0630 14:51:31.150878 47538 net.cpp:141] Setting up conv6-ReLU1
I0630 14:51:31.150893 47538 net.cpp:148] Top shape: 3 128 32 32 32 (12582912)
I0630 14:51:31.150897 47538 net.cpp:156] Memory required for data: 2314567680
I0630 14:51:31.150902 47538 layer_factory.hpp:77] Creating layer conv6-Convolution2
I0630 14:51:31.150918 47538 net.cpp:91] Creating Layer conv6-Convolution2
I0630 14:51:31.150924 47538 net.cpp:425] conv6-Convolution2 <- conv6-BatchNorm1
I0630 14:51:31.150933 47538 net.cpp:399] conv6-Convolution2 -> conv6-Convolution2
I0630 14:51:31.156111 47538 net.cpp:141] Setting up conv6-Convolution2
I0630 14:51:31.156129 47538 net.cpp:148] Top shape: 3 16 32 32 32 (1572864)
I0630 14:51:31.156149 47538 net.cpp:156] Memory required for data: 2320859136
I0630 14:51:31.156160 47538 layer_factory.hpp:77] Creating layer conv6-Dropout1
I0630 14:51:31.156173 47538 net.cpp:91] Creating Layer conv6-Dropout1
I0630 14:51:31.156180 47538 net.cpp:425] conv6-Dropout1 <- conv6-Convolution2
I0630 14:51:31.156191 47538 net.cpp:399] conv6-Dropout1 -> conv6-Dropout1
I0630 14:51:31.156276 47538 net.cpp:141] Setting up conv6-Dropout1
I0630 14:51:31.156286 47538 net.cpp:148] Top shape: 3 16 32 32 32 (1572864)
I0630 14:51:31.156291 47538 net.cpp:156] Memory required for data: 2327150592
I0630 14:51:31.156297 47538 layer_factory.hpp:77] Creating layer conv6-Concat1
I0630 14:51:31.156308 47538 net.cpp:91] Creating Layer conv6-Concat1
I0630 14:51:31.156313 47538 net.cpp:425] conv6-Concat1 <- conv6-Convolution1_conv6-Convolution1_0_split_1
I0630 14:51:31.156320 47538 net.cpp:425] conv6-Concat1 <- conv6-Dropout1
I0630 14:51:31.156328 47538 net.cpp:399] conv6-Concat1 -> conv6-Concat1
I0630 14:51:31.156371 47538 net.cpp:141] Setting up conv6-Concat1
I0630 14:51:31.156379 47538 net.cpp:148] Top shape: 3 144 32 32 32 (14155776)
I0630 14:51:31.156384 47538 net.cpp:156] Memory required for data: 2383773696
I0630 14:51:31.156389 47538 layer_factory.hpp:77] Creating layer conv6-Concat1_conv6-Concat1_0_split
I0630 14:51:31.156396 47538 net.cpp:91] Creating Layer conv6-Concat1_conv6-Concat1_0_split
I0630 14:51:31.156401 47538 net.cpp:425] conv6-Concat1_conv6-Concat1_0_split <- conv6-Concat1
I0630 14:51:31.156412 47538 net.cpp:399] conv6-Concat1_conv6-Concat1_0_split -> conv6-Concat1_conv6-Concat1_0_split_0
I0630 14:51:31.156422 47538 net.cpp:399] conv6-Concat1_conv6-Concat1_0_split -> conv6-Concat1_conv6-Concat1_0_split_1
I0630 14:51:31.156487 47538 net.cpp:141] Setting up conv6-Concat1_conv6-Concat1_0_split
I0630 14:51:31.156495 47538 net.cpp:148] Top shape: 3 144 32 32 32 (14155776)
I0630 14:51:31.156502 47538 net.cpp:148] Top shape: 3 144 32 32 32 (14155776)
I0630 14:51:31.156507 47538 net.cpp:156] Memory required for data: 2497019904
I0630 14:51:31.156512 47538 layer_factory.hpp:77] Creating layer conv6-BatchNorm2
I0630 14:51:31.156522 47538 net.cpp:91] Creating Layer conv6-BatchNorm2
I0630 14:51:31.156528 47538 net.cpp:425] conv6-BatchNorm2 <- conv6-Concat1_conv6-Concat1_0_split_0
I0630 14:51:31.156536 47538 net.cpp:399] conv6-BatchNorm2 -> conv6-BatchNorm2
I0630 14:51:31.158936 47538 net.cpp:141] Setting up conv6-BatchNorm2
I0630 14:51:31.158955 47538 net.cpp:148] Top shape: 3 144 32 32 32 (14155776)
I0630 14:51:31.158962 47538 net.cpp:156] Memory required for data: 2553643008
I0630 14:51:31.158987 47538 layer_factory.hpp:77] Creating layer conv6-Scale2
I0630 14:51:31.158998 47538 net.cpp:91] Creating Layer conv6-Scale2
I0630 14:51:31.159003 47538 net.cpp:425] conv6-Scale2 <- conv6-BatchNorm2
I0630 14:51:31.159015 47538 net.cpp:386] conv6-Scale2 -> conv6-BatchNorm2 (in-place)
I0630 14:51:31.159094 47538 layer_factory.hpp:77] Creating layer conv6-Scale2
I0630 14:51:31.159335 47538 net.cpp:141] Setting up conv6-Scale2
I0630 14:51:31.159345 47538 net.cpp:148] Top shape: 3 144 32 32 32 (14155776)
I0630 14:51:31.159350 47538 net.cpp:156] Memory required for data: 2610266112
I0630 14:51:31.159358 47538 layer_factory.hpp:77] Creating layer conv6-ReLU2
I0630 14:51:31.159369 47538 net.cpp:91] Creating Layer conv6-ReLU2
I0630 14:51:31.159374 47538 net.cpp:425] conv6-ReLU2 <- conv6-BatchNorm2
I0630 14:51:31.159384 47538 net.cpp:386] conv6-ReLU2 -> conv6-BatchNorm2 (in-place)
I0630 14:51:31.159658 47538 net.cpp:141] Setting up conv6-ReLU2
I0630 14:51:31.159673 47538 net.cpp:148] Top shape: 3 144 32 32 32 (14155776)
I0630 14:51:31.159678 47538 net.cpp:156] Memory required for data: 2666889216
I0630 14:51:31.159684 47538 layer_factory.hpp:77] Creating layer conv6-Convolution3
I0630 14:51:31.159699 47538 net.cpp:91] Creating Layer conv6-Convolution3
I0630 14:51:31.159705 47538 net.cpp:425] conv6-Convolution3 <- conv6-BatchNorm2
I0630 14:51:31.159724 47538 net.cpp:399] conv6-Convolution3 -> conv6-Convolution3
I0630 14:51:31.166533 47538 net.cpp:141] Setting up conv6-Convolution3
I0630 14:51:31.166581 47538 net.cpp:148] Top shape: 3 16 32 32 32 (1572864)
I0630 14:51:31.166587 47538 net.cpp:156] Memory required for data: 2673180672
I0630 14:51:31.166597 47538 layer_factory.hpp:77] Creating layer conv6-Dropout2
I0630 14:51:31.166607 47538 net.cpp:91] Creating Layer conv6-Dropout2
I0630 14:51:31.166613 47538 net.cpp:425] conv6-Dropout2 <- conv6-Convolution3
I0630 14:51:31.166621 47538 net.cpp:399] conv6-Dropout2 -> conv6-Dropout2
I0630 14:51:31.166709 47538 net.cpp:141] Setting up conv6-Dropout2
I0630 14:51:31.166719 47538 net.cpp:148] Top shape: 3 16 32 32 32 (1572864)
I0630 14:51:31.166723 47538 net.cpp:156] Memory required for data: 2679472128
I0630 14:51:31.166730 47538 layer_factory.hpp:77] Creating layer conv6-Concat2
I0630 14:51:31.166739 47538 net.cpp:91] Creating Layer conv6-Concat2
I0630 14:51:31.166745 47538 net.cpp:425] conv6-Concat2 <- conv6-Concat1_conv6-Concat1_0_split_1
I0630 14:51:31.166751 47538 net.cpp:425] conv6-Concat2 <- conv6-Dropout2
I0630 14:51:31.166761 47538 net.cpp:399] conv6-Concat2 -> conv6-Concat2
I0630 14:51:31.166806 47538 net.cpp:141] Setting up conv6-Concat2
I0630 14:51:31.166816 47538 net.cpp:148] Top shape: 3 160 32 32 32 (15728640)
I0630 14:51:31.166821 47538 net.cpp:156] Memory required for data: 2742386688
I0630 14:51:31.166826 47538 layer_factory.hpp:77] Creating layer conv6-Concat2_conv6-Concat2_0_split
I0630 14:51:31.166832 47538 net.cpp:91] Creating Layer conv6-Concat2_conv6-Concat2_0_split
I0630 14:51:31.166838 47538 net.cpp:425] conv6-Concat2_conv6-Concat2_0_split <- conv6-Concat2
I0630 14:51:31.166848 47538 net.cpp:399] conv6-Concat2_conv6-Concat2_0_split -> conv6-Concat2_conv6-Concat2_0_split_0
I0630 14:51:31.166858 47538 net.cpp:399] conv6-Concat2_conv6-Concat2_0_split -> conv6-Concat2_conv6-Concat2_0_split_1
I0630 14:51:31.166923 47538 net.cpp:141] Setting up conv6-Concat2_conv6-Concat2_0_split
I0630 14:51:31.166931 47538 net.cpp:148] Top shape: 3 160 32 32 32 (15728640)
I0630 14:51:31.166937 47538 net.cpp:148] Top shape: 3 160 32 32 32 (15728640)
I0630 14:51:31.166941 47538 net.cpp:156] Memory required for data: 2868215808
I0630 14:51:31.166945 47538 layer_factory.hpp:77] Creating layer conv6-BatchNorm3
I0630 14:51:31.166957 47538 net.cpp:91] Creating Layer conv6-BatchNorm3
I0630 14:51:31.166963 47538 net.cpp:425] conv6-BatchNorm3 <- conv6-Concat2_conv6-Concat2_0_split_0
I0630 14:51:31.166980 47538 net.cpp:399] conv6-BatchNorm3 -> conv6-BatchNorm3
I0630 14:51:31.167351 47538 net.cpp:141] Setting up conv6-BatchNorm3
I0630 14:51:31.167362 47538 net.cpp:148] Top shape: 3 160 32 32 32 (15728640)
I0630 14:51:31.167367 47538 net.cpp:156] Memory required for data: 2931130368
I0630 14:51:31.167379 47538 layer_factory.hpp:77] Creating layer conv6-Scale3
I0630 14:51:31.167390 47538 net.cpp:91] Creating Layer conv6-Scale3
I0630 14:51:31.167397 47538 net.cpp:425] conv6-Scale3 <- conv6-BatchNorm3
I0630 14:51:31.167403 47538 net.cpp:386] conv6-Scale3 -> conv6-BatchNorm3 (in-place)
I0630 14:51:31.167474 47538 layer_factory.hpp:77] Creating layer conv6-Scale3
I0630 14:51:31.167712 47538 net.cpp:141] Setting up conv6-Scale3
I0630 14:51:31.167722 47538 net.cpp:148] Top shape: 3 160 32 32 32 (15728640)
I0630 14:51:31.167727 47538 net.cpp:156] Memory required for data: 2994044928
I0630 14:51:31.167735 47538 layer_factory.hpp:77] Creating layer conv6-ReLU3
I0630 14:51:31.167742 47538 net.cpp:91] Creating Layer conv6-ReLU3
I0630 14:51:31.167748 47538 net.cpp:425] conv6-ReLU3 <- conv6-BatchNorm3
I0630 14:51:31.167757 47538 net.cpp:386] conv6-ReLU3 -> conv6-BatchNorm3 (in-place)
I0630 14:51:31.169044 47538 net.cpp:141] Setting up conv6-ReLU3
I0630 14:51:31.169059 47538 net.cpp:148] Top shape: 3 160 32 32 32 (15728640)
I0630 14:51:31.169064 47538 net.cpp:156] Memory required for data: 3056959488
I0630 14:51:31.169070 47538 layer_factory.hpp:77] Creating layer conv6-Convolution4
I0630 14:51:31.169085 47538 net.cpp:91] Creating Layer conv6-Convolution4
I0630 14:51:31.169096 47538 net.cpp:425] conv6-Convolution4 <- conv6-BatchNorm3
I0630 14:51:31.169123 47538 net.cpp:399] conv6-Convolution4 -> conv6-Convolution4
I0630 14:51:31.171974 47538 net.cpp:141] Setting up conv6-Convolution4
I0630 14:51:31.171995 47538 net.cpp:148] Top shape: 3 16 32 32 32 (1572864)
I0630 14:51:31.172003 47538 net.cpp:156] Memory required for data: 3063250944
I0630 14:51:31.172017 47538 layer_factory.hpp:77] Creating layer conv6-Dropout3
I0630 14:51:31.172035 47538 net.cpp:91] Creating Layer conv6-Dropout3
I0630 14:51:31.172051 47538 net.cpp:425] conv6-Dropout3 <- conv6-Convolution4
I0630 14:51:31.172062 47538 net.cpp:399] conv6-Dropout3 -> conv6-Dropout3
I0630 14:51:31.172173 47538 net.cpp:141] Setting up conv6-Dropout3
I0630 14:51:31.172186 47538 net.cpp:148] Top shape: 3 16 32 32 32 (1572864)
I0630 14:51:31.172194 47538 net.cpp:156] Memory required for data: 3069542400
I0630 14:51:31.172200 47538 layer_factory.hpp:77] Creating layer conv6-Concat3
I0630 14:51:31.172214 47538 net.cpp:91] Creating Layer conv6-Concat3
I0630 14:51:31.172224 47538 net.cpp:425] conv6-Concat3 <- conv6-Concat2_conv6-Concat2_0_split_1
I0630 14:51:31.172235 47538 net.cpp:425] conv6-Concat3 <- conv6-Dropout3
I0630 14:51:31.172248 47538 net.cpp:399] conv6-Concat3 -> conv6
I0630 14:51:31.172307 47538 net.cpp:141] Setting up conv6-Concat3
I0630 14:51:31.172322 47538 net.cpp:148] Top shape: 3 176 32 32 32 (17301504)
I0630 14:51:31.172329 47538 net.cpp:156] Memory required for data: 3138748416
I0630 14:51:31.172336 47538 layer_factory.hpp:77] Creating layer conv6_bn
I0630 14:51:31.172350 47538 net.cpp:91] Creating Layer conv6_bn
I0630 14:51:31.172358 47538 net.cpp:425] conv6_bn <- conv6
I0630 14:51:31.172372 47538 net.cpp:399] conv6_bn -> conv6_bn
I0630 14:51:31.173282 47538 net.cpp:141] Setting up conv6_bn
I0630 14:51:31.173301 47538 net.cpp:148] Top shape: 3 176 32 32 32 (17301504)
I0630 14:51:31.173308 47538 net.cpp:156] Memory required for data: 3207954432
I0630 14:51:31.173326 47538 layer_factory.hpp:77] Creating layer scale_conv6_fine
I0630 14:51:31.173341 47538 net.cpp:91] Creating Layer scale_conv6_fine
I0630 14:51:31.173352 47538 net.cpp:425] scale_conv6_fine <- conv6_bn
I0630 14:51:31.173362 47538 net.cpp:386] scale_conv6_fine -> conv6_bn (in-place)
I0630 14:51:31.173463 47538 layer_factory.hpp:77] Creating layer scale_conv6_fine
I0630 14:51:31.173840 47538 net.cpp:141] Setting up scale_conv6_fine
I0630 14:51:31.173856 47538 net.cpp:148] Top shape: 3 176 32 32 32 (17301504)
I0630 14:51:31.173863 47538 net.cpp:156] Memory required for data: 3277160448
I0630 14:51:31.173878 47538 layer_factory.hpp:77] Creating layer relu6
I0630 14:51:31.173892 47538 net.cpp:91] Creating Layer relu6
I0630 14:51:31.173900 47538 net.cpp:425] relu6 <- conv6_bn
I0630 14:51:31.173910 47538 net.cpp:386] relu6 -> conv6_bn (in-place)
I0630 14:51:31.181679 47538 net.cpp:141] Setting up relu6
I0630 14:51:31.181707 47538 net.cpp:148] Top shape: 3 176 32 32 32 (17301504)
I0630 14:51:31.181715 47538 net.cpp:156] Memory required for data: 3346366464
I0630 14:51:31.181721 47538 layer_factory.hpp:77] Creating layer conv6_2-Convolution1
I0630 14:51:31.181742 47538 net.cpp:91] Creating Layer conv6_2-Convolution1
I0630 14:51:31.181749 47538 net.cpp:425] conv6_2-Convolution1 <- conv6_bn
I0630 14:51:31.181763 47538 net.cpp:399] conv6_2-Convolution1 -> conv6_2-Convolution1
I0630 14:51:31.198658 47538 net.cpp:141] Setting up conv6_2-Convolution1
I0630 14:51:31.198709 47538 net.cpp:148] Top shape: 3 64 32 32 32 (6291456)
I0630 14:51:31.198717 47538 net.cpp:156] Memory required for data: 3371532288
I0630 14:51:31.198740 47538 layer_factory.hpp:77] Creating layer conv6_2-Convolution1_conv6_2-Convolution1_0_split
I0630 14:51:31.198760 47538 net.cpp:91] Creating Layer conv6_2-Convolution1_conv6_2-Convolution1_0_split
I0630 14:51:31.198771 47538 net.cpp:425] conv6_2-Convolution1_conv6_2-Convolution1_0_split <- conv6_2-Convolution1
I0630 14:51:31.198791 47538 net.cpp:399] conv6_2-Convolution1_conv6_2-Convolution1_0_split -> conv6_2-Convolution1_conv6_2-Convolution1_0_split_0
I0630 14:51:31.198823 47538 net.cpp:399] conv6_2-Convolution1_conv6_2-Convolution1_0_split -> conv6_2-Convolution1_conv6_2-Convolution1_0_split_1
I0630 14:51:31.199003 47538 net.cpp:141] Setting up conv6_2-Convolution1_conv6_2-Convolution1_0_split
I0630 14:51:31.199019 47538 net.cpp:148] Top shape: 3 64 32 32 32 (6291456)
I0630 14:51:31.199029 47538 net.cpp:148] Top shape: 3 64 32 32 32 (6291456)
I0630 14:51:31.199038 47538 net.cpp:156] Memory required for data: 3421863936
I0630 14:51:31.199046 47538 layer_factory.hpp:77] Creating layer conv6_2-BatchNorm1
I0630 14:51:31.199069 47538 net.cpp:91] Creating Layer conv6_2-BatchNorm1
I0630 14:51:31.199077 47538 net.cpp:425] conv6_2-BatchNorm1 <- conv6_2-Convolution1_conv6_2-Convolution1_0_split_0
I0630 14:51:31.199092 47538 net.cpp:399] conv6_2-BatchNorm1 -> conv6_2-BatchNorm1
I0630 14:51:31.199733 47538 net.cpp:141] Setting up conv6_2-BatchNorm1
I0630 14:51:31.199746 47538 net.cpp:148] Top shape: 3 64 32 32 32 (6291456)
I0630 14:51:31.199754 47538 net.cpp:156] Memory required for data: 3447029760
I0630 14:51:31.199772 47538 layer_factory.hpp:77] Creating layer conv6_2-Scale1
I0630 14:51:31.199790 47538 net.cpp:91] Creating Layer conv6_2-Scale1
I0630 14:51:31.199800 47538 net.cpp:425] conv6_2-Scale1 <- conv6_2-BatchNorm1
I0630 14:51:31.199810 47538 net.cpp:386] conv6_2-Scale1 -> conv6_2-BatchNorm1 (in-place)
I0630 14:51:31.199936 47538 layer_factory.hpp:77] Creating layer conv6_2-Scale1
I0630 14:51:31.204025 47538 net.cpp:141] Setting up conv6_2-Scale1
I0630 14:51:31.204051 47538 net.cpp:148] Top shape: 3 64 32 32 32 (6291456)
I0630 14:51:31.204064 47538 net.cpp:156] Memory required for data: 3472195584
I0630 14:51:31.204080 47538 layer_factory.hpp:77] Creating layer conv6_2-ReLU1
I0630 14:51:31.204094 47538 net.cpp:91] Creating Layer conv6_2-ReLU1
I0630 14:51:31.204103 47538 net.cpp:425] conv6_2-ReLU1 <- conv6_2-BatchNorm1
I0630 14:51:31.204115 47538 net.cpp:386] conv6_2-ReLU1 -> conv6_2-BatchNorm1 (in-place)
I0630 14:51:31.204553 47538 net.cpp:141] Setting up conv6_2-ReLU1
I0630 14:51:31.204571 47538 net.cpp:148] Top shape: 3 64 32 32 32 (6291456)
I0630 14:51:31.204578 47538 net.cpp:156] Memory required for data: 3497361408
I0630 14:51:31.204586 47538 layer_factory.hpp:77] Creating layer conv6_2-Convolution2
I0630 14:51:31.204614 47538 net.cpp:91] Creating Layer conv6_2-Convolution2
I0630 14:51:31.204623 47538 net.cpp:425] conv6_2-Convolution2 <- conv6_2-BatchNorm1
I0630 14:51:31.204638 47538 net.cpp:399] conv6_2-Convolution2 -> conv6_2-Convolution2
I0630 14:51:31.211944 47538 net.cpp:141] Setting up conv6_2-Convolution2
I0630 14:51:31.211973 47538 net.cpp:148] Top shape: 3 16 32 32 32 (1572864)
I0630 14:51:31.211982 47538 net.cpp:156] Memory required for data: 3503652864
I0630 14:51:31.211997 47538 layer_factory.hpp:77] Creating layer conv6_2-Dropout1
I0630 14:51:31.212016 47538 net.cpp:91] Creating Layer conv6_2-Dropout1
I0630 14:51:31.212028 47538 net.cpp:425] conv6_2-Dropout1 <- conv6_2-Convolution2
I0630 14:51:31.212040 47538 net.cpp:399] conv6_2-Dropout1 -> conv6_2-Dropout1
I0630 14:51:31.212169 47538 net.cpp:141] Setting up conv6_2-Dropout1
I0630 14:51:31.212182 47538 net.cpp:148] Top shape: 3 16 32 32 32 (1572864)
I0630 14:51:31.212190 47538 net.cpp:156] Memory required for data: 3509944320
I0630 14:51:31.212198 47538 layer_factory.hpp:77] Creating layer conv6_2-Concat1
I0630 14:51:31.212214 47538 net.cpp:91] Creating Layer conv6_2-Concat1
I0630 14:51:31.212222 47538 net.cpp:425] conv6_2-Concat1 <- conv6_2-Convolution1_conv6_2-Convolution1_0_split_1
I0630 14:51:31.212234 47538 net.cpp:425] conv6_2-Concat1 <- conv6_2-Dropout1
I0630 14:51:31.212245 47538 net.cpp:399] conv6_2-Concat1 -> conv6_2-Concat1
I0630 14:51:31.212311 47538 net.cpp:141] Setting up conv6_2-Concat1
I0630 14:51:31.212322 47538 net.cpp:148] Top shape: 3 80 32 32 32 (7864320)
I0630 14:51:31.212330 47538 net.cpp:156] Memory required for data: 3541401600
I0630 14:51:31.212337 47538 layer_factory.hpp:77] Creating layer conv6_2-Concat1_conv6_2-Concat1_0_split
I0630 14:51:31.212355 47538 net.cpp:91] Creating Layer conv6_2-Concat1_conv6_2-Concat1_0_split
I0630 14:51:31.212384 47538 net.cpp:425] conv6_2-Concat1_conv6_2-Concat1_0_split <- conv6_2-Concat1
I0630 14:51:31.212404 47538 net.cpp:399] conv6_2-Concat1_conv6_2-Concat1_0_split -> conv6_2-Concat1_conv6_2-Concat1_0_split_0
I0630 14:51:31.212420 47538 net.cpp:399] conv6_2-Concat1_conv6_2-Concat1_0_split -> conv6_2-Concat1_conv6_2-Concat1_0_split_1
I0630 14:51:31.212522 47538 net.cpp:141] Setting up conv6_2-Concat1_conv6_2-Concat1_0_split
I0630 14:51:31.212533 47538 net.cpp:148] Top shape: 3 80 32 32 32 (7864320)
I0630 14:51:31.212543 47538 net.cpp:148] Top shape: 3 80 32 32 32 (7864320)
I0630 14:51:31.212551 47538 net.cpp:156] Memory required for data: 3604316160
I0630 14:51:31.212558 47538 layer_factory.hpp:77] Creating layer conv6_2-BatchNorm2
I0630 14:51:31.212574 47538 net.cpp:91] Creating Layer conv6_2-BatchNorm2
I0630 14:51:31.212582 47538 net.cpp:425] conv6_2-BatchNorm2 <- conv6_2-Concat1_conv6_2-Concat1_0_split_0
I0630 14:51:31.212595 47538 net.cpp:399] conv6_2-BatchNorm2 -> conv6_2-BatchNorm2
I0630 14:51:31.213179 47538 net.cpp:141] Setting up conv6_2-BatchNorm2
I0630 14:51:31.213193 47538 net.cpp:148] Top shape: 3 80 32 32 32 (7864320)
I0630 14:51:31.213201 47538 net.cpp:156] Memory required for data: 3635773440
I0630 14:51:31.213222 47538 layer_factory.hpp:77] Creating layer conv6_2-Scale2
I0630 14:51:31.213235 47538 net.cpp:91] Creating Layer conv6_2-Scale2
I0630 14:51:31.213243 47538 net.cpp:425] conv6_2-Scale2 <- conv6_2-BatchNorm2
I0630 14:51:31.213254 47538 net.cpp:386] conv6_2-Scale2 -> conv6_2-BatchNorm2 (in-place)
I0630 14:51:31.213364 47538 layer_factory.hpp:77] Creating layer conv6_2-Scale2
I0630 14:51:31.213726 47538 net.cpp:141] Setting up conv6_2-Scale2
I0630 14:51:31.213742 47538 net.cpp:148] Top shape: 3 80 32 32 32 (7864320)
I0630 14:51:31.213748 47538 net.cpp:156] Memory required for data: 3667230720
I0630 14:51:31.213762 47538 layer_factory.hpp:77] Creating layer conv6_2-ReLU2
I0630 14:51:31.213776 47538 net.cpp:91] Creating Layer conv6_2-ReLU2
I0630 14:51:31.213784 47538 net.cpp:425] conv6_2-ReLU2 <- conv6_2-BatchNorm2
I0630 14:51:31.213794 47538 net.cpp:386] conv6_2-ReLU2 -> conv6_2-BatchNorm2 (in-place)
I0630 14:51:31.214218 47538 net.cpp:141] Setting up conv6_2-ReLU2
I0630 14:51:31.214236 47538 net.cpp:148] Top shape: 3 80 32 32 32 (7864320)
I0630 14:51:31.214242 47538 net.cpp:156] Memory required for data: 3698688000
I0630 14:51:31.214251 47538 layer_factory.hpp:77] Creating layer conv6_2-Convolution3
I0630 14:51:31.214279 47538 net.cpp:91] Creating Layer conv6_2-Convolution3
I0630 14:51:31.214288 47538 net.cpp:425] conv6_2-Convolution3 <- conv6_2-BatchNorm2
I0630 14:51:31.214303 47538 net.cpp:399] conv6_2-Convolution3 -> conv6_2-Convolution3
I0630 14:51:31.226006 47538 net.cpp:141] Setting up conv6_2-Convolution3
I0630 14:51:31.226034 47538 net.cpp:148] Top shape: 3 16 32 32 32 (1572864)
I0630 14:51:31.226042 47538 net.cpp:156] Memory required for data: 3704979456
I0630 14:51:31.226056 47538 layer_factory.hpp:77] Creating layer conv6_2-Dropout2
I0630 14:51:31.226074 47538 net.cpp:91] Creating Layer conv6_2-Dropout2
I0630 14:51:31.226085 47538 net.cpp:425] conv6_2-Dropout2 <- conv6_2-Convolution3
I0630 14:51:31.226097 47538 net.cpp:399] conv6_2-Dropout2 -> conv6_2-Dropout2
I0630 14:51:31.226220 47538 net.cpp:141] Setting up conv6_2-Dropout2
I0630 14:51:31.226233 47538 net.cpp:148] Top shape: 3 16 32 32 32 (1572864)
I0630 14:51:31.226241 47538 net.cpp:156] Memory required for data: 3711270912
I0630 14:51:31.226248 47538 layer_factory.hpp:77] Creating layer conv6_2-Concat2
I0630 14:51:31.226260 47538 net.cpp:91] Creating Layer conv6_2-Concat2
I0630 14:51:31.226267 47538 net.cpp:425] conv6_2-Concat2 <- conv6_2-Concat1_conv6_2-Concat1_0_split_1
I0630 14:51:31.226279 47538 net.cpp:425] conv6_2-Concat2 <- conv6_2-Dropout2
I0630 14:51:31.226295 47538 net.cpp:399] conv6_2-Concat2 -> conv6_2-Concat2
I0630 14:51:31.226356 47538 net.cpp:141] Setting up conv6_2-Concat2
I0630 14:51:31.226366 47538 net.cpp:148] Top shape: 3 96 32 32 32 (9437184)
I0630 14:51:31.226380 47538 net.cpp:156] Memory required for data: 3749019648
I0630 14:51:31.226408 47538 layer_factory.hpp:77] Creating layer conv6_2-Concat2_conv6_2-Concat2_0_split
I0630 14:51:31.226419 47538 net.cpp:91] Creating Layer conv6_2-Concat2_conv6_2-Concat2_0_split
I0630 14:51:31.226428 47538 net.cpp:425] conv6_2-Concat2_conv6_2-Concat2_0_split <- conv6_2-Concat2
I0630 14:51:31.226444 47538 net.cpp:399] conv6_2-Concat2_conv6_2-Concat2_0_split -> conv6_2-Concat2_conv6_2-Concat2_0_split_0
I0630 14:51:31.226457 47538 net.cpp:399] conv6_2-Concat2_conv6_2-Concat2_0_split -> conv6_2-Concat2_conv6_2-Concat2_0_split_1
I0630 14:51:31.226552 47538 net.cpp:141] Setting up conv6_2-Concat2_conv6_2-Concat2_0_split
I0630 14:51:31.226563 47538 net.cpp:148] Top shape: 3 96 32 32 32 (9437184)
I0630 14:51:31.226573 47538 net.cpp:148] Top shape: 3 96 32 32 32 (9437184)
I0630 14:51:31.226579 47538 net.cpp:156] Memory required for data: 3824517120
I0630 14:51:31.226586 47538 layer_factory.hpp:77] Creating layer conv6_2-BatchNorm3
I0630 14:51:31.226598 47538 net.cpp:91] Creating Layer conv6_2-BatchNorm3
I0630 14:51:31.226608 47538 net.cpp:425] conv6_2-BatchNorm3 <- conv6_2-Concat2_conv6_2-Concat2_0_split_0
I0630 14:51:31.226622 47538 net.cpp:399] conv6_2-BatchNorm3 -> conv6_2-BatchNorm3
I0630 14:51:31.227197 47538 net.cpp:141] Setting up conv6_2-BatchNorm3
I0630 14:51:31.227211 47538 net.cpp:148] Top shape: 3 96 32 32 32 (9437184)
I0630 14:51:31.227219 47538 net.cpp:156] Memory required for data: 3862265856
I0630 14:51:31.227234 47538 layer_factory.hpp:77] Creating layer conv6_2-Scale3
I0630 14:51:31.227250 47538 net.cpp:91] Creating Layer conv6_2-Scale3
I0630 14:51:31.227258 47538 net.cpp:425] conv6_2-Scale3 <- conv6_2-BatchNorm3
I0630 14:51:31.227269 47538 net.cpp:386] conv6_2-Scale3 -> conv6_2-BatchNorm3 (in-place)
I0630 14:51:31.227370 47538 layer_factory.hpp:77] Creating layer conv6_2-Scale3
I0630 14:51:31.227735 47538 net.cpp:141] Setting up conv6_2-Scale3
I0630 14:51:31.227747 47538 net.cpp:148] Top shape: 3 96 32 32 32 (9437184)
I0630 14:51:31.227756 47538 net.cpp:156] Memory required for data: 3900014592
I0630 14:51:31.227767 47538 layer_factory.hpp:77] Creating layer conv6_2-ReLU3
I0630 14:51:31.227782 47538 net.cpp:91] Creating Layer conv6_2-ReLU3
I0630 14:51:31.227788 47538 net.cpp:425] conv6_2-ReLU3 <- conv6_2-BatchNorm3
I0630 14:51:31.227799 47538 net.cpp:386] conv6_2-ReLU3 -> conv6_2-BatchNorm3 (in-place)
I0630 14:51:31.228195 47538 net.cpp:141] Setting up conv6_2-ReLU3
I0630 14:51:31.228211 47538 net.cpp:148] Top shape: 3 96 32 32 32 (9437184)
I0630 14:51:31.228219 47538 net.cpp:156] Memory required for data: 3937763328
I0630 14:51:31.228226 47538 layer_factory.hpp:77] Creating layer conv6_2-Convolution4
I0630 14:51:31.228252 47538 net.cpp:91] Creating Layer conv6_2-Convolution4
I0630 14:51:31.228260 47538 net.cpp:425] conv6_2-Convolution4 <- conv6_2-BatchNorm3
I0630 14:51:31.228277 47538 net.cpp:399] conv6_2-Convolution4 -> conv6_2-Convolution4
I0630 14:51:31.233165 47538 net.cpp:141] Setting up conv6_2-Convolution4
I0630 14:51:31.233187 47538 net.cpp:148] Top shape: 3 16 32 32 32 (1572864)
I0630 14:51:31.233194 47538 net.cpp:156] Memory required for data: 3944054784
I0630 14:51:31.233208 47538 layer_factory.hpp:77] Creating layer conv6_2-Dropout3
I0630 14:51:31.233222 47538 net.cpp:91] Creating Layer conv6_2-Dropout3
I0630 14:51:31.233232 47538 net.cpp:425] conv6_2-Dropout3 <- conv6_2-Convolution4
I0630 14:51:31.233247 47538 net.cpp:399] conv6_2-Dropout3 -> conv6_2-Dropout3
I0630 14:51:31.233362 47538 net.cpp:141] Setting up conv6_2-Dropout3
I0630 14:51:31.233376 47538 net.cpp:148] Top shape: 3 16 32 32 32 (1572864)
I0630 14:51:31.233382 47538 net.cpp:156] Memory required for data: 3950346240
I0630 14:51:31.233389 47538 layer_factory.hpp:77] Creating layer conv6_2-Concat3
I0630 14:51:31.233400 47538 net.cpp:91] Creating Layer conv6_2-Concat3
I0630 14:51:31.233409 47538 net.cpp:425] conv6_2-Concat3 <- conv6_2-Concat2_conv6_2-Concat2_0_split_1
I0630 14:51:31.233418 47538 net.cpp:425] conv6_2-Concat3 <- conv6_2-Dropout3
I0630 14:51:31.233441 47538 net.cpp:399] conv6_2-Concat3 -> conv6_2
I0630 14:51:31.233520 47538 net.cpp:141] Setting up conv6_2-Concat3
I0630 14:51:31.233534 47538 net.cpp:148] Top shape: 3 112 32 32 32 (11010048)
I0630 14:51:31.233541 47538 net.cpp:156] Memory required for data: 3994386432
I0630 14:51:31.233547 47538 layer_factory.hpp:77] Creating layer conv6_2_bn
I0630 14:51:31.233563 47538 net.cpp:91] Creating Layer conv6_2_bn
I0630 14:51:31.233573 47538 net.cpp:425] conv6_2_bn <- conv6_2
I0630 14:51:31.233587 47538 net.cpp:399] conv6_2_bn -> conv6_2_bn
I0630 14:51:31.234149 47538 net.cpp:141] Setting up conv6_2_bn
I0630 14:51:31.234163 47538 net.cpp:148] Top shape: 3 112 32 32 32 (11010048)
I0630 14:51:31.234170 47538 net.cpp:156] Memory required for data: 4038426624
I0630 14:51:31.234189 47538 layer_factory.hpp:77] Creating layer scale_conv6_2
I0630 14:51:31.234200 47538 net.cpp:91] Creating Layer scale_conv6_2
I0630 14:51:31.234206 47538 net.cpp:425] scale_conv6_2 <- conv6_2_bn
I0630 14:51:31.234221 47538 net.cpp:386] scale_conv6_2 -> conv6_2_bn (in-place)
I0630 14:51:31.234318 47538 layer_factory.hpp:77] Creating layer scale_conv6_2
I0630 14:51:31.237280 47538 net.cpp:141] Setting up scale_conv6_2
I0630 14:51:31.237303 47538 net.cpp:148] Top shape: 3 112 32 32 32 (11010048)
I0630 14:51:31.237310 47538 net.cpp:156] Memory required for data: 4082466816
I0630 14:51:31.237325 47538 layer_factory.hpp:77] Creating layer relu6_2
I0630 14:51:31.237336 47538 net.cpp:91] Creating Layer relu6_2
I0630 14:51:31.237344 47538 net.cpp:425] relu6_2 <- conv6_2_bn
I0630 14:51:31.237360 47538 net.cpp:386] relu6_2 -> conv6_2_bn (in-place)
I0630 14:51:31.237769 47538 net.cpp:141] Setting up relu6_2
I0630 14:51:31.237785 47538 net.cpp:148] Top shape: 3 112 32 32 32 (11010048)
I0630 14:51:31.237792 47538 net.cpp:156] Memory required for data: 4126507008
I0630 14:51:31.237800 47538 layer_factory.hpp:77] Creating layer conv6_3-Convolution1
I0630 14:51:31.237823 47538 net.cpp:91] Creating Layer conv6_3-Convolution1
I0630 14:51:31.237830 47538 net.cpp:425] conv6_3-Convolution1 <- conv6_2_bn
I0630 14:51:31.237848 47538 net.cpp:399] conv6_3-Convolution1 -> conv6_3-Convolution1
I0630 14:51:31.246121 47538 net.cpp:141] Setting up conv6_3-Convolution1
I0630 14:51:31.246145 47538 net.cpp:148] Top shape: 3 4 32 32 32 (393216)
I0630 14:51:31.246152 47538 net.cpp:156] Memory required for data: 4128079872
I0630 14:51:31.246165 47538 layer_factory.hpp:77] Creating layer conv6_3-BatchNorm1
I0630 14:51:31.246186 47538 net.cpp:91] Creating Layer conv6_3-BatchNorm1
I0630 14:51:31.246196 47538 net.cpp:425] conv6_3-BatchNorm1 <- conv6_3-Convolution1
I0630 14:51:31.246210 47538 net.cpp:399] conv6_3-BatchNorm1 -> conv6_3-BatchNorm1
I0630 14:51:31.246769 47538 net.cpp:141] Setting up conv6_3-BatchNorm1
I0630 14:51:31.246783 47538 net.cpp:148] Top shape: 3 4 32 32 32 (393216)
I0630 14:51:31.246789 47538 net.cpp:156] Memory required for data: 4129652736
I0630 14:51:31.246803 47538 layer_factory.hpp:77] Creating layer conv6_3-Scale1
I0630 14:51:31.246814 47538 net.cpp:91] Creating Layer conv6_3-Scale1
I0630 14:51:31.246822 47538 net.cpp:425] conv6_3-Scale1 <- conv6_3-BatchNorm1
I0630 14:51:31.246831 47538 net.cpp:386] conv6_3-Scale1 -> conv6_3-BatchNorm1 (in-place)
I0630 14:51:31.246928 47538 layer_factory.hpp:77] Creating layer conv6_3-Scale1
I0630 14:51:31.247264 47538 net.cpp:141] Setting up conv6_3-Scale1
I0630 14:51:31.247282 47538 net.cpp:148] Top shape: 3 4 32 32 32 (393216)
I0630 14:51:31.247289 47538 net.cpp:156] Memory required for data: 4131225600
I0630 14:51:31.247300 47538 layer_factory.hpp:77] Creating layer conv6_3-ReLU1
I0630 14:51:31.247309 47538 net.cpp:91] Creating Layer conv6_3-ReLU1
I0630 14:51:31.247318 47538 net.cpp:425] conv6_3-ReLU1 <- conv6_3-BatchNorm1
I0630 14:51:31.247328 47538 net.cpp:386] conv6_3-ReLU1 -> conv6_3-BatchNorm1 (in-place)
I0630 14:51:31.248963 47538 net.cpp:141] Setting up conv6_3-ReLU1
I0630 14:51:31.248983 47538 net.cpp:148] Top shape: 3 4 32 32 32 (393216)
I0630 14:51:31.248997 47538 net.cpp:156] Memory required for data: 4132798464
I0630 14:51:31.249023 47538 layer_factory.hpp:77] Creating layer conv6_3-BatchNorm1_conv6_3-ReLU1_0_split
I0630 14:51:31.249039 47538 net.cpp:91] Creating Layer conv6_3-BatchNorm1_conv6_3-ReLU1_0_split
I0630 14:51:31.249047 47538 net.cpp:425] conv6_3-BatchNorm1_conv6_3-ReLU1_0_split <- conv6_3-BatchNorm1
I0630 14:51:31.249060 47538 net.cpp:399] conv6_3-BatchNorm1_conv6_3-ReLU1_0_split -> conv6_3-BatchNorm1_conv6_3-ReLU1_0_split_0
I0630 14:51:31.249079 47538 net.cpp:399] conv6_3-BatchNorm1_conv6_3-ReLU1_0_split -> conv6_3-BatchNorm1_conv6_3-ReLU1_0_split_1
I0630 14:51:31.249182 47538 net.cpp:141] Setting up conv6_3-BatchNorm1_conv6_3-ReLU1_0_split
I0630 14:51:31.249194 47538 net.cpp:148] Top shape: 3 4 32 32 32 (393216)
I0630 14:51:31.249204 47538 net.cpp:148] Top shape: 3 4 32 32 32 (393216)
I0630 14:51:31.249210 47538 net.cpp:156] Memory required for data: 4135944192
I0630 14:51:31.249217 47538 layer_factory.hpp:77] Creating layer accuracy
I0630 14:51:31.249236 47538 net.cpp:91] Creating Layer accuracy
I0630 14:51:31.249245 47538 net.cpp:425] accuracy <- conv6_3-BatchNorm1_conv6_3-ReLU1_0_split_0
I0630 14:51:31.249254 47538 net.cpp:425] accuracy <- dataSeg_data_2_split_0
…
